Assets/NN/13_12-3.onnx (onnx, 631889 bytes, 11 tensors)

72 f4 [341]
000000 87 11 83 3a 71 df 15 3e 87 11 83 3a 87 11 83 3a
       0.000999973 0.14636017 0.000999973 0.000999973
000010 87 11 83 3a 87 11 83 3a 87 11 83 3a 9b 3b 8e 3e
       0.000999973 0.000999973 0.000999973 0.2777985
000020 87 11 83 3a 10 ba 9d 3e fb bd 9a 3e 87 11 83 3a
       0.000999973 0.30806017 0.3022307 0.000999973
000030 5a 8a df 3d 87 11 83 3a 87 11 83 3a 87 11 83 3a
       0.1091506 0.000999973 0.000999973 0.000999973
000040 87 11 83 3a 87 11 83 3a 9f c4 ff 3e c2 b8 81 3e
       0.000999973 0.000999973 0.49954697 0.25336272
000050 7b d1 f9 3e d3 ea f3 3e 87 11 83 3a 14 3e 4a 3d
       0.48792633 0.47640094 0.000999973 0.04937561
000060 87 11 83 3a 87 11 83 3a 87 11 83 3a 87 11 83 3a
       0.000999973 0.000999973 0.000999973 0.000999973
000070 87 11 83 3a e3 9d dd 3e 5d 40 d3 3d b8 c6 e2 3e
       0.000999973 0.4328452 0.10315011 0.44292235
000080 09 ac d8 3e 87 11 83 3a 62 4e 49 3c 87 11 83 3a
       0.42318752 0.000999973 0.012286754 0.000999973
000090 87 11 83 3a 87 11 83 3a 87 11 83 3a 87 11 83 3a
       0.000999973 0.000999973 0.000999973 0.000999973
0000a0 64 7c fc 3e e6 07 ad 3e 56 4f e4 3e ac 12 df 3e
       0.49313653 0.3379509 0.4459178 0.43568933
0000b0 87 11 83 3a 86 cf 7d 3b 87 11 83 3a 87 11 83 3a
       0.000999973 0.003872843 0.000999973 0.000999973
0000c0 87 11 83 3a 87 11 83 3a 87 11 83 3a 67 b5 f5 3e
       0.000999973 0.000999973 0.000999973 0.47989962
0000d0 0d 3c aa 3e a2 e7 ff 3e 38 dc f0 3e 87 11 83 3a
       0.3324894 0.4998141 0.47043014 0.000999973
0000e0 e4 d5 1e 3c 87 11 83 3a 87 11 83 3a 87 11 83 3a
       0.00969455 0.000999973 0.000999973 0.000999973
0000f0 87 11 83 3a 87 11 83 3a 13 04 e8 3e 39 ff de 3e
       0.000999973 0.000999973 0.45315608 0.43554094
000100 a8 c6 15 3e e0 1f 15 3e 87 11 83 3a c8 38 c5 3c
       0.14626563 0.1456294 0.000999973 0.024074927
000110 87 11 83 3a 87 11 83 3a 87 11 83 3a 87 11 83 3a
       0.000999973 0.000999973 0.000999973 0.000999973
000120 87 11 83 3a c3 c7 fe 3e 83 7b f3 3e 20 2d 81 3e
       0.000999973 0.4976178 0.4755517 0.2522974
000130 3b 6e 76 3e 87 11 83 3a ee 2d 22 3c 87 11 83 3a
       0.24065487 0.000999973 0.009898646 0.000999973
000140 87 11 83 3a 87 11 83 3a 87 11 83 3a 87 11 83 3a
       0.000999973 0.000999973 0.000999973 0.000999973
000150 01 fa e5 3e 39 ff de 3e 15 08 ec 3d be 86 ec 3d
       0.449173 0.43554094 0.11524979 0.115491375
000160 87 11 83 3a 6c 90 db 3c 87 11 83 3a 87 11 83 3a
       0.000999973 0.026802264 0.000999973 0.000999973
000170 87 11 83 3a 87 11 83 3a 87 11 83 3a 99 cc fc 3e
       0.000999973 0.000999973 0.000999973 0.49374846
000180 83 7b f3 3e ca d9 40 3e eb 8e 3a 3e 87 11 83 3a
       0.4755517 0.1883308 0.18218581 0.000999973
000190 ee 2d 22 3c 87 11 83 3a 87 11 83 3a 87 11 83 3a
       0.009898646 0.000999973 0.000999973 0.000999973
0001a0 87 11 83 3a 87 11 83 3a 3b 75 e5 3e 39 ff de 3e
       0.000999973 0.000999973 0.44816002 0.43554094
0001b0 42 f3 d8 3d fc 69 d9 3d 87 11 83 3a 32 09 ed 3c
       0.10593273 0.10615918 0.000999973 0.028935049
0001c0 87 11 83 3a 87 11 83 3a 87 11 83 3a 87 11 83 3a
       0.000999973 0.000999973 0.000999973 0.000999973
0001d0 87 11 83 3a 20 ef fa 3e 83 7b f3 3e 1f 9e fa 3d
       0.000999973 0.49010563 0.4755517 0.122371905
0001e0 7b e7 f6 3d 87 11 83 3a 94 ad 1f 3c 87 11 83 3a
       0.1205587 0.000999973 0.009745974 0.000999973
0001f0 87 11 83 3a 87 11 83 3a 87 11 83 3a 87 11 83 3a
       0.000999973 0.000999973 0.000999973 0.000999973
000200 34 82 e5 3e 39 ff de 3e 42 f3 d8 3d 15 f8 d8 3d
       0.448259 0.43554094 0.10593273 0.10594193
000210 87 11 83 3a 32 09 ed 3c 87 11 83 3a 87 11 83 3a
       0.000999973 0.028935049 0.000999973 0.000999973
000220 87 11 83 3a 87 11 83 3a 87 11 83 3a 3f 98 fa 3e
       0.000999973 0.000999973 0.000999973 0.4894428
000230 83 7b f3 3e 42 f3 d8 3d 9c 25 d7 3d 87 11 83 3a
       0.4755517 0.10593273 0.1050522 0.000999973
000240 bc 02 e3 3b 87 11 83 3a 87 11 83 3a 87 11 83 3a
       0.006927816 0.000999973 0.000999973 0.000999973
000250 87 11 83 3a 87 11 83 3a fe 8f e5 3e 39 ff de 3e
       0.000999973 0.000999973 0.4483642 0.43554094
000260 42 f3 d8 3d da ca d8 3d 87 11 83 3a 56 3b fa 3c
       0.10593273 0.10585566 0.000999973 0.030545872
000270 87 11 83 3a 87 11 83 3a 87 11 83 3a 87 11 83 3a
       0.000999973 0.000999973 0.000999973 0.000999973
000280 87 11 83 3a ad b8 fa 3e 83 7b f3 3e 42 f3 d8 3d
       0.000999973 0.4896902 0.4755517 0.10593273
000290 b6 f2 d6 3d 87 11 83 3a bc 02 e3 3b 40 eb e8 3d
       0.10495512 0.000999973 0.006927816 0.113729954
0002a0 87 11 83 3a 87 11 83 3a 87 11 83 3a 87 11 83 3a
       0.000999973 0.000999973 0.000999973 0.000999973
0002b0 7b 1f e9 3e 77 bd db 3e 42 f3 d8 3d 80 ba d8 3d
       0.4553183 0.42917988 0.10593273 0.10582447
0002c0 87 11 83 3a 56 3b fa 3c 2a 2b b2 3d 87 11 83 3a
       0.000999973 0.030545872 0.08699639 0.000999973
0002d0 87 11 83 3a 87 11 83 3a 87 11 83 3a b1 13 fd 3e
       0.000999973 0.000999973 0.000999973 0.49429086
0002e0 05 89 e7 3e 42 f3 d8 3d 92 89 d6 3d 87 11 83 3a
       0.45221725 0.10593273 0.10475458 0.000999973
0002f0 bc 02 e3 3b f5 d6 61 3e 87 11 83 3a 87 11 83 3a
       0.006927816 0.22054656 0.000999973 0.000999973
000300 87 11 83 3a 87 11 83 3a 0d 6d f5 3e 59 c3 d4 3e
       0.000999973 0.000999973 0.47934762 0.41555288
000310 42 f3 d8 3d 50 cf d8 3d 87 11 83 3a 05 44 ff 3c
       0.10593273 0.10586417 0.000999973 0.031160364
000320 36 3d 5f 3e 87 11 83 3a 87 11 83 3a 87 11 83 3a
       0.21800694 0.000999973 0.000999973 0.000999973
000330 87 11 83 3a 0a c6 ff 3e de c8 df 3e 42 f3 d8 3d
       0.000999973 0.4995578 0.43707937 0.10593273
000340 42 88 d7 3d 87 11 83 3a fc 62 2d 3b 46 1c 7b 3e
       0.10524036 0.000999973 0.0026456704 0.24522504
000350 87 11 83 3a 87 11 83 3a 87 11 83 3a 87 11 83 3a
       0.000999973 0.000999973 0.000999973 0.000999973
000360 0c 9a f8 3e f0 a5 d2 3e 42 f3 d8 3d 5c 6c d9 3d
       0.48555028 0.41142225 0.10593273 0.10616371
000370 87 11 83 3a bf 26 a2 3c 45 31 81 3e 87 11 83 3a
       0.000999973 0.019793866 0.25232902 0.000999973
000380 87 11 83 3a 87 11 83 3a 87 11 83 3a e5 96 fe 3e
       0.000999973 0.000999973 0.000999973 0.49724498
000390 3a cb d8 3e 42 f3 d8 3d 9f ce d8 3d 87 11 83 3a
       0.4234255 0.10593273 0.10586285 0.000999973
0003a0 c1 13 a7 3b 95 3e 83 3e 87 11 83 3a 87 11 83 3a
       0.0050987904 0.25633684 0.000999973 0.000999973
0003b0 87 11 83 3a 87 11 83 3a 65 12 fa 3e 16 a0 cf 3e
       0.000999973 0.000999973 0.4884216 0.40551823
0003c0 42 f3 d8 3d a9 7b da 3d 87 11 83 3a 0c 7d f2 3c
       0.10593273 0.106681176 0.000999973 0.029600643
0003d0 9e c7 85 3e 87 11 83 3a 87 11 83 3a 87 11 83 3a
       0.26128858 0.000999973 0.000999973 0.000999973
0003e0 87 11 83 3a 4d 5d fc 3e 2d 6c c9 3e 42 f3 d8 3d
       0.000999973 0.49289933 0.39340344 0.10593273
0003f0 10 2a da 3d 87 11 83 3a e1 3f 6c 3c d5 cf 86 3e
       0.10652554 0.000999973 0.014419527 0.26330438

75 f4 [8]
000000 13 8e 98 40 7c 87 5f 40 87 11 83 3a d0 b6 6a 3f
       4.767343 3.4926443 0.000999973 0.916852
000010 1f 04 96 40 9b 91 56 40 87 11 83 3a 0b 5b 70 3f
       4.688003 3.352637 0.000999973 0.9388892

action_model._continuous_distribution.mu.weight f4 [1, 256]
000000 f7 3d 98 3c f2 6d 14 bc 53 9f 89 bb fa 03 9b bc
       0.018584235 -0.009059416 -0.004199901 -0.018922795
000010 19 95 a5 bb 70 7a 47 3c a3 59 3e 3b 18 92 4f bc
       -0.005053174 0.0121751875 0.0029045127 -0.012669109
000020 dc cd 26 3c cf 37 47 3c d4 07 09 bd 35 02 c1 3c
       0.010180917 0.012159302 -0.03345473 0.023560623
000030 19 ad 62 3c 7c 04 a5 3b d5 8f c8 bc 0e 10 96 3c
       0.013835215 0.005035935 -0.024482647 0.018318202
000040 9f d9 20 3c 1c 94 91 ba cd 05 bf bc 60 98 a6 3c
       0.00981751 -0.0011106762 -0.023318196 0.02033633
000050 c0 0a 38 3c c2 a8 8b 3c 82 e8 6b bc e6 b9 a3 bc
       0.011233032 0.017048243 -0.014398696 -0.019986104
000060 09 21 04 3d e9 60 8d 3c 14 87 21 3d c1 19 39 bc
       0.032258067 0.017258124 0.03943546 -0.011297644
000070 a1 10 a7 3c 0c 79 13 3c 82 ac 84 3b f5 73 fc 3c
       0.020393671 0.009001028 0.004048885 0.030817011
000080 cb 58 23 bc 97 a7 aa bc c4 32 c7 bc ed 3f d8 3b
       -0.0099699 -0.020831866 -0.0243162 0.0065994174
000090 25 f1 8d 3c 03 3c 84 3c 99 4e 12 3c 4e a4 03 3c
       0.0173269 0.016141897 0.008929872 0.008034779
0000a0 1b fb 38 bc 69 b8 d4 bc 92 86 8d 3c a3 a1 e6 bb
       -0.011290337 -0.02596684 0.017276082 -0.0070383116
0000b0 ac 7f 94 bc b6 13 42 3c 1f 25 93 3c 0a 65 33 3c
       -0.018127285 0.01184552 0.017962037 0.010949383
0000c0 b4 3e 74 bc 83 ef b7 3c 37 91 4b bc ef ce d6 3a
       -0.014907528 0.022453075 -0.012424759 0.0016388575
0000d0 15 2b ca bc 7b cc 2d 3c b1 59 a8 bb 49 a7 af 3b
       -0.024678746 0.010607834 -0.005137645 0.005360518
0000e0 6a 56 62 3c 29 44 a4 bb ed 28 3f bc 5d ad fe 3b
       0.013814548 -0.005013008 -0.011667472 0.0077721314
0000f0 35 c4 63 3b 77 69 24 bc 4a 4a c3 bc 4f 6e 29 bc
       0.00347544 -0.01003491 -0.023839135 -0.010341241
000100 4c 9f 17 3c 3f 03 16 bc 80 dd a8 3c 17 81 e3 3b
       0.009254288 -0.009156047 0.020613432 0.006942879
000110 97 1c 50 3c 66 61 40 3c 43 cd 5f bc b0 bb d0 3c
       0.012702129 0.011741972 -0.013659778 0.025480121
000120 33 83 f3 bc 55 e3 37 3c ad c1 31 bc 2b d0 64 bc
       -0.029725647 0.011223634 -0.010849399 -0.013965647
000130 b8 ee 9f bb f4 a1 34 3c fa 90 98 38 45 33 06 3c
       -0.0048807524 0.011024941 7.274929e-05 0.008190935
000140 72 d2 3c bc 3a 90 46 bc eb b7 b8 bc b2 6f 19 3d
       -0.011524783 -0.012119347 -0.022548636 0.037460037
000150 13 5d d9 3c f1 5b 57 3c c1 9b a9 3c c8 72 68 3c
       0.026533639 0.013144479 0.020704152 0.014187522
000160 70 e3 dc 3c 94 8a 9b ba 11 0c a3 39 8d 0d 14 3c
       0.02696392 -0.0011866861 0.00031098773 0.009036434
000170 7f 07 aa 3b a3 96 34 3b ed 46 d6 3c d3 cf 29 3c
       0.005188882 0.0027555607 0.026156867 0.010364491
000180 02 15 12 3c 89 cc 68 3c 7e 7d c2 3c 27 1c 5d 3c
       0.008916141 0.014208921 0.02374148 0.013495482
000190 b8 c7 8f 3c a6 90 23 3c 9e fe ce ba b3 c4 8d 3c
       0.017551288 0.009983217 -0.0015792435 0.017305708
0001a0 3f c6 b3 3b fa 5b a5 bc 20 bb 11 3c d5 47 97 3b
       0.0054862793 -0.02018546 0.008894712 0.0046167173
0001b0 65 b7 84 3a 6a 68 e0 3c 7c 7f 62 3c 2a d7 25 3d
       0.0010125457 0.027393539 0.01382434 0.0404884
0001c0 29 73 2c 3c 61 71 92 3c de cf f5 3b f1 21 65 bc
       0.010525503 0.017876329 0.0075015863 -0.013985143
0001d0 83 17 f5 3b b9 6c 6c 3c c4 01 4b bb ea 24 da 3b
       0.0074796095 0.014430218 -0.0030976394 0.0066572325
0001e0 1c 4e 80 3b 67 7a 3e 3d 0c 4b 50 3c 2d 44 55 3c
       0.0039155614 0.04650345 0.012713205 0.013016743
0001f0 53 ab c9 3b ac 8f b3 3c e6 6d 17 bb 0b 5d 84 3c
       0.0061544566 0.021919094 -0.0023106276 0.016157648
000200 b0 15 cc 3c 4a 18 97 bc 0f f9 d8 3a 7c 43 1d b8
       0.024912685 -0.0184442 0.0016553717 -3.7494567e-05
000210 6b f6 2f 3c 55 0c 37 bc 5b 0c b8 ba b6 13 69 bc
       0.010739903 -0.011172374 -0.0014041768 -0.014225891
000220 ed 1a b5 bc 59 9c ee 3c c9 66 8c bc 3a 8e b7 3c
       -0.022107566 0.029127287 -0.017138856 0.022406686
000230 c7 0a 85 3b aa 1f be bb 1a a4 d7 bc 02 9e 3f bc
       0.0040601227 -0.0058021145 -0.026323367 -0.011695387
000240 ab 6e 64 bc 57 b5 b1 bb e1 0c 52 3a 7a 5e 11 bd
       -0.013942401 -0.0054232287 0.00080127834 -0.03549049
000250 20 88 91 3c be 7f 1e 3d fc 24 45 bc 82 d8 15 bd
       0.017765105 0.038696043 -0.012032744 -0.03658343
000260 ed df 3d bc 34 31 6a 3c 0a a1 7f bc 68 3d 0a bd
       -0.011589033 0.0142939575 -0.01560236 -0.033749968
000270 11 9f 01 3c c1 3c 7d bc 45 27 48 3b 5f 86 a9 3b
       0.00791146 -0.015456379 0.0030540985 0.005173489
000280 89 55 95 3c 1b bc b1 bc f2 f8 c8 bc 03 35 2a bb
       0.018229263 -0.021696141 -0.024532769 -0.002597154
000290 ca 15 44 bc 1b 02 03 bc 7b d5 73 bc b2 69 83 3c
       -0.011968086 -0.007996107 -0.014882441 0.01604161
0002a0 46 8d cc bb 30 1a 8f 3c 81 04 9b bc 61 d3 e8 3b
       -0.006242427 0.017468542 -0.018923046 0.0071052765
0002b0 c5 62 4f 3a 76 52 c5 ba 7c 6f b0 3c a7 f1 37 bb
       0.0007911141 -0.0015054483 0.021537535 -0.002806762
0002c0 c9 1a d4 3c c0 d6 5a 3c af 5f c0 bc 73 81 85 bc
       0.025891678 0.013356864 -0.023483125 -0.016297078
0002d0 f8 af 20 bc f8 78 02 bb 55 d5 d1 3b b5 26 d7 bb
       -0.009807579 -0.0019908529 0.006403605 -0.0065658935
0002e0 ac a5 93 3c ca 90 58 ba 7c cf 1c 3a af 97 9e bc
       0.018023334 -0.00082613213 0.00059818453 -0.019359438
0002f0 50 f5 a3 bc fe 08 bb 3c 40 b7 09 3c 63 0e d3 ba
       -0.020014435 0.022831436 0.008405507 -0.001610231
000300 cc 96 32 3c 1b 0d a4 3b 5f af a1 bb 2e 1d 4a 3c
       0.010900211 0.005006445 -0.004934236 0.012336059
000310 8f 9b 92 bb e4 19 11 3c 55 98 0f 3c 62 bc 14 3c
       -0.0044741104 0.00885627 0.008764346 0.009078117
000320 8f e5 dd bb e5 10 d7 3c 96 a2 d3 bb ee c0 98 3c
       -0.0067717503 0.026253173 -0.0064585907 0.018646684
000330 40 64 f9 bc ac 29 bb bc 25 6e 2f bc 91 82 1f bc
       -0.03044331 -0.02284702 -0.010707413 -0.009735719
000340 92 2e c9 3c ba 4f 2a 3c ee 0e 77 bc 48 da bc bc
       0.02455834 0.010394985 -0.015079243 -0.023053303
000350 71 3d cf 3c 2d 44 15 3c f9 4d 76 3c 26 8e 1e 3c
       0.025297852 0.009110493 0.015033239 0.0096774455
000360 13 e1 5e 3a be 73 99 bc 4b 0b 2d 3c 9f 0b 04 bc
       0.00085021666 -0.018731948 0.0105617745 -0.008059411
000370 bc 7d 9c bc a1 2e 5b bc 1b 6c 31 3c 27 29 96 3b
       -0.019102924 -0.013377816 0.010828997 0.0045825425
000380 df a1 0c 3d 63 fa 14 3c 65 79 76 b8 36 e8 62 bc
       0.03433406 0.0090929 -5.8764028e-05 -0.013849309
000390 ce 67 58 3c e8 a6 25 bb c0 16 79 bc b7 46 5f bc
       0.013208343 -0.0025276486 -0.015203178 -0.0136277
0003a0 b5 b5 76 3c a1 10 8e bc ff 06 4f bc 8b 1c dd bc
       0.015057971 -0.017341914 -0.012635945 -0.02699115
0003b0 79 dd b5 b9 a6 f4 b7 3c 04 4c 54 bb 99 7c 33 bc
       -0.0003468802 0.022455525 -0.0032393942 -0.010954999
0003c0 13 bc cf 3c db 43 b7 3b a6 cf 05 3c 2b bd d2 3a
       0.025358235 0.005592806 0.008167183 0.0016078105
0003d0 f5 da bc 3a 8c 33 13 bc 3c 12 2f 3c 84 67 87 3c
       0.0014408516 -0.008984458 0.0106855 0.016528852
0003e0 59 8e 65 bc b3 43 11 3c 67 bb 8e 3c 51 0d e2 3a
       -0.014010989 0.008866238 0.017423345 0.00172464
0003f0 a8 8f 42 bc 86 3f 0a 3d dc 3a 7d 3b 8c 69 88 3c
       -0.011875071 0.033751987 0.003863982 0.016651891

action_model._discrete_distribution.branches.0.bias f4 [3]
000000 95 ca 96 39 b4 2c aa b9 8d f6 d9 37
       0.00028761165 -0.00032458233 2.5983225e-05

action_model._discrete_distribution.branches.0.weight f4 [3, 256]
000000 ee 44 56 bb 7a 20 85 bb 9f 80 fc 3a b3 c5 32 ba
       -0.0032694894 -0.0040627094 0.0019264406 -0.00068196206
000010 d1 46 31 3b ac 10 c0 3a ee a9 1b 3b 35 e8 12 bc
       0.0027050267 0.0014653406 0.002375241 -0.008966495
000020 c9 cd f0 bb ad 30 57 3b 01 1c a6 ba 47 fa 20 3c
       -0.0073487503 0.003283541 -0.0012673141 0.009825296
000030 33 c1 c7 3b b1 82 82 bb ce 04 e0 3b ce 43 fb 3b
       0.006096029 -0.003982865 0.0068365103 0.007667995
000040 a3 29 dd bb 8a ff 39 3b ed a7 a7 3b 85 0c 41 3c
       -0.0067493482 0.0028381073 0.005116454 0.01178277
000050 cc 4d b8 b9 d1 63 e4 3b 40 a3 85 3b 84 15 92 bb
       -0.00035153178 0.006969907 0.004078299 -0.0044581313
000060 6d 37 80 3b 84 a1 1a bc 9e 8e 46 3b 4d 2a d5 3a
       0.0039128573 -0.009437922 0.0030297409 0.0016263217
000070 15 42 59 3b 07 95 4a 3b 28 2f ea bb 09 0c 62 3b
       0.003315096 0.003091158 -0.0071467347 0.0034492037
000080 d1 7a b0 3a 36 bf f8 39 9f 8f 11 bc 0c 99 bb 3b
       0.0013464337 0.0004744471 -0.00888434 0.0057250317
000090 15 42 8e 3b 33 54 18 3c 36 89 5e bb f6 76 0d bb
       0.0043413737 0.009297418 -0.0033956296 -0.0021585799
0000a0 df ba 49 bc 8a e4 08 bc e5 86 6c ba 25 84 19 b9
       -0.01231262 -0.008355269 -0.00090227864 -0.00014640445
0000b0 70 38 65 bb 9d e5 dc 3b f3 18 01 3b 62 8f fe bb
       -0.0034976266 0.006741239 0.0019698709 -0.0077685574
0000c0 41 e2 7e bc 13 9a 25 3c 04 6b 1f 3a db b4 5d ba
       -0.015556873 0.010107535 0.0006081315 -0.00084574305
0000d0 64 7c aa bb 77 2f 5b 3b 56 a8 04 3c 0f 62 a7 b9
       -0.005202817 0.003344504 0.008096775 -0.00031925782
0000e0 4e 95 a3 3b 65 47 98 bb c9 d5 5f bb b5 61 cb ba
       0.0049921637 -0.0046471828 -0.0034154525 -0.001551679
0000f0 8e 91 24 3b 80 3e 02 3b 73 5f f0 bb 50 c1 17 3b
       0.0025111171 0.0019873679 -0.007335597 0.0023155995
000100 1f 86 89 3b 07 02 20 3c 5e a0 05 3c 29 09 c8 3a
       0.0041968967 0.009766108 0.00815591 0.0015261519
000110 70 69 a7 b8 2d 6c ae ba 92 76 90 ba ef e2 14 3c
       -7.98282e-05 -0.0013307385 -0.0011021665 0.009087308
000120 24 54 28 3c 63 0e 13 bc 12 a5 53 bb d4 9b a7 3b
       0.010273967 -0.008975598 -0.0032294434 0.0051150117
000130 39 ae 37 bc a1 11 91 bb 3c b3 61 3b 1e 33 34 bb
       -0.0112109715 -0.0044271504 0.0034439107 -0.0027496289
000140 42 b0 3f 3a c5 a4 79 ba d9 84 16 3c fd 94 ae bb
       0.0007312336 -0.0009523149 0.009186947 -0.0053278194
000150 ae db 55 39 55 22 4e 3a 72 e3 83 3b d4 b5 54 bc
       0.000203951 0.0007863392 0.0040249163 -0.012982804
000160 10 f1 72 3b d4 2b 10 3b f3 24 1f b8 ad 99 8b 3b
       0.0037069954 0.002199878 -3.7942966e-05 0.004260263
000170 a4 e2 fe bb 75 2a ea 3b 47 97 88 3c 39 a1 50 bb
       -0.0077784825 0.0071461746 0.016673697 -0.0031834377
000180 2b 35 de bb 5d 9e e9 3b 5d c2 af ba 1a 34 b9 bb
       -0.0067812405 0.007129474 -0.0013409365 -0.005651963
000190 fe f2 37 3b a5 e3 49 3b 51 63 d6 bb fa 1e 82 bc
       0.0028068419 0.0030805853 -0.006542601 -0.015883911
0001a0 f8 af 5d bb f2 34 21 bc 92 5b 53 bc c0 c3 a5 3b
       -0.003382681 -0.009839283 -0.01290025 0.0050587356
0001b0 f6 cd 36 bb a0 1d 2c 3a c4 cf 71 3a 41 3f c7 3b
       -0.0027893758 0.0006565694 0.000922438 0.0060805385
0001c0 de 98 74 3a 6f 35 a5 ba ee 13 e4 3a 7b a9 c0 3b
       0.00093306403 -0.0012604425 0.0017400959 0.0058795786
0001d0 c5 90 3a bb cc cc 4b bc d1 53 fd ba 13 22 4c 3b
       -0.0028467637 -0.012438964 -0.0019327347 0.003114824
0001e0 ad 85 c1 39 48 a3 00 3c e1 75 8a bb 7d 4d 8e 39
       0.00036911425 0.007851429 -0.004225478 0.00027142084
0001f0 69 fe a1 bb fb 18 52 bb 67 5c 01 bc 0e 69 80 ba
       -0.004943658 -0.0032058347 -0.007895566 -0.0009796934
000200 8f 16 a5 3a ca d3 c2 bb 63 6b 52 3c 20 ad 81 bc
       0.0012595224 -0.0059456574 0.012842986 -0.015829623
000210 ad 14 2a 3c 8a e5 b1 bb 72 6f 4d ba ac 9c 98 3a
       0.010380906 -0.0054289745 -0.0007836736 0.0011643372
000220 aa 38 62 39 31 61 18 3a 0e 82 10 bb a1 7f c9 bb
       0.00021574149 0.00058128225 -0.0022050175 -0.0061492478
000230 06 88 96 3a 77 1b 50 3b cd 73 bc 3b e2 fc c7 3b
       0.001148463 0.0031754652 0.005751109 0.006103144
000240 5a b5 68 3b 4d c5 02 bc f8 0f 79 bc ce cd 2e bc
       0.0035508485 -0.0079816105 -0.015201561 -0.010669185
000250 ec a4 79 bb 9a 39 d4 3b 4e da 34 3a 54 9f 2c bc
       -0.0038092686 0.006476593 0.0006898985 -0.010536034
000260 0b bd 10 bc 64 98 2d 3c 3c 6f ff bb ba ab e6 3b
       -0.008834134 0.010595415 -0.0077952426 0.0070395144
000270 df 0b 4a 3c 6b 80 a9 b9 eb db 88 bb ab 8d d6 3b
       0.012331932 -0.0003232987 -0.004176607 0.00654765
000280 b1 48 41 bc 24 60 ec bb 1d 5c 3c 3c 0c 34 aa b9
       -0.011797116 -0.0072136093 0.011496571 -0.00032463705
000290 be ac f5 bb 1d 6d 8d 3b 40 b6 4f bc 57 24 01 3b
       -0.007497399 0.004315986 -0.012677729 0.0019705498
0002a0 53 fa 17 3a 37 fa 6d bb 36 b5 0f bc 74 e3 35 bb
       0.0005797494 -0.003631247 -0.008771231 -0.002775398
0002b0 68 79 9b 3b a5 43 b0 3b 74 22 9e 3b a9 ab 16 3c
       0.0047446974 0.0053791576 0.0048258845 0.0091962
0002c0 ce 64 e1 3b 98 6e 7d 3b e2 c4 88 3b f3 d8 e9 39
       0.006878472 0.0038670655 0.004173861 0.00044602863
0002d0 79 58 e7 3b 8c 2c 28 bc 3f 13 4f bb 34 98 75 bb
       0.0070601073 -0.010264527 -0.0031597165 -0.0037474753
0002e0 cc c6 f1 38 91 0d a1 ba 86 88 df ba 45 ad 9f 3b
       0.00011528804 -0.0012287368 -0.0017054237 0.0048729503
0002f0 c3 23 b7 3b d1 5d 44 3c 54 5e 95 ba 97 c3 c5 bb
       0.00558898 0.011985258 -0.001139591 -0.006035279
000300 9c ee 1c 3c d1 fb df 3b d2 a5 12 bb df d5 ea bb
       0.009578373 0.006835439 -0.0022376669 -0.0071666087
000310 62 f4 b5 bb 92 62 ac 3b ef c2 8a 3b 41 30 ad bb
       -0.0055528143 0.005260774 0.0042346637 -0.0052852933
000320 c8 7c 80 bb f7 e6 4d ba e1 68 d2 ba f8 6c 94 bc
       -0.003921125 -0.0007854546 -0.0016052985 -0.018118367
000330 83 ff 04 bb 7e 3f 00 bc 48 69 58 ba 47 8f 00 bb
       -0.0020293898 -0.007827638 -0.0008255434 -0.001961665
000340 4e 11 9e 3b 49 a9 cd bb d2 81 16 3b 04 8a 93 3b
       0.00482384 -0.006276284 0.0022965563 0.0045025367
000350 bb 44 b4 bb cb 3b 32 3b 6f a8 39 3a 84 d2 50 bb
       -0.0055013574 0.0027196284 0.00070822885 -0.0031863758
000360 53 da 9a bb fd e0 7c 3b 39 bf 5a ba e6 80 2e 3c
       -0.0047257333 0.0038586252 -0.00083445344 0.010650849
000370 25 34 7e bb 0a a0 34 bb 46 b8 fb ba 41 d7 25 3c
       -0.0038788405 -0.002756121 -0.0019204698 0.010122121
000380 a6 c2 fa 3b c9 c4 1c bb e0 82 a3 3b 9a a0 5e bb
       0.0076525984 -0.0023921004 0.0049899668 -0.0033970238
000390 b3 9c b4 3b 0e cc 04 3b 3e 84 fe 3b fa e3 c6 3b
       0.005511844 0.0020263228 0.0077672293 0.0060696574
0003a0 d8 3e 6b 3b ab 00 67 3c 75 52 ab 3b 65 67 8c bb
       0.0035895612 0.01409928 0.0052283355 -0.0042847865
0003b0 dd 41 92 3b ad b0 5a 3b 0c 39 13 bc 24 7a ad bb
       0.004463418 0.0033369467 -0.008985769 -0.0052941013
0003c0 8c cb 79 3b 96 33 91 bc bd 31 2d bb 55 40 92 3b
       0.0038115708 -0.017724793 -0.0026427351 0.0044632354
0003d0 e4 de e3 bb 43 b8 07 3b df 3b 8e ba b4 5d 31 bc
       -0.006954061 0.0020709194 -0.0010851583 -0.010825563
0003e0 9e 1a 69 bc ff 39 1f 3c ac 0b 9c 3a 43 c9 49 bc
       -0.014227537 0.009718417 0.0011905334 -0.012316051
0003f0 d6 2d b8 bb 1b 5b d5 b9 4d be 18 3c 5c a6 f2 3a
       -0.0056206984 -0.00040694405 0.009322715 0.0018512714

network_body._body_endoder.seq_layers.0.bias f4 [256]
000000 50 81 f6 3b b0 31 0c 3c f2 2c 19 3c aa 78 bb 3b
       0.0075227395 0.008556768 0.009349095 0.0057211714
000010 86 2c 1b 3c 2b 6d 12 3c 19 a6 ec 3b 89 64 f4 bb
       0.009471064 0.0089371605 0.007221949 -0.007458274
000020 be 75 ea 3b 08 04 07 3c 88 0d 20 3c ef 6e 14 3c
       0.0071551492 0.008240707 0.009768851 0.009059652
000030 f1 56 12 3c e7 98 42 b9 48 22 06 bc a1 09 0d bc
       0.008931861 -0.00018558242 -0.008186884 -0.008608253
000040 84 f4 ea b9 ab 51 15 3c 5c 20 0e 3c 74 9f f0 bb
       -0.00044814136 0.009113709 0.008674707 -0.007343227
000050 9c d6 f1 bb 1d fe f9 bb c4 4e 1b 3c 5e 89 fb bb
       -0.0073803198 -0.0076291696 0.009479228 -0.0076762876
000060 c9 43 0c 3c f0 56 ff 3b 4d cb 0f 3c a5 f3 15 3c
       0.008561083 0.007792346 0.008776498 0.009152328
000070 00 21 e8 bb 46 d5 0d bc 3e 25 b1 3a 1e 74 14 3c
       -0.007084012 -0.008656805 0.0013515127 0.009060888
000080 55 bc 18 3c bf 37 09 3c 09 bb 18 3c d8 56 19 bc
       0.009322246 0.008375107 0.009321936 -0.009359084
000090 37 77 6c bb b3 bf 14 3c f8 70 fa bb 0f 33 71 ba
       -0.00360818 0.009078908 -0.0076428615 -0.0009201029
0000a0 41 ce dc 3b 43 61 04 bc a4 04 0d 3c 01 e4 17 3c
       0.0067384546 -0.00807983 0.008607063 0.009270669
0000b0 0e b6 11 3c 09 87 fe 3b 29 c0 20 3c c1 05 03 bc
       0.008893503 0.0077675623 0.00981144 -0.007996977
0000c0 0a f3 27 3c 19 94 0a 3c 1b 94 18 3c 6d 76 1c 3c
       0.010250816 0.008458161 0.009312655 0.009549719
0000d0 53 41 15 3c ff 36 1b 3c 51 b3 17 3c d7 58 12 bc
       0.009109813 0.009473561 0.009259061 -0.008932314
0000e0 5e 01 1b 3c 89 e0 0f 3c 77 0c b9 3b 89 8c 24 3c
       0.009460775 0.008781561 0.005647238 0.010043272
0000f0 8c 56 02 bc c1 00 c0 3b 0c ca 09 3c e6 0f 10 3c
       -0.007955205 0.005859465 0.008409988 0.008792853
000100 63 f9 0f 3c d5 15 f8 bb f3 f5 11 3c 00 be 14 bc
       0.008787486 -0.007570962 0.0089087365 -0.009078503
000110 59 1f 19 bc 41 ca 17 3c 49 f6 f0 bb 83 7b 21 3c
       -0.009345853 0.00926453 -0.007353578 0.009856108
000120 1b ba 14 3c d8 0f 81 3a 45 43 16 3c ee 0b 14 3c
       0.009077574 0.0009846641 0.009171312 0.009036047
000130 dc 13 16 3c ef 85 e7 3a 30 a4 1b 3c 26 66 fe bb
       0.009160008 0.0017663817 0.009499595 -0.007763642
000140 b9 4b 10 3c 85 f1 62 3b 67 0b 0d bc 35 40 61 3b
       0.008807116 0.003462882 -0.008608676 0.0034370546
000150 63 cd 13 3c f3 6c 65 3b a4 26 10 3c f0 fa 09 bc
       0.009021136 0.0035007566 0.008798275 -0.008421645
000160 c6 46 0b 3c b9 3c 15 3c ce 3a fe bb cd f2 14 3c
       0.00850076 0.009108716 -0.007758475 0.009091091
000170 61 f5 19 3c 50 e4 f5 bb a8 bd 14 3c e9 00 0e 3c
       0.009396882 -0.0075040236 0.009078421 0.008667209
000180 35 1e fd 3b da b4 06 3c 2d 98 aa 3b bb 8c 11 3c
       0.007724548 0.008221829 0.005206129 0.00888365
000190 c8 a9 19 3c 4d a5 75 b9 df 21 06 3c 3d 78 1a 3c
       0.009378858 -0.000234266 0.008186786 0.009428081
0001a0 4c 8e 1b 3c 70 8a 00 bc 0a 28 07 bb 6b d3 1a 3c
       0.009494375 -0.007845506 -0.002062323 0.00944982
0001b0 af a4 23 3c 62 d2 83 3b a2 de 1a bc 1e 5a 9c ba
       0.009987994 0.0040228823 -0.009452494 -0.0011928712
0001c0 c1 8f 1a 3c 2c 51 cc bb 7a fd 03 bc de df 0c 3b
       0.009433688 -0.0062352624 -0.008056039 0.002149574
0001d0 e4 ea 0a bc 50 00 19 3c 14 34 16 3c d4 93 09 3c
       -0.008478854 0.009338453 0.00916769 0.008397061
0001e0 60 fd ec 3b 2f b0 10 3c a7 4b ca 3b 5d 3d 18 3c
       0.007232353 0.008831068 0.0061735692 0.009291974
0001f0 24 92 fd 3b 0a e6 92 38 82 ad 2c 3b 59 74 18 3c
       0.0077383686 7.0046706e-05 0.0026348536 0.009305083
000200 e0 db 18 3c 80 1a 11 3c e0 e7 06 3c cc fa 8a bb
       0.009329766 0.008856416 0.008233994 -0.004241323
000210 01 41 03 3c 4b d2 05 bc cf 4d 11 3c 96 40 4c 3b
       0.008011104 -0.0081678135 0.008868649 0.0031166426
000220 2c 1f 1d 3c f7 59 16 3c e5 70 c9 3b 04 fc 0f 3c
       0.0095899515 0.009176723 0.0061474913 0.008788113
000230 bf 26 81 3b 25 73 88 3b 8b 68 18 3b c2 50 1a 3c
       0.0039413865 0.004164117 0.0023255672 0.009418668
000240 50 53 b3 bb 18 33 fa 3b b3 1f e0 3b 90 e1 d5 3b
       -0.005472578 0.0076354854 0.0068397163 0.0065271333
000250 a5 b6 8d bb ce ca 18 3c 4b 29 12 3c d1 e8 16 3c
       -0.0043247514 0.009325696 0.008920978 0.009210781
000260 13 d2 10 3c dd ff ca 3b 78 57 f8 bb 1a ce 03 bc
       0.008839148 0.006195052 -0.0075787865 -0.008044744
000270 42 12 01 bb 75 96 1d 3c 7c 36 16 3c 91 e2 6e bb
       -0.001969472 0.009618391 0.0091682635 -0.0036450962
000280 84 47 dc bb f5 f7 ee bb 0e 6d fa bb 99 69 1c 3c
       -0.0067223925 -0.0072927424 -0.007642395 0.009546661
000290 fa 96 05 bc ed a2 0a 3c 3c db 5f 3a 0e 7e 16 3c
       -0.008153671 0.008461696 0.00085394434 0.009185327
0002a0 44 75 bb bb 9e 3a ea bb 6b a7 10 3c 2e ac f8 bb
       -0.0057207663 -0.007148101 0.008828978 -0.007588885
0002b0 0e fa 00 bc de 1a 80 3b 98 f4 1b 3c 35 12 15 bc
       -0.007872118 0.003909453 0.009518765 -0.009098579
0002c0 28 29 93 3b fe 5e 10 3c c3 f6 da bb bc fa fe bb
       0.00449099 0.00881171 -0.0066822483 -0.0077813547
0002d0 76 56 af bb a2 50 04 3c e5 80 00 3c e3 04 16 bc
       -0.005350883 0.008075865 0.007843231 -0.0091564385
0002e0 e6 8c 9c 3b ac 54 20 3c 55 8c f4 3b b7 be 2d 3b
       0.0047775386 0.009785812 0.007463018 0.002651138
0002f0 8e 45 8f bb 01 df 14 3c a6 40 17 3c 98 79 f8 3b
       -0.0043723052 0.009086371 0.009231722 0.0075828545
000300 93 f4 0f bc 1b 58 0e 3c a1 3f 11 3c ca e6 09 bc
       -0.008786338 0.008687998 0.008865268 -0.008416841
000310 88 86 17 3c 02 e2 1f 3c 37 fa 1a 3c 79 bf 8d bb
       0.009248383 0.009758474 0.00945907 -0.004325804
000320 6c fd ff bb b2 ac 83 3b 17 b9 07 3c e4 31 11 3c
       -0.0078121927 0.0040183896 0.008283875 0.0088619925
000330 39 e5 0f ba 33 6a 06 bc 86 bd 55 bb a2 93 04 bc
       -0.0005489174 -0.008204031 -0.0032614185 -0.008091839
000340 b7 05 f0 bb f2 5a 1f 3c dd 75 1a 3c c9 91 09 bc
       -0.0073249 0.009726273 0.009427515 -0.008396574
000350 6e 2b 1b 3c 93 f7 da bb 6a ca be 3a bb d5 28 3c
       0.009470804 -0.006682345 0.0014556174 0.010304864
000360 0e d2 0b 3c 6a 48 06 bc 43 d8 e0 bb df 70 2b 3c
       0.008533968 -0.008195976 -0.006861718 0.010463922
000370 01 05 16 3c 9a 3c 01 bc 67 3e 8d 3a 5f 31 26 39
       0.009156466 -0.007887984 0.0010776044 0.00015849386
000380 c7 4f f1 bb 99 05 f8 3b a4 a5 16 3c e7 f0 0e 3c
       -0.0073642465 0.0075690267 0.009194765 0.008724428
000390 78 60 1a 3c db 2d 1b 3c 7f d4 cb bb 14 fe f2 bb
       0.009422414 0.009471382 -0.0062204 -0.0074155424
0003a0 a1 b3 18 3c c5 ce 0e 3c 91 e4 c4 bb 8a 06 1b 3c
       0.009320171 0.00871629 -0.0060086926 0.009462008
0003b0 b8 d7 fa 3b 15 5e 12 3c 09 20 17 3c 2d c6 08 ba
       0.00765511 0.008933564 0.009223946 -0.0005217519
0003c0 2d e9 18 3c 14 37 02 bc ab b5 39 3b 40 6d 02 bc
       0.009332937 -0.007947702 0.0028337042 -0.007960618
0003d0 fb e4 00 3c d4 04 f2 bb 20 d3 0e bc 51 72 06 bc
       0.007867093 -0.0073858295 -0.008717328 -0.008205966
0003e0 b2 bd 17 3c a3 6d 08 3c 8b 2b a1 bb 20 f1 04 3c
       0.0092615355 0.008326921 -0.004918521 0.008114129
0003f0 4e 9d 9b bb 49 ef 1a 3c d6 cf b8 3b 23 79 b7 3b
       -0.004748977 0.009456464 0.0056400103 0.0055991574

network_body._body_endoder.seq_layers.0.weight f4 [256, 349]
000000 3c 0b 0c bc f9 a6 4b bd 9f d2 c0 bd 28 32 fe bb
       -0.0085476 -0.049719784 -0.09415173 -0.007757444
000010 b6 59 92 bd 59 85 37 3d 7d 21 86 3d 82 a3 0f 3d
       -0.07146017 0.044804905 0.06549356 0.035068043
000020 08 73 3d 3d 9c 6d 40 bd 07 4c a8 3d d1 44 95 bd
       0.04625228 -0.04697953 0.08217626 -0.07288516
000030 f6 33 a7 bd da fc 29 3d ee 50 9b bd a6 ed f5 3c
       -0.08164208 0.041500904 -0.075837955 0.030020546
000040 7d b1 03 bd b7 ff 15 3d fc 69 54 bc 80 f2 b7 3c
       -0.032151688 0.03662082 -0.012964722 0.0224545
000050 26 fe cb 3d 77 8f 07 bc d4 0f 3e bd 9f b4 cd 3b
       0.09960584 -0.008273951 -0.046401814 0.006277635
000060 e9 23 56 bb c7 37 83 3b 69 08 98 bd af 63 e7 bd
       -0.0032675213 0.004004452 -0.07423479 -0.1129831
000070 a3 84 7d 3d df 44 d5 ba 5f a2 18 3e d3 82 d8 3c
       0.06189407 -0.0016271136 0.1490569 0.02642957
000080 8a b8 98 3d 3c fa 97 3c 31 8e 91 bd a2 99 2c bb
       0.07457073 0.018551938 -0.07107199 -0.002633669
000090 14 3d e4 bc 86 36 0d 3c e4 96 2a 3c 62 ae c8 bb
       -0.027861156 0.008618956 0.010411952 -0.0061243037
0000a0 54 78 a8 3c 18 c7 72 3d db d9 c6 bd 5e c5 06 bd
       0.02056519 0.0592719 -0.097095214 -0.032903068
0000b0 6e b7 66 3d f3 f7 40 bd 8d db 72 3d b8 02 9b 3c
       0.056327276 -0.047111463 0.05929141 0.018922195
0000c0 22 d0 35 bd 77 0b 5a bc 6a 89 90 bc 1c 78 e3 3d
       -0.044387944 -0.0133083975 -0.01764365 0.111068934
0000d0 fe 6f c4 bc 7f 82 00 bd 2e 90 88 3d 7c f0 50 3b
       -0.023979183 -0.03137445 0.06668125 0.003188162
0000e0 bd d1 06 bd d2 76 6b bd 0b b4 3f 3d ad 96 83 3c
       -0.032914866 -0.057486363 0.04680256 0.016063059
0000f0 9a f8 c3 3c a8 78 2d 3d e3 62 4e bd 8e bf 68 bd
       0.023922253 0.042351395 -0.050387274 -0.056823306
000100 2f a1 e7 3c ef 4a 52 3d 69 3e 16 bd 3a 35 12 3c
       0.0282751 0.051340993 -0.036680613 0.008923823
000110 d8 8c 05 bd 69 5e 65 bc d1 fa 20 bd cd 63 47 3c
       -0.032605022 -0.01399956 -0.039301697 0.01216979
000120 3a f5 97 3d 87 14 87 bd be e2 e6 bc 5e ed 1c 3d
       0.0741982 -0.06595712 -0.028184291 0.03831231
000130 f3 cd 5c 3d 2e 03 84 3c 7a f1 43 3d f5 48 3f 3d
       0.053907346 0.016114797 0.047837712 0.046700437
000140 36 f5 3b bd 06 09 79 3d 5b 5e c8 3d fa 00 81 3c
       -0.04588815 0.06079962 0.09783622 0.015747536
000150 de b5 5c bc 88 46 5c 3d 4c 79 f6 3c fb af 70 3d
       -0.013471095 0.0537782 0.030087136 0.058761578
000160 60 54 21 bd c0 a1 77 3c 34 29 7a 3d b8 e8 aa bd
       -0.039387107 0.015114248 0.06107445 -0.08345169
000170 d4 1b ea bd a1 1d 30 3d e7 7f 67 bd e7 ed 26 bc
       -0.11431089 0.042997006 -0.05651846 -0.010188556
000180 74 4a 12 3e e9 65 45 bd 27 a7 10 3d 11 d0 21 bd
       0.14286214 -0.048192892 0.03531566 -0.03950507
000190 66 b3 a9 3a a0 ed 3c bd fd ff 0f bc 12 b9 5e 3d
       0.0012947142 -0.046125054 -0.00878906 0.054375716
0001a0 f5 7f fd bc a7 f7 71 bb 93 82 8e bb f4 79 a1 bc
       -0.030944804 -0.0036921294 -0.0043490618 -0.019711472
0001b0 c8 ac 14 bd 68 d5 5f bd 77 ef 81 bb 8e 8e 5d bd
       -0.03629759 -0.05464688 -0.003965314 -0.05409103
0001c0 f2 40 4b bd bb da 22 3d dd 32 ee 3c 4c 52 45 bd
       -0.049622484 0.03975938 0.029076988 -0.048174188
0001d0 e7 b5 65 3d 0b d3 23 bd 30 bb ed 3c c3 fe 90 bd
       0.05608168 -0.039996188 0.029019922 -0.07079842
0001e0 a9 86 ec bc 8f 7e 4e 3d 76 95 5f 3d 13 19 c6 bd
       -0.028872805 0.050413664 0.054585896 -0.09672751
0001f0 05 6b ce bc f0 6f d0 3c ed 62 04 3d c7 46 e2 bc
       -0.025197515 0.025444001 0.032320905 -0.02762164
000200 b0 37 27 3c 0a f7 31 3d 7b cb ad 3c d2 69 67 bd
       0.010206148 0.043448485 0.021215191 -0.056497402
000210 e7 58 b9 bd e4 42 a0 3d 8e fa d0 3c 35 0c b5 3b
       -0.0905016 0.078252584 0.025510099 0.005525137
000220 75 b1 b8 bd 94 c0 a4 3d 9c 57 80 bc 6e f7 fe 3c
       -0.09018222 0.08044544 -0.015666775 0.031123843
000230 55 b6 72 bd a3 a5 06 3d b7 4f 3a 3d d3 ca 32 bd
       -0.059255917 0.032872807 0.04548618 -0.04365046
000240 9b ba 6b bd 53 1b d0 3d a5 4c ef bb 25 b6 18 3d
       -0.057551008 0.10161462 -0.007302838 0.03728308
000250 84 f7 4c bc 88 c8 5c bd ed 6d b6 3a ec 0b b3 3c
       -0.012510184 -0.05390218 0.0013918258 0.02185627
000260 f5 d0 a8 bd fa ac 02 bd 1e 6a 6a bd 3f 91 0d 3b
       -0.082429804 -0.031903245 -0.057230107 0.0021601466
000270 0a 11 be bc 79 af 61 3d 60 a1 00 3d 20 51 cd bd
       -0.023201484 0.055098984 0.0314039 -0.10025239
000280 6a 7a b2 3b fb 2e fe bc cc d5 82 3d 47 cd 84 3c
       0.005446722 -0.031028261 0.06388435 0.016211165
000290 bf 77 49 3b 19 c6 a3 3c 6d af 6c bd 95 49 a5 3b
       0.003074154 0.019991921 -0.057784487 0.005044172
0002a0 4d 9d 75 3c 6a 56 75 3d ea fd 76 bd d4 d1 4c bd
       0.014991117 0.059896864 -0.060300745 -0.050004795
0002b0 71 11 48 3d 28 61 a9 bb c8 0a ef bc e2 c7 4a bd
       0.04884476 -0.0051690526 -0.029179946 -0.04950703
0002c0 c7 e5 b2 bc f4 5e 03 bd 8e 9a 23 bc 9c ba bf bc
       -0.021838082 -0.032072976 -0.009985579 -0.023404412
0002d0 29 fa de 3b df 6e 70 bc e9 78 d6 bc 77 3d d5 3c
       0.0068047238 -0.014674871 -0.026180701 0.026030285
0002e0 e2 61 c8 bd ae d4 ce 3c c7 5c 67 bd 61 a1 e9 bc
       -0.09784295 0.025247898 -0.056484964 -0.028519334
0002f0 ec 2b 3e ba d8 59 13 bc 8e f5 3b bd e7 eb 81 3c
       -0.00072544697 -0.008993588 -0.045888476 0.015859557
000300 d5 51 41 3d 49 3e a4 3d f4 35 42 3d b9 70 83 3c
       0.04719718 0.080196925 0.047414735 0.016044961
000310 5d 32 a7 bd 62 2f 73 3d 4f d2 d4 3b 01 7d 87 bc
       -0.08163903 0.05937136 0.0064947973 -0.016539099
000320 2a e5 38 3d 37 8c 34 3d e4 01 ad 3b a7 4f 91 3d
       0.045140423 0.04407903 0.0052797664 0.070952706
000330 a6 b5 56 bd 79 04 75 3d ba 1a 93 bc 01 e1 1e 3d
       -0.052419327 0.05981872 -0.01795708 0.0387888
000340 00 ce 83 bd e9 83 19 3d 2d 08 a5 bd e7 80 d1 bd
       -0.06435776 0.037479315 -0.080582 -0.10229664
000350 e3 c4 af 3c d4 73 8f 3c ab 08 df bd 66 c3 bb bd
       0.021456188 0.017511286 -0.10890325 -0.09168129
000360 5f 68 c8 3d f6 0e e8 3b ad 10 68 3d a2 e6 14 be
       0.09785532 0.0070818616 0.05665653 -0.14541104
000370 df f3 b1 3c bd 01 fc 3b f3 26 36 3c ea fe 50 bd
       0.021722732 0.007690637 0.011117685 -0.051024355
000380 77 cb ce bb 70 91 54 bd 03 f4 88 bd 53 d4 ec 3d
       -0.006310876 -0.051896513 -0.066871665 0.11563935
000390 3f 7e 8d bd c5 97 14 3e c9 ea 21 3d c5 ae 46 3d
       -0.06908845 0.1451102 0.03953055 0.048506517
0003a0 c3 c5 72 bc b2 ae 40 bc 19 06 45 bc b3 ae 62 3d
       -0.014817658 -0.011760401 -0.01202538 0.055342387
0003b0 e2 db 04 bd f3 3b 69 3c d7 71 89 3d 13 17 85 3d
       -0.03243626 0.014235484 0.06711166 0.06498542
0003c0 34 02 82 bd f3 61 88 bd b7 12 e7 3d d3 c9 f0 3c
       -0.063480765 -0.06659307 0.112828664 0.029393112
0003d0 eb b0 7b bd 4d 7c 42 3d 79 03 9c 3c bf 1f ad 3d
       -0.06144802 0.047481824 0.019044625 0.08453321
0003e0 33 0f 99 bd 3d df ca bd bc f3 54 bd f7 7e 1e bd
       -0.07473602 -0.099058606 -0.051990256 -0.0386953
0003f0 4e 97 a5 3d ed e2 d2 3d cb 32 ca 3d 8a a3 27 3d
       0.080855 0.10297189 0.09872969 0.040927447

network_body._body_endoder.seq_layers.2.bias f4 [256]
000000 99 dc 0c 3c e1 94 05 bc a8 cb e7 bb 6a 47 04 bc
       0.008597516 -0.008153171 -0.0070738383 -0.008073667
000010 23 c5 ec bb ad b0 0e 3c 82 19 5f ba 44 0f fb bb
       -0.007225649 0.008709115 -0.0008510576 -0.007661732
000020 6e fd 06 3c 3e 28 07 3c f7 1e fa bb 21 50 08 3c
       0.008239133 0.008249341 -0.007633086 0.0083198855
000030 b2 32 12 3c d1 ab 29 3b b4 20 fe bb a6 38 05 3c
       0.0089232195 0.0025889764 -0.0077553634 0.008131182
000040 53 ea 0a 3c 56 e6 2d 3b 0e 3b 00 bc f3 4b 0d 3c
       0.008478719 0.0026534996 -0.00782658 0.008624065
000050 fc 77 08 3c e9 8e 0e 3c e8 33 f6 bb 2b d0 fd bb
       0.008329388 0.008701065 -0.007513512 -0.007745763
000060 47 d7 08 3c f3 b8 0e 3c 39 70 0a 3c 9f ea 05 bc
       0.008352107 0.0087110875 0.0084496075 -0.008173614
000070 6d 00 0b 3c 79 8a 0e 3c da 01 df 3b cd 33 05 3c
       0.008483988 0.008700007 0.0068056406 0.008130026
000080 27 35 ee bb be 4c f7 bb e1 18 01 bc 9b 38 f1 3b
       -0.00726952 -0.00754699 -0.007879467 0.007361484
000090 ac 99 0d 3c 88 be ff 3b 52 4e fc 3b 9c 44 0e 3c
       0.008642595 0.0078046955 0.007699766 0.00868335
0000a0 3a f3 09 bc 5a 76 00 bc 85 a6 12 3c b2 72 f3 bb
       -0.008419806 -0.007840717 0.008950834 -0.007429444
0000b0 48 7c ff bb 13 1a 04 3c df 26 0b 3c 89 69 09 3c
       -0.007796798 0.008062857 0.008493154 0.008386978
0000c0 d3 95 f0 bb 08 32 06 3c 00 a6 0a bc fe 09 8c 3b
       -0.007342079 0.008190639 -0.008462429 0.004273652
0000d0 42 b1 fe bb ab bd 1a 3c 82 4e b4 bb bb 0b b0 3b
       -0.0077725956 0.009444634 -0.005502523 0.005372492
0000e0 a4 5b 0e 3c 91 c3 e0 bb 24 69 04 bc dd f8 04 3c
       0.008688841 -0.006859251 -0.008081708 0.008115974
0000f0 c0 dc e5 39 6d dd f7 bb f8 80 01 bc 59 e9 0d bc
       0.00043842755 -0.007564238 -0.007904284 -0.008661591
000100 04 e4 0f 3c b5 3c f2 bb 31 89 00 3c e9 04 01 3c
       0.0087823905 -0.0073924907 0.007845209 0.007874706
000110 e6 24 07 3c 0b 58 0c 3c 78 88 fe bb 76 cb 09 3c
       0.008248543 0.008565913 -0.007767733 0.008410325
000120 b1 f2 fc bb de 49 0a 3c 2f 33 f8 bb 0e 0d 05 bc
       -0.0077193608 0.008440463 -0.007574461 -0.008120788
000130 93 e5 d2 ba 00 07 04 3c 33 8a f8 ba 74 f5 f9 3b
       -0.0016090147 0.00805831 -0.0018962085 0.0076281372
000140 c8 de f0 bb 62 e7 07 bc d4 e0 02 bc 07 1d 09 3c
       -0.0073507763 -0.008294912 -0.0079881735 0.008368737
000150 33 bc 0a 3c 23 06 0d 3c 8d 76 0a 3c 58 16 06 3c
       0.008467722 0.00860742 0.008451116 0.008184038
000160 d9 b7 0b 3c 36 9a c6 bb 36 ac 43 bb dc e9 f1 3b
       0.008527719 -0.006060864 -0.0029857284 0.0073826145
000170 d5 d5 ac 3b e5 96 83 ba 4a 54 0b 3c a2 ad f6 3b
       0.005274514 -0.0010039477 0.008503983 0.007528023
000180 d4 81 f2 3b 72 7e 0b 3c 82 85 0e 3c ee e9 09 3c
       0.0074007306 0.008514034 0.008698823 0.00841759
000190 3f ac 0c 3c 87 07 01 3c 8b 4f c7 bb 3b a9 0a 3c
       0.008585989 0.00787533 -0.0060824803 0.008463199
0001a0 7d 95 57 3b 27 df ff bb 54 d6 ed 3b d0 f2 16 3b
       0.0032895498 -0.0078085843 0.007258216 0.002303291
0001b0 6a ba 8b bb 3a de 08 3c ed 8e 03 3c d7 7c 0a 3c
       -0.0042641656 0.008353764 0.008029682 0.008452616
0001c0 0a 6a 11 3c fd c3 0d 3c 9d b3 0f 3c 99 3d 09 bc
       0.008875379 0.008652684 0.0087708505 -0.008376502
0001d0 95 3d b5 3b ca d3 0b 3c 9f 28 f6 b7 ed 72 fc 3b
       0.005531023 0.008534381 -2.93444e-05 0.00770413
0001e0 90 64 93 3b 27 5e 0a 3c e3 0c 03 3c 37 8a 04 3c
       0.004498072 0.008445299 0.007998678 0.008089594
0001f0 0f c2 df 3b 43 25 0b 3c 76 24 d6 bb a9 11 07 3c
       0.0068285535 0.008492771 -0.006535108 0.008243957
000200 8e dd 0b 3c 69 af 02 bc 8c 7e 6a 39 d3 3a 8b bb
       0.0085367095 -0.007976391 0.00022363121 -0.0042489558
000210 86 b1 02 3c bd 08 fc bb e6 f1 dc bb 7a 2b ec bb
       0.007976895 -0.0076914714 -0.0067427037 -0.0072073312
000220 2f 4e f7 bb 86 3b 08 3c fb 6d 03 bc 2d a9 0b 3c
       -0.007547162 0.008314973 -0.008021827 0.008524221
000230 b0 c8 cb 3b 23 7d c4 bb df 1f ff bb b9 a4 f5 bb
       0.006218992 -0.005996363 -0.0077857818 -0.007496443
000240 80 74 f4 bb fb be e0 bb 19 38 75 bb 95 22 fb bb
       -0.007460177 -0.006858704 -0.003741747 -0.0076640346
000250 83 3b 09 3c 5b d0 08 3c a9 11 ff bb 67 e1 fd bb
       0.008376005 0.008350457 -0.0077840877 -0.0077478173
000260 a3 bc 03 bc c1 22 08 3c bb ed 06 bc 6e 52 fa bb
       -0.00804058 0.008309067 -0.00823539 -0.007639221
000270 a6 f4 e9 3b c1 33 06 bc fa ad 76 ba 03 d3 22 3b
       0.00713976 -0.00819105 -0.000941008 0.002484501
000280 8f c2 0a 3c d6 75 fd bb b5 22 ff bb e2 ba c6 bb
       0.008469238 -0.0077349944 -0.00778612 -0.0060647586
000290 14 84 06 bc 92 16 f4 bb 27 5c 06 bc 6e 94 08 3c
       -0.008210201 -0.0074489797 -0.008200682 0.00833617
0002a0 04 85 c9 bb 01 2c 0e 3c 5a 32 05 bc 00 85 f5 3b
       -0.00614989 0.008677484 -0.0081296805 0.0074926615
0002b0 fd b9 ad 3b 1e 54 82 bb 2d 2e 0b 3c ac ea bc bb
       0.0053017125 -0.0039773127 0.008494896 -0.0057652798
0002c0 2f 0b 0c 3c 25 b0 10 3c af 6d 02 bc 4c 8c 05 bc
       0.008547588 0.008831059 -0.007960721 -0.008151125
0002d0 99 25 ec bb b3 ef b6 bb 61 9b bb 3b 3d d2 b6 bb
       -0.0072066304 -0.0055827736 0.0057253097 -0.0055792616
0002e0 09 65 01 3c 16 24 3b 3b 54 ae 7b 3b d7 92 00 bc
       0.007897624 0.0028555444 0.0038403468 -0.007847509
0002f0 75 c1 01 bc 81 7b 0a 3c 1b 1d 1b 3c 3e be c3 3a
       -0.007919659 0.008452297 0.0094673885 0.0014934016
000300 cb 07 06 3c 67 32 ee 3b 76 0f e5 bb 4b b3 09 3c
       0.008180569 0.007269192 -0.0069903685 0.008404563
000310 93 5d 4d bb 4e 09 05 3c fe a5 fc 3b 8b 46 ff 3b
       -0.0031336292 0.008119894 0.0077102175 0.007790392
000320 28 70 11 bc 4f 92 0c 3c 73 74 ed bb ab 45 04 3c
       -0.008876838 0.008579805 -0.007246548 0.008073251
000330 f0 1c 02 bc c5 c1 f8 bb bf 82 f2 bb 9b 1d 12 bc
       -0.00794147 -0.0075914585 -0.00740084 -0.008918191
000340 fb ba 09 3c d2 84 02 3c 20 4f 06 bc 40 a4 00 bc
       0.008406396 0.007966237 -0.008197576 -0.00785166
000350 df ed 0b 3c 19 d8 f8 3b c7 63 0c 3c 65 08 1b 3c
       0.0085406 0.00759412 0.008568711 0.009462451
000360 54 fe 98 3b a7 50 fb bb 92 e0 17 3c 5f b6 e7 bb
       0.00466899 -0.0076695266 0.00926985 -0.007071301
000370 2b 3a 00 bc 98 19 07 bc c8 a3 12 3c fb f8 50 3b
       -0.007826368 -0.008245848 0.008950181 0.0031886685
000380 fb b7 09 3c 3e 16 07 3c c6 25 86 bb a5 a5 fe bb
       0.008405681 0.008245049 -0.0040938584 -0.007771211
000390 34 31 08 3c 94 f5 cc bb b0 04 f4 bb 52 f5 fe bb
       0.008312512 -0.006254861 -0.007446848 -0.0077807093
0003a0 70 40 0e 3c 53 8d 00 bc 9c c9 09 bc 65 59 03 bc
       0.008682355 -0.007846194 -0.008409884 -0.008016919
0003b0 ab 00 8d 3b 66 be 09 3c 5f ca 63 3a 90 a3 03 bc
       0.004303058 0.008407211 0.00086895184 -0.008034602
0003c0 74 9b 0c 3c cb b2 13 3b 8d d3 fe 3b 81 11 72 3b
       0.008581985 0.0022536989 0.0077766837 0.0036936703
0003d0 ab fd c2 3b 4d 6a 0f bc 77 e0 f6 3b b7 36 09 3c
       0.0059506497 -0.008753371 0.0075340825 0.008374861
0003e0 49 63 f7 bb 7e 6d 08 3c e9 51 0e 3c d1 d0 ba 3b
       -0.0075496775 0.008326886 0.008686521 0.0057011624
0003f0 a9 d6 03 bc 86 7e 09 3c ae fc 0b 3a a4 60 08 3c
       -0.008046784 0.008391982 0.00053400814 0.008323822
