Assets/NN/21_12-2from19_12.onnx (onnx, 631889 bytes, 11 tensors)

72 f4 [341]
0	0x3991691c	0.00027734868
1	0x3e64f37f	0.22358511
2	0x3ccceaf6	0.025014382
3	0x3c155362	0.009114118
4	0x3db3d38d	0.087805845
5	0x3991691c	0.00027734868
6	0x3de9ba06	0.11412434
7	0x3eb1f58c	0.3475765
8	0x3991691c	0.00027734868
9	0x3efb92ac	0.4913534
10	0x3ef2e043	0.47436723
11	0x3991691c	0.00027734868
12	0x3e0abe22	0.13549092
13	0x3ccceaf6	0.025014382
14	0x3bc5a643	0.006031783
15	0x3da2212a	0.07916482
16	0x3991691c	0.00027734868
17	0x3df29adc	0.11845943
18	0x3ef18bb8	0.4717691
19	0x3ca5cb58	0.020238563
20	0x3efb5a37	0.49092266
21	0x3ef2ce7d	0.47423163
22	0x3991691c	0.00027734868
23	0x3e440cc5	0.19145496
24	0x3ccceaf6	0.025014382
25	0x3be18e24	0.0068833996
26	0x3da369c4	0.079791576
27	0x3991691c	0.00027734868
28	0x3dd25515	0.10270134
29	0x3eec1532	0.4610992
30	0x3bf0e19d	0.007351114
31	0x3efe8b8b	0.49715838
32	0x3ef4012e	0.4765715
33	0x3991691c	0.00027734868
34	0x3dc3bd90	0.095576406
35	0x3ccceaf6	0.025014382
36	0x3c0ff9f6	0.008787623
37	0x3d8f52be	0.06998204
38	0x3991691c	0.00027734868
39	0x3df1d8f1	0.118089564
40	0x3efd319f	0.4945192
41	0x3cea64e3	0.02861256
42	0x3eefaa6e	0.46809715
43	0x3ee89266	0.45424193
44	0x3991691c	0.00027734868
45	0x3dd16d09	0.10225875
46	0x3ccceaf6	0.025014382
47	0x3b8c3424	0.0042786766
48	0x3d8f898f	0.07008659
49	0x3991691c	0.00027734868
50	0x3dc03198	0.09384459
51	0x3efdce97	0.49571678
52	0x3d005f44	0.031340852
53	0x3ef3f7d2	0.4765001
54	0x3ee99416	0.45620793
55	0x3991691c	0.00027734868
56	0x3dd59951	0.104296334
57	0x3ccceaf6	0.025014382
58	0x3c16a210	0.009193912
59	0x3d80ad9a	0.06283112
60	0x3991691c	0.00027734868
61	0x3dee162e	0.11625324
62	0x3ee9971b	0.45623097
63	0x3d563646	0.052297853
64	0x3e3f6869	0.18692173
65	0x3e3e054f	0.18556713
66	0x3991691c	0.00027734868
67	0x3d31d296	0.04341372
68	0x3ccceaf6	0.025014382
69	0x3b8033f2	0.0039124424
70	0x3d75fe71	0.060057107
71	0x3991691c	0.00027734868
72	0x3d8fe2d5	0.07025687
73	0x3efd1fbd	0.49438277
74	0x3edbd4c7	0.42935774
75	0x3e4c2211	0.1993487
76	0x3e46390a	0.19357696
77	0x3991691c	0.00027734868
78	0x3db8bcae	0.09020363
79	0x3ccceaf6	0.025014382
80	0x3bf0c8b0	0.0073481426
81	0x3d75b2a7	0.05998483
82	0x3991691c	0.00027734868
83	0x3df28186	0.11841111
84	0x3ee571f3	0.448135
85	0x3d563646	0.052297853
86	0x3e055934	0.1302231
87	0x3e07a611	0.13246943
88	0x3991691c	0.00027734868
89	0x3d02d315	0.031939585
90	0x3ccceaf6	0.025014382
91	0x3b2c6f55	0.0026311476
92	0x3d7188f5	0.058968503
93	0x3991691c	0.00027734868
94	0x3d9196e7	0.071088605
95	0x3ef752d9	0.48305395
96	0x3edbd4c7	0.42935774
97	0x3e089109	0.13336577
98	0x3e086ff5	0.13323958
99	0x3991691c	0.00027734868
100	0x3da1433b	0.07874151
101	0x3ccceaf6	0.025014382
102	0x3b85910e	0.0040761298
103	0x3d66071c	0.056159124
104	0x3991691c	0.00027734868
105	0x3e0038a7	0.12521611
106	0x3ee80f63	0.4532424
107	0x3d563646	0.052297853
108	0x3dd9b6f0	0.10630596
109	0x3de3ba80	0.111195564
110	0x3991691c	0.00027734868
111	0x3ca0afd7	0.019615097
112	0x3ccceaf6	0.025014382
113	0x3991691c	0.00027734868
114	0x3d799e8a	0.06094221
115	0x3991691c	0.00027734868
116	0x3daa8f5a	0.083281234
117	0x3ef77395	0.4833037
118	0x3edbd4c7	0.42935774
119	0x3dde48ed	0.10853753
120	0x3de44a82	0.11147024
121	0x3991691c	0.00027734868
122	0x3d90b29f	0.07065319
123	0x3ccceaf6	0.025014382
124	0x3b1e74e9	0.002417857
125	0x3d64d4a5	0.055866856
126	0x3991691c	0.00027734868
127	0x3dfb34dc	0.122659415
128	0x3eeaa810	0.45831347
129	0x3d563646	0.052297853
130	0x3dbf6a67	0.093464665
131	0x3dd15791	0.1022178
132	0x3991691c	0.00027734868
133	0x3c806c35	0.015676597
134	0x3ccceaf6	0.025014382
135	0x3991691c	0.00027734868
136	0x3d6712c4	0.05641438
137	0x3991691c	0.00027734868
138	0x3dc26ee2	0.094938055
139	0x3ef53e6b	0.47899184
140	0x3edbd4c7	0.42935774
141	0x3dc12386	0.09430604
142	0x3dcdb243	0.10043766
143	0x3991691c	0.00027734868
144	0x3d843351	0.064551
145	0x3ccceaf6	0.025014382
146	0x3cdc5836	0.026897531
147	0x3d648697	0.055792417
148	0x3991691c	0.00027734868
149	0x3e258bde	0.16166636
150	0x3eed6063	0.463626
151	0x3d563646	0.052297853
152	0x3de5aafb	0.112142526
153	0x3e090e0a	0.13384262
154	0x3991691c	0.00027734868
155	0x3c7b2896	0.015329501
156	0x3ccceaf6	0.025014382
157	0x3baa436a	0.0051960247
158	0x3d5da916	0.05411633
159	0x3991691c	0.00027734868
160	0x3de04d23	0.10952213
161	0x3ef407c1	0.47662166
162	0x3edbd4c7	0.42935774
163	0x3dc702af	0.09717309
164	0x3dd6d4ce	0.10489808
165	0x3d172a0b	0.03690533
166	0x3d5e48ba	0.054268576
167	0x3e828fd8	0.2550037
168	0x3d7fffb0	0.062499702
169	0x3d648696	0.055792414
170	0x3991691c	0.00027734868
171	0x3de9fe2c	0.114254326
172	0x3ef75ca9	0.48312882
173	0x3d5377a2	0.051627763
174	0x3dbce040	0.0922246
175	0x3dc105ef	0.0942496
176	0x3d3b79ea	0.045770563
177	0x3c647047	0.013942785
178	0x3e96e5cf	0.29472205
179	0x3e0538ea	0.13009992
180	0x3d5da916	0.05411633
181	0x3991691c	0.00027734868
182	0x3d9325db	0.07184955
183	0x3efe7742	0.49700361
184	0x3edbb0a1	0.42908195
185	0x3dbcb256	0.092137024
186	0x3dbdf89c	0.09275934
187	0x3d80eee0	0.06295562
188	0x3d231997	0.039819326
189	0x3ea85f9d	0.32885447
190	0x3deb6068	0.114929974
191	0x3d648696	0.055792414
192	0x3991691c	0.00027734868
193	0x3df61175	0.120150484
194	0x3efca498	0.49344325
195	0x3d4ecab6	0.05048629
196	0x3dbc57dc	0.09196445
197	0x3dc04c99	0.0938961
198	0x3d86ed91	0.06588281
199	0x3c101d48	0.008796044
200	0x3eac5213	0.33656368
201	0x3e1bdd05	0.15221031
202	0x3d5da916	0.05411633
203	0x3991691c	0.00027734868
204	0x3d9876b8	0.07444519
205	0x3efe8c15	0.4971625
206	0x3edba0ad	0.42896023
207	0x3dbc57dc	0.09196445
208	0x3dc070a5	0.09396485
209	0x3d89f8c5	0.06736902
210	0x3d13c15d	0.036073077
211	0x3ead7e52	0.33885437
212	0x3e026eef	0.1273763
213	0x3d648696	0.055792414
214	0x3991691c	0.00027734868
215	0x3dfd6086	0.12371926
216	0x3efe4226	0.49659842
217	0x3d4ce9a4	0.050027505
218	0x3dbc57dc	0.09196445
219	0x3dbf79d4	0.09349409
220	0x3d8cacf2	0.06868924
221	0x3c1b8d81	0.009494186
222	0x3eafdf72	0.34350163
223	0x3e1e9b5c	0.15488952
224	0x3d5da916	0.05411633
225	0x3991691c	0.00027734868
226	0x3d9ff588	0.07810503
227	0x3efce111	0.49390462
228	0x3edb8e87	0.42882177
229	0x3dbc57dc	0.09196445
230	0x3dc0e5d4	0.09418836
231	0x3d92aa64	0.07161406
232	0x3d06df53	0.032927822
233	0x3eb0d048	0.34533906
234	0x3e10b5fd	0.14131923
235	0x3d647621	0.05577672
236	0x3991691c	0.00027734868
237	0x3e02614f	0.12732433
238	0x3effa7cb	0.49932703
239	0x3d4add5c	0.04952751
240	0x3dbc57dc	0.09196445
241	0x3dbf26b4	0.09333554
242	0x3d8f9cd4	0.070123345
243	0x3ca4d776	0.020122271
244	0x3eb197da	0.34686166
245	0x3e222629	0.1583487
246	0x3d5da916	0.05411633
247	0x3991691c	0.00027734868
248	0x3da794c1	0.081826694
249	0x3ef5e008	0.48022485
250	0x3edb4f7e	0.42834085
251	0x3dbc57dc	0.09196445
252	0x3dc25b8f	0.0949012
253	0x3d950533	0.07276382
254	0x3cf1ab1f	0.029500542
255	0x3eb422bf	0.3518276

75 f4 [8]
0	0x4298e303	76.44338
1	0x40ab85ba	5.360074
2	0x3991691c	0.00027734868
3	0x40482975	3.1275303
4	0x429be8cd	77.95469
5	0x409cf295	4.904612
6	0x3991691c	0.00027734868
7	0x4050bc19	3.2614806

action_model._continuous_distribution.mu.weight f4 [1, 256]
0	0xbd26d855	-0.040733654
1	0xbc59950c	-0.013280164
2	0x3d64bad9	0.055842254
3	0xbd18664b	-0.03720693
4	0x3d23541d	0.03987514
5	0x3d59bfa0	0.053161263
6	0x3d45d8e3	0.048302542
7	0x3cf48070	0.0298464
8	0x3d1302bb	0.035891276
9	0x3cbdc947	0.023167266
10	0xbceb0238	-0.028687581
11	0xbd007105	-0.031357784
12	0x3cb436ad	0.021998728
13	0x3cfe3550	0.03103128
14	0x3cd19d11	0.02558759
15	0x3d15d01f	0.036575433
16	0xbd4ad43f	-0.04951882
17	0x3c9fdee9	0.019515472
18	0x3c5ad2ee	0.013355954
19	0x3d1590c4	0.036515012
20	0xbd188e14	-0.03724487
21	0xbcf43cb1	-0.029814096
22	0xbd27cdd6	-0.040967785
23	0xbcd1a6fa	-0.025592316
24	0xbb8873bc	-0.0041641872
25	0xbd21f816	-0.039543234
26	0x3d149560	0.036275268
27	0x3cedd6f6	0.029033165
28	0x3d01e313	0.031710695
29	0x3d2eb968	0.042657286
30	0x3d14a6ab	0.03629176
31	0x3d1b4cce	0.037915044
32	0x3d6e16e6	0.058127306
33	0x3d1ac441	0.03778482
34	0xbd282b0c	-0.041056678
35	0xbd1ab064	-0.037765875
36	0x3cd49a6e	0.025952544
37	0x3d34463a	0.044012286
38	0x3b8a38eb	0.004218211
39	0x3c975058	0.018470928
40	0x3d3e0bd7	0.04639801
41	0xbd183fa9	-0.037170086
42	0x3d3a1458	0.045429558
43	0x3d208746	0.039191507
44	0xbd4f823e	-0.050661318
45	0xbd42d1c7	-0.04756334
46	0x3d2cd2b5	0.042193133
47	0xbd461a11	-0.048364703
48	0x3cf6bbce	0.03011885
49	0x3d148fa7	0.03626981
50	0xbd2f3266	-0.042772673
51	0x3d1f5c3e	0.03890633
52	0x3cce306b	0.025169572
53	0xbce43921	-0.027859272
54	0x3d2cca19	0.042184923
55	0xbd05a63a	-0.03262923
56	0xbd982f5e	-0.074309096
57	0x3d0c4d4b	0.0342534
58	0xbd6ed63c	-0.05830978
59	0xbb8fb838	-0.0043859743
60	0x3d0bdb58	0.03414473
61	0x3d0efcd4	0.034909084
62	0xbd10c901	-0.035347942
63	0xbd220e79	-0.039564583
64	0x3c219e7b	0.009864445
65	0xbd153dc0	-0.036435843
66	0xbd160bb0	-0.03663224
67	0xbd88a06d	-0.06671224
68	0xbcfd1eb3	-0.030898428
69	0xbd266387	-0.04062226
70	0x3cef6cf5	0.02922676
71	0x3d1e39a0	0.038629174
72	0x3d86bfaf	0.065795295
73	0xbcc7f2cb	-0.024407765
74	0x3d047428	0.032337338
75	0x3d3b7299	0.045763586
76	0xbd0c5a40	-0.034265757
77	0xbd04d70d	-0.03243165
78	0x3ce4090a	0.027836341
79	0xbd05ed07	-0.03269675
80	0xbd559992	-0.05214841
81	0x3cf76522	0.030199591
82	0xbd461359	-0.048358295
83	0x3cdead10	0.027182132
84	0x3d644a02	0.05573464
85	0x3cce0d61	0.025152864
86	0x3d03afa0	0.03214991
87	0x3d0bae8d	0.03410201
88	0xbd3f2490	-0.046665728
89	0x3d2bd425	0.041950364
90	0xbd0b9738	-0.03407976
91	0x3c846de4	0.016165681
92	0x3d1088da	0.03528676
93	0x3d56bdfb	0.052427273
94	0xbd6b690b	-0.057473224
95	0xbd1857ac	-0.037192985
96	0x3d201bbc	0.03908895
97	0xbd246052	-0.04013092
98	0xbd479e49	-0.048734937
99	0xbd7d9d7e	-0.061917774
100	0xbd0bb898	-0.03411159
101	0x3cb76336	0.022386175
102	0xbd46cc7c	-0.048534855
103	0x3c435417	0.011921904
104	0xbd48c64f	-0.049017247
105	0x3c910a97	0.017705245
106	0xbd43a1eb	-0.04776184
107	0xbc6d6fd4	-0.014491994
108	0x3d087c58	0.03332171
109	0x3d14f709	0.036368404
110	0x3d5bd27d	0.053667534
111	0xbd10cf72	-0.035354085
112	0x3d117eb3	0.03552122
113	0x3d40c621	0.04706395
114	0xbd324f98	-0.043532938
115	0x3cec7a8d	0.02886703
116	0x3cd17fcf	0.02557364
117	0xbd296530	-0.041356266
118	0xbd3cd28e	-0.046099238
119	0xbd3b4777	-0.04572245
120	0xbd005943	-0.031335127
121	0xbd0ff3a2	-0.035144456
122	0x3cfefa14	0.031125106
123	0x3c6a5927	0.014303482
124	0x3d408b3e	0.04700779
125	0x3c42c9de	0.011888949
126	0xbc810e14	-0.015753783
127	0x3d08bb18	0.03338155
128	0xbb9e256e	-0.0048262393
129	0x3c827491	0.015924724
130	0xbd4b6676	-0.04965826
131	0x3cb9c70a	0.022677917
132	0x3ca8b5a1	0.02059442
133	0x3d294b78	0.04133174
134	0x3d2f5f38	0.042815417
135	0x3cb99873	0.022655701
136	0xbcd8785f	-0.026424585
137	0x3ca21922	0.019787375
138	0x3d22ace7	0.039715674
139	0x3cea1cc9	0.028578179
140	0xbd511bc3	-0.051051866
141	0x3d4628ce	0.048378758
142	0xbd1363a5	-0.0359837
143	0x3d493200	0.04911995
144	0xbd3e3fc5	-0.046447534
145	0x3d2403aa	0.040042557
146	0x3cd646f3	0.026156878
147	0xbd14c7cc	-0.036323354
148	0x3d0d1973	0.0344481
149	0xbd4caea7	-0.04997125
150	0xbc928934	-0.01788769
151	0x3c81e708	0.015857235
152	0xbcf796c2	-0.030223254
153	0xbb8b91af	-0.00425931
154	0x3cf215cc	0.02955141
155	0x3c08f611	0.008359448
156	0x3d86970f	0.06571781
157	0x3cffe87d	0.031238789
158	0xbd463429	-0.048389588
159	0x3d41eaab	0.047342937
160	0x3d2378dd	0.039910186
161	0xbcf165e6	-0.029467534
162	0xbd49d1a7	-0.049272206
163	0xbd1ba29f	-0.037996884
164	0x3d2d39a1	0.042291287
165	0xbd28754e	-0.041127495
166	0x3d03fa92	0.032221384
167	0x3d2be0b5	0.041962344
168	0xbd0c6cad	-0.03428333
169	0x3d1a6f36	0.037703715
170	0x3d308316	0.043093763
171	0x3d4ccb3f	0.049998518
172	0x3d090326	0.03345027
173	0xbca1023e	-0.01965439
174	0xbcc45f3b	-0.02397119
175	0x3cdf2d84	0.027243383
176	0x3d4924d0	0.049107373
177	0x3cd2c68a	0.025729436
178	0x3d1272bf	0.03575396
179	0x3ca60b93	0.02026919
180	0x3d6597d7	0.05605301
181	0x3c7286f1	0.01480268
182	0xbd0a3259	-0.03373942
183	0x3d0c21cf	0.03421193
184	0x3cdfa6b5	0.027301172
185	0x3d2961a4	0.041352883
186	0x3d0393b5	0.032123286
187	0x3d103e8e	0.035215907
188	0xbd2211c4	-0.039567724
189	0xbd2257fc	-0.03963469
190	0x3d0493d4	0.032367542
191	0xbd49b3f2	-0.049243875
192	0x3d3104e3	0.04321755
193	0x3d3794dd	0.0448197
194	0x3d529e1a	0.05142031
195	0x3c968b1a	0.018376876
196	0x3cd6934d	0.026193285
197	0x3c51847d	0.012787935
198	0xbd1ef08c	-0.038803622
199	0x3cbf3b1c	0.023343615
200	0x3d1c3839	0.038139556
201	0xbd0157bb	-0.031577807
202	0xbcbce24b	-0.023057124
203	0xbd87ce0a	-0.06631096
204	0xbd08a818	-0.03336343
205	0xbce27ee5	-0.027648399
206	0x3c72030e	0.014771236
207	0xbd07acc9	-0.033123765
208	0xbc735255	-0.014851172
209	0x3d0e638c	0.034762904
210	0x3d4335c5	0.0476587
211	0x3cca7a1e	0.024716433
212	0x3cf5c447	0.030000819
213	0xbd457d75	-0.04821535
214	0xbd051c2b	-0.032497566
215	0x3cea9ff1	0.02864072
216	0x3cf3c7fa	0.029758442
217	0x3cfdae7b	0.030966988
218	0xbd4b2784	-0.049598232
219	0xbcf460c0	-0.02983129
220	0x3cca177f	0.024669407
221	0x3c9f270b	0.019427797
222	0xbd0cdfdf	-0.034393188
223	0xbd1fe589	-0.03903726
224	0x3ba03e29	0.0048902226
225	0x3d100505	0.035161037
226	0xbd29ec1e	-0.041484945
227	0xbd0458ba	-0.03231118
228	0xbd094a87	-0.03351834
229	0xbcfd3b73	-0.030912137
230	0x3cf914ab	0.030405363
231	0xbb4c8636	-0.0031207926
232	0xbd2cd2f3	-0.042193364
233	0xbcb07a55	-0.021542707
234	0xbd429f24	-0.04751505
235	0xbd419965	-0.04726543
236	0x3d00c3cc	0.031436726
237	0x3cd64149	0.026154177
238	0x3d20ea34	0.039285854
239	0x3d336976	0.043801747
240	0x3d2c20ff	0.042023655
241	0xbd3bc833	-0.04584522
242	0xbd1b029a	-0.037844278
243	0xbd28a971	-0.041177217
244	0x3ce8711c	0.028374247
245	0xbd42eb0e	-0.047587447
246	0xbd0f9196	-0.03505095
247	0xbb97bc6e	-0.004630617
248	0xbc2457a5	-0.010030662
249	0xbd092ad5	-0.033488113
250	0x3d0a3faa	0.03375212
251	0xbd1fe340	-0.039035082
252	0x3d5afff5	0.053466756
253	0xbd313445	-0.04326274
254	0xbd0a7022	-0.033798344
255	0x3cde40f8	0.027130589

action_model._discrete_distribution.branches.0.bias f4 [3]
0	0xbae4be31	-0.0017451701
1	0x39d9ee2a	0.0004156691
2	0x3b9f0335	0.004852677

action_model._discrete_distribution.branches.0.weight f4 [3, 256]
0	0xbbe38e50	-0.006944455
1	0xbdfca556	-0.12336223
2	0xbc2e130b	-0.010624657
3	0x3acb695a	0.0015519068
4	0xbd1e23b9	-0.038608287
5	0x3d076746	0.033057474
6	0xbbbb7833	-0.005721116
7	0xbc4b1109	-0.012394198
8	0x3c08082b	0.008302729
9	0xbd421dfe	-0.047391884
10	0xbc213512	-0.009839313
11	0x3c435b0b	0.011923562
12	0xbd3043d6	-0.043033443
13	0xbd01583c	-0.031578287
14	0xbd3a50a5	-0.045487065
15	0x3af95900	0.0019023716
16	0xbbad84d8	-0.005295377
17	0x3d94cf82	0.072661415
18	0xbbad5d7d	-0.0052906857
19	0x3cccecbc	0.025015227
20	0xbbf71736	-0.0075406088
21	0x3b220f8e	0.002472851
22	0xbba3c614	-0.004997978
23	0xbad56ece	-0.0016283633
24	0x3d92ed1f	0.071741335
25	0xbca1d0fb	-0.01975297
26	0xbc1329b2	-0.008982109
27	0x3986e0cc	0.00025725958
28	0x3c8f003f	0.017456172
29	0x3c3633b4	0.011120725
30	0x3b75046e	0.0037386674
31	0xbc824634	-0.015902616
32	0x3ab94d49	0.0014137413
33	0x3d0c9413	0.034320902
34	0x3c167f6e	0.009185655
35	0x3bc6b5c1	0.006064147
36	0x3d00f866	0.03148689
37	0xbd0b7536	-0.034047328
38	0x3d8e1fa3	0.06939628
39	0xbcacc2aa	-0.021088917
40	0xba9ac253	-0.0011807181
41	0xbc4747c1	-0.012163104
42	0x3c40ece7	0.011775232
43	0x3b1a66b4	0.002355975
44	0xbc08b984	-0.008345012
45	0xbb8f2321	-0.0043682014
46	0xbcc10102	-0.02356005
47	0xbc3158ed	-0.010824424
48	0xbbdff779	-0.006834921
49	0xbc38a9d7	-0.011270962
50	0x3b2b7bdc	0.0026166355
51	0xbc4f4d36	-0.012652686
52	0xbc00ba72	-0.007856952
53	0xbd1063cc	-0.035251424
54	0xbbeae2f6	-0.007168169
55	0x3af2eab6	0.0018533084
56	0xbb36dd42	-0.0027902876
57	0x3cd9690d	0.02653935
58	0x3bce42d1	0.006294586
59	0x3d7b39de	0.061334483
60	0x3c898a16	0.016789477
61	0x3cda449a	0.02664404
62	0xbaba6546	-0.0014220856
63	0xbb1e03cd	-0.0024111152
64	0x3da89190	0.08230889
65	0xbac79a0b	-0.0015228403
66	0x3dc90644	0.09815648
67	0x3b4fc768	0.0031704549
68	0x3c114495	0.008866449
69	0x3b76b4a8	0.00376443
70	0xbc86ecb9	-0.0164703
71	0x3a1d4174	0.0005998828
72	0x3c6cadb3	0.01444571
73	0xbc0c9b5d	-0.008581963
74	0xbd056153	-0.03256352
75	0x3c86ed8c	0.016470693
76	0x3a45d1a4	0.00075461925
77	0xbb9fc9eb	-0.0048763654
78	0xbcf55c6a	-0.029951293
79	0x3c673484	0.014111642
80	0x3bc58cff	0.006028771
81	0xbccef663	-0.02526397
82	0x3adabc8c	0.0016688271
83	0xbba7a546	-0.0051161377
84	0x3d407f13	0.046996187
85	0xbcc3841d	-0.023866707
86	0xbc86828f	-0.016419677
87	0xbcd7e649	-0.026354926
88	0xbbae7a58	-0.005324643
89	0xbd6521e9	-0.055940542
90	0xbc5161f2	-0.0127797
91	0xbd1b501c	-0.037918195
92	0xbc8bcd2f	-0.017065613
93	0x3cbf2aa3	0.02333576
94	0x3bb43bf1	0.0055003096
95	0xbc28f251	-0.010311679
96	0xbcfd1a0f	-0.030896215
97	0x3c1a600e	0.009422315
98	0x3c36c3ee	0.011155112
99	0x3b296795	0.0025849093
100	0xbbaf89fb	-0.0053570247
101	0xbd3dd8b7	-0.046349254
102	0xbc5bea75	-0.013422598
103	0xbd8477cb	-0.06468161
104	0xbc0eb240	-0.00870949
105	0xbd264db2	-0.04060144
106	0x3ae73d6f	0.001764221
107	0xbc91091c	-0.017704539
108	0x3c272be3	0.0102033345
109	0x3d343380	0.043994427
110	0xbcad7c62	-0.021177474
111	0xbc9b65fa	-0.018969525
112	0x3d3e068d	0.046392966
113	0xbc5dc13b	-0.013534839
114	0xbb6f9074	-0.0036554607
115	0x3cef5e59	0.029219793
116	0xbca14440	-0.019685864
117	0xbc6b9098	-0.014377736
118	0x3b743e07	0.0037268416
119	0xbcee1abe	-0.029065486
120	0x3c7dc283	0.01548827
121	0xbb726755	-0.003698786
122	0xbc5048ed	-0.012712699
123	0x3da3951b	0.07987424
124	0xbab880bc	-0.0014076452
125	0x3dc53508	0.096292555
126	0xbdca0e60	-0.09866023
127	0x3cc0d25f	0.023537813
128	0xbca2222c	-0.019791685
129	0xbcdb523e	-0.026772615
130	0x3b7e4bd8	0.003880253
131	0xbd113666	-0.03545227
132	0xbd30d19f	-0.04316866
133	0x3a16f49e	0.00057584967
134	0xbc899a8d	-0.016797328
135	0xbb88a806	-0.0041704206
136	0xbc01ddfd	-0.007926461
137	0xbd0f4aba	-0.034983374
138	0x38e2ba03	0.00010811167
139	0x3cd1fc79	0.025633084
140	0xbb85f596	-0.004088114
141	0x3d06eb24	0.03293909
142	0xbcfd217c	-0.030899756
143	0x3d7352bc	0.059405074
144	0xbc33a4cb	-0.010964583
145	0xbb1b4d71	-0.0023697282
146	0xbc32bdf5	-0.010909547
147	0x3b3ead52	0.0029095006
148	0xbc4c977e	-0.01248729
149	0xbbb943c0	-0.0056538284
150	0x3c0fa75b	0.008767928
151	0xbdb5d572	-0.08878602
152	0xbc73ce48	-0.014880724
153	0x3d894fce	0.06704675
154	0x3a5a1707	0.00083194714
155	0x3d94306e	0.072358
156	0xbc7e3c9d	-0.015517381
157	0xbc5adf25	-0.013358866
158	0xbc181b6c	-0.009283882
159	0x3c41543e	0.01179987
160	0xbbf72302	-0.007542015
161	0xbc17b608	-0.009259708
162	0x3bd94790	0.0066308454
163	0x3c875fa7	0.016525103
164	0x3ca79299	0.020455645
165	0x3bf041b6	0.007332052
166	0xb879c81c	-5.9552593e-05
167	0x3a89e097	0.0010519203
168	0x3ab2ef50	0.0013651643
169	0x3c769e2e	0.015052361
170	0xbcb814c4	-0.02247084
171	0x3bddbfa8	0.006767232
172	0xbce9460f	-0.02847579
173	0xbcc6bf5a	-0.024261165
174	0xbd01a04a	-0.031647004
175	0xbcff53b4	-0.031167842
176	0x3c01e196	0.007927319
177	0xbc52d3d1	-0.012867884
178	0x3c203cd6	0.009780129
179	0x3d9204d8	0.0712983
180	0x3c0abefb	0.008468385
181	0xbd814026	-0.063110635
182	0xbbfd0fd2	-0.007722833
183	0x3b4463e2	0.0029966761
184	0xbd38382e	-0.044975452
185	0xbbde65d6	-0.006787042
186	0x3bcbcd96	0.006219576
187	0x3c02c66c	0.007981878
188	0xbbb0404a	-0.0053787576
189	0xbaec87f4	-0.0018045888
190	0x3c2056ca	0.009786317
191	0xbbdbcf1a	-0.006708038
192	0xbc3eea71	-0.011652575
193	0x3cd777c9	0.026302235
194	0xbc1b3287	-0.009472496
195	0xbd3ba6a0	-0.045813203
196	0xbc79c1fb	-0.015244002
197	0x3d8a78a8	0.067612946
198	0x3a72cc02	0.0009261967
199	0x3c8eb598	0.017420575
200	0x3d08ce6b	0.03339998
201	0xbdf18fe9	-0.11795027
202	0xbd5a034a	-0.053225793
203	0xbba9ac4a	-0.005178009
204	0xbc207840	-0.009794295
205	0xbc824a41	-0.015904548
206	0x3bbe5498	0.005808424
207	0x3c6df8d7	0.01452466
208	0xbcae31a5	-0.021263907
209	0xbbc2da9d	-0.005946471
210	0x3c9b7686	0.018977415
211	0xbda04f60	-0.078276396
212	0x3d67873d	0.056525458
213	0xbc014b0b	-0.007891427
214	0x3ca1932d	0.0197235
215	0x3c22a463	0.009926888
216	0x3ce3a812	0.027790103
217	0xbcf73029	-0.030174332
218	0xbb5191fb	-0.003197788
219	0xbb63a830	-0.0034737699
220	0xbd0387e1	-0.032112006
221	0xbd25a07b	-0.04043625
222	0xbbf08f6d	-0.0073413164
223	0xbb80c813	-0.0039301007
224	0xbdd1cac7	-0.10243755
225	0xbcb75056	-0.022377174
226	0x3c56d2a5	0.013111745
227	0xbbe7263f	-0.00705412
228	0x3c195c3c	0.009360369
229	0x3a69203a	0.0008893047
230	0xbd13a7f8	-0.03604886
231	0xbdcddafd	-0.10051534
232	0x3c4aca4a	0.012377331
233	0xbd053f1f	-0.0325309
234	0xbbe5245e	-0.0069928607
235	0xbbcf8cdb	-0.00633393
236	0xbae08bda	-0.0017131523
237	0xbbd7c4a1	-0.0065847193
238	0xbbca5376	-0.0061745
239	0xbb853751	-0.004065432
240	0xbd0e8796	-0.034797274
241	0x3bf1fd28	0.007384915
242	0xb8fe83bb	-0.000121362005
243	0x3baf8dc5	0.0053574764
244	0xbc45accd	-0.012065125
245	0x3ae90ada	0.0017779723
246	0xbc91cf1b	-0.01779895
247	0x3de564d7	0.11200874
248	0x3de94de6	0.11391811
249	0x3a3ca06a	0.00071955344
250	0xbce17c63	-0.027525133
251	0x3bcf8ea7	0.006334144
252	0xbc239058	-0.009983145
253	0xba80e453	-0.0009833671
254	0xbaa41a22	-0.0012519995
255	0xbd54e6b9	-0.051977847

network_body._body_endoder.seq_layers.0.bias f4 [256]
0	0x3cd9b95d	0.026577646
1	0x3d350d01	0.044201855
2	0x3d1caca1	0.03825057
3	0x3d26a1ca	0.040681638
4	0x3d0673fc	0.032825455
5	0x3d132c06	0.035930656
6	0x3d300092	0.042969294
7	0x3cd87589	0.026423233
8	0x3d31d5ee	0.04341691
9	0x3d2cd3e7	0.042194273
10	0xbd54b444	-0.051929727
11	0x3d0869da	0.033304073
12	0x3d068b52	0.03284771
13	0xbc9f6f83	-0.019462353
14	0x3c3c3729	0.011487761
15	0xbccc2f06	-0.024924766
16	0x3ce101ef	0.027466742
17	0x3cf6a7b8	0.030109271
18	0xbcc65669	-0.024211125
19	0x3d1e3635	0.038625915
20	0x3c4edf80	0.012626529
21	0x3d194313	0.037417483
22	0xbd0f8d53	-0.035046887
23	0x3c41dcf9	0.011832469
24	0x3d10c45d	0.035343517
25	0xbd2050b5	-0.03913947
26	0x3d1aac24	0.037761822
27	0x3ce4f10b	0.02794697
28	0x3d048b3d	0.03235935
29	0x3ced2572	0.02894852
30	0x3cf597c9	0.029979603
31	0xbce18815	-0.02753071
32	0x3d03dcd0	0.032193005
33	0x3d205857	0.039146747
34	0x3cf616de	0.0300402
35	0x3d12e50a	0.03586296
36	0x3cfcb722	0.030849043
37	0x3d2841dd	0.041078437
38	0x3d103e6d	0.035215784
39	0x3d31777b	0.043326836
40	0xbc372213	-0.0111775575
41	0x3d1918f6	0.03737732
42	0x3d10edac	0.03538291
43	0x3d1b432d	0.03790586
44	0x3d1dcd5f	0.038525935
45	0x3d10b58e	0.035329394
46	0x3cc4295c	0.023945503
47	0x3cb0dc79	0.021589505
48	0x3d1d6419	0.03842554
49	0x3d2713e1	0.040790442
50	0x3d188ee8	0.03724566
51	0x3d50c16f	0.050965723
52	0xbc4fb9ca	-0.012678573
53	0xbce0e5d6	-0.027453344
54	0xbbad0de0	-0.005281195
55	0x3d030b7d	0.031993378
56	0x3d03cedf	0.03217971
57	0x3ca06214	0.019578017
58	0x3d0d1261	0.034441356
59	0x3d14ae13	0.036298823
60	0x3cfa252b	0.030535301
61	0x3d434199	0.04766998
62	0xbc3eecfd	-0.011653182
63	0x3d0ddfac	0.03463714
64	0x3d360d0a	0.04444603
65	0xbb90a099	-0.004413676
66	0xbc5ac52d	-0.013352674
67	0xbd1d08f7	-0.038338628
68	0x3ca8823d	0.020569915
69	0x3b775a6e	0.003774311
70	0xbcdcc4d7	-0.02694933
71	0x3ced980c	0.029003166
72	0x3d0c44cb	0.034245294
73	0x3d3056e5	0.04305162
74	0xbd1aedd7	-0.037824478
75	0x3d05e2b5	0.032686908
76	0x3d2ef9ed	0.042718817
77	0x3d14cade	0.03632628
78	0xbd2c3dcf	-0.042051133
79	0x3cfb7af6	0.03069828
80	0x3d161c1f	0.036647912
81	0x3d1ea05b	0.038727146
82	0x3d236cb7	0.0398986
83	0x3d1ddb69	0.038539324
84	0xbcd2f57c	-0.025751822
85	0x3d0a1bf5	0.03371807
86	0x3d40463b	0.046941977
87	0x3cf18978	0.029484496
88	0x3d2ae544	0.04172255
89	0xbce6550a	-0.028116722
90	0x3d028899	0.03186855
91	0x3d2d86c1	0.04236484
92	0x3d21e4b9	0.039524768
93	0x3d1a4a9d	0.037668813
94	0x3d342ac0	0.043986082
95	0x3ce1fbb4	0.027585842
96	0x3d0d99d3	0.034570526
97	0x3d26398a	0.040582217
98	0x3d0ed2d4	0.03486903
99	0x3ce000f6	0.027344208
100	0xbc659aba	-0.0140139405
101	0x3d1e4bf5	0.038646657
102	0x3d0b1854	0.033958748
103	0x3d1ca9e9	0.038247976
104	0x3d112395	0.035434324
105	0x3cd04cd1	0.025427254
106	0x3d069aaa	0.032862343
107	0x3d1dd39e	0.038531892
108	0x3d0580e7	0.032593634
109	0x3ce0a89b	0.027424147
110	0x3c97f825	0.018550942
111	0xbc1638b7	-0.009168795
112	0x3d69f156	0.05711492
113	0x3d1605c8	0.036626607
114	0x3d2468f8	0.04013917
115	0x3c938945	0.018009791
116	0x3d16d07d	0.036819924
117	0x3d0dbfe3	0.034606826
118	0x3d2f2149	0.042756353
119	0x3d35d026	0.04438796
120	0xbd3a178b	-0.04543261
121	0xb98a7f84	-0.00026416418
122	0x3d0f953d	0.035054434
123	0x3cb19a21	0.02167994
124	0xbd12c254	-0.035829857
125	0x3cef1071	0.029182645
126	0x3d03ff66	0.03222599
127	0x3d41a5be	0.047277205
128	0x3d1cbeb4	0.038267806
129	0x3cd6af9a	0.02620678
130	0x3d1050b3	0.03523321
131	0x3d140eeb	0.03614704
132	0xbd11c4df	-0.03558814
133	0x3d419f67	0.04727116
134	0x3cfe3682	0.03103185
135	0x3d3e1424	0.046405926
136	0x3d2ad15d	0.04170357
137	0x3d2b9b23	0.041895997
138	0x3d06eea9	0.032942448
139	0x3d13bb69	0.0360674
140	0x3d11f536	0.035634242
141	0x3d03c1b6	0.03216716
142	0x3cb77463	0.022394365
143	0x3d112ad5	0.03544124
144	0x3cf80ba5	0.03027899
145	0x3d198c5e	0.03748738
146	0x3d1c5498	0.038166612
147	0x3d238d5b	0.03992973
148	0xbb305e8e	-0.0026911828
149	0xbb74e83e	-0.0037369872
150	0x3cf6e0b0	0.030136436
151	0x3ccdc08d	0.02511623
152	0x3d2c1f3f	0.042021986
153	0xbd1f42d3	-0.038882088
154	0xbc8ad445	-0.016946921
155	0x3ce9cd94	0.02854041
156	0x3d13a2a9	0.036043797
157	0xbad5440c	-0.001627089
158	0x3d2b8869	0.041878138
159	0x3d116ab6	0.035502158
160	0x3d2c75c6	0.042104505
161	0xbd1bcaa4	-0.03803505
162	0xbd17993f	-0.03701138
163	0x3d232bdf	0.03983676
164	0xba7107fb	-0.00091946096
165	0x3ce0d8f3	0.0274472
166	0x3d1db110	0.038498938
167	0xbc445c80	-0.011984944
168	0x3d24eeff	0.040266987
169	0x3d08864a	0.033331193
170	0xbd1562f0	-0.036471307
171	0x3cfdb97b	0.030972233
172	0x3d102e6e	0.03520053
173	0x3cf7178b	0.030162593
174	0x3d249d67	0.040189173
175	0x3cd6f562	0.026240055
176	0x3d1485d9	0.03626046
177	0x3d29bd67	0.041440394
178	0x3cef41cd	0.029206181
179	0x3c17741f	0.009243994
180	0x3d2a41a8	0.04156652
181	0x3d34f3c6	0.044177793
182	0x3d2ac088	0.04168752
183	0x3d047019	0.032333467
184	0x3d358b48	0.044322282
185	0xbce1626d	-0.027512753
186	0x3d102a1f	0.03519642
187	0xbd02f4a4	-0.03197159
188	0x3d102f9b	0.03520165
189	0x3d290112	0.041260786
190	0x3d09f562	0.03368128
191	0x3cc38855	0.02386872
192	0x3d12b56b	0.035817545
193	0x3d001049	0.03126553
194	0x3d3a27a8	0.045447975
195	0x3d36b2c1	0.044604067
196	0x3d15b327	0.036547806
197	0x3d0f972c	0.035056278
198	0x3cf8b2c4	0.03035868
199	0xbcb0d5bb	-0.02158629
200	0x3d20746d	0.039173532
201	0xbd217128	-0.039414555
202	0x3d231dfc	0.039823517
203	0xbcdf0885	-0.027225742
204	0xbd058bd3	-0.03260405
205	0x3d137805	0.03600313
206	0x3d191c01	0.037380222
207	0x3d279815	0.04091652
208	0x3d41fe4e	0.047361664
209	0xbd155a1b	-0.036462884
210	0x3cca50ee	0.024696793
211	0x3d02a703	0.031897556
212	0xbcc3a669	-0.023883061
213	0xbc92d349	-0.017923014
214	0x3cfa3374	0.030542113
215	0xbc8ad239	-0.016945945
216	0x3d13eede	0.036116473
217	0x3d07e473	0.03317685
218	0x3cb3887f	0.021915672
219	0xbc805295	-0.015664378
220	0x3d0d23df	0.034458037
221	0x3d04a484	0.032383457
222	0x3d0b0584	0.033940807
223	0xbcb8c547	-0.022555007
224	0x3d27f0b9	0.041001055
225	0x3bb711be	0.005586832
226	0x3ce9bcc9	0.028532403
227	0x3d0238a6	0.031792305
228	0x3d0deb4b	0.03464822
229	0x3d1ccd86	0.03828194
230	0xbc41e1f9	-0.011833661
231	0x3d1decb5	0.03855582
232	0x3d0e10ae	0.034683876
233	0x3d0a4b8e	0.03376346
234	0x3d4445a2	0.04791797
235	0x3d1c259a	0.038121797
236	0x3ce30b00	0.027715206
237	0x3d301e72	0.042997785
238	0x3d0f9eba	0.035063483
239	0x3d1cc079	0.038269494
240	0xbd0f52ef	-0.0349912
241	0x3d1b65e5	0.03793897
242	0xbd1aca13	-0.03779037
243	0x3cff04cf	0.031130223
244	0xbb650f01	-0.003495157
245	0x3d19b82f	0.037529167
246	0x3cfbbc7a	0.030729521
247	0xbd2b63ad	-0.041843105
248	0x3d1e7619	0.038686845
249	0x3d23e4b4	0.04001303
250	0x3d005f16	0.03134068
251	0x3c80dcd9	0.015730308
252	0x3d244d84	0.040112987
253	0xbd47c478	-0.04877135
254	0xbb6d8e1a	-0.003624803
255	0x3d20241a	0.03909693

network_body._body_endoder.seq_layers.0.weight f4 [256, 349]
0	0x3c5078e2	0.012724133
1	0xbd151549	-0.036397252
2	0xbd79a55a	-0.060948707
3	0xbd0747f4	-0.033027604
4	0x3ce8f44c	0.028436802
5	0x3d76bc2d	0.060238052
6	0x3d1665a0	0.03671801
7	0xbd1d108a	-0.03834585
8	0xbd3a6003	-0.04550172
9	0x3d88f479	0.066872545
10	0x3d1f4764	0.038886443
11	0x3d736aac	0.059427902
12	0x3c8c9652	0.017161522
13	0xbd922229	-0.07135422
14	0x3d4bfc8b	0.04980139
15	0xbc780ea8	-0.015140213
16	0xbd56f102	-0.052475937
17	0xbbc88746	-0.0061196415
18	0x3cabf1aa	0.020989258
19	0x3cc8a6a3	0.024493521
20	0xbce8e61a	-0.028430033
21	0x3d83092f	0.06398236
22	0x3dc37b24	0.095449716
23	0xbd9da0a2	-0.07696654
24	0xbd3b33ba	-0.045703627
25	0x3cfb73b1	0.030694814
26	0xbd161aa2	-0.036646493
27	0xbc94f361	-0.018182458
28	0x3c13d0fa	0.009021992
29	0x3b963b96	0.00458474
30	0xbd3c48a9	-0.04596773
31	0xbc80133a	-0.015634168
32	0xbc478510	-0.012177721
33	0x3bf925c7	0.0076033804
34	0x3bfa2acc	0.0076344963
35	0xbc48f9e1	-0.012266607
36	0xbcbe88ae	-0.023258533
37	0x3ad40d59	0.0016178294
38	0xbe092d87	-0.13396274
39	0x3d469915	0.048485834
40	0x3d029dbb	0.031888705
41	0xbdc8d8f6	-0.09807007
42	0xbd8b21f6	-0.06793587
43	0x3d122627	0.035680916
44	0x3dedab26	0.116049096
45	0x3bee9196	0.007280539
46	0xbd744c2a	-0.05964295
47	0xbceb6a68	-0.028737262
48	0xbdbe296b	-0.092852436
49	0x3df77be0	0.12084174
50	0xbda878cb	-0.082261644
51	0xbd8a5781	-0.06754971
52	0xbdf41509	-0.11918075
53	0xbd25189f	-0.040306684
54	0x396656e6	0.00021966881
55	0xbd23f02b	-0.040023964
56	0x3d9a99e8	0.075488865
57	0x3d807527	0.06272345
58	0xbda51fe3	-0.080627225
59	0x3d17cea1	0.03706229
60	0xbd70c560	-0.05878198
61	0x3cf10c31	0.029424759
62	0xbc5ef9bd	-0.013609347
63	0xbdaa87c1	-0.08326674
64	0x3d54dc39	0.051967833
65	0xbdc1ca05	-0.0946236
66	0xbd6b08b6	-0.057381354
67	0x3ccb51a6	0.024819206
68	0xbd6f1605	-0.05837061
69	0x3d8082b3	0.06274929
70	0xbde81b1e	-0.11333297
71	0x3dd10fca	0.1020809
72	0xbcb10d3f	-0.021612762
73	0x3b8b6144	0.0042535383
74	0x3ca3ba5f	0.01998633
75	0xbc169996	-0.009191891
76	0xbcb31c95	-0.021864215
77	0x3d883b99	0.06651992
78	0x3cf29418	0.029611632
79	0x3cb88b95	0.022527495
80	0xbd8a2fdc	-0.0674741
81	0x3bf8efd7	0.0075969505
82	0xbdcf7f22	-0.101316705
83	0x3c0030c0	0.007824123
84	0xbd2ab175	-0.041673142
85	0xbdd1ead0	-0.10249865
86	0xbcff63dd	-0.031175548
87	0x3b999102	0.0046864757
88	0xbd5adf93	-0.053435873
89	0xbd099461	-0.03358877
90	0x3d0c3e55	0.034239132
91	0xbd0415f5	-0.032247502
92	0x3ce0fa0d	0.027462984
93	0xbd303931	-0.043023292
94	0xbd2ca4b6	-0.042149268
95	0xbda762ba	-0.081731275
96	0x3ce25c61	0.02763194
97	0x3dc78e90	0.097439885
98	0x3cbb10c5	0.022835145
99	0x3d6e0014	0.058105543
100	0x3bbff799	0.0058583734
101	0x3bd93586	0.006628695
102	0x3cf83630	0.030299276
103	0x3dbc206f	0.09185874
104	0xbc1270ff	-0.008938073
105	0xbc8370a4	-0.016044922
106	0xbc75d469	-0.015004256
107	0x3b3e4f21	0.0029038864
108	0xbcf7ca14	-0.030247726
109	0x3d3508a1	0.044197682
110	0x3d4249dd	0.047433723
111	0xbca80c0b	-0.020513555
112	0x3d27502f	0.040847953
113	0x3d8918a5	0.06694154
114	0x3a60d961	0.0008577314
115	0x3d97900e	0.07400523
116	0x3d9be222	0.07611491
117	0xbd42014b	-0.047364514
118	0x3d8b72c2	0.06808998
119	0xba629cda	-0.00086445885
120	0xbc9b7bfb	-0.018980017
121	0x3d810101	0.062990196
122	0x3ca82bba	0.020528663
123	0x3d5e84a0	0.0543257
124	0xbbece264	-0.0072291363
125	0xbce0d8c3	-0.02744711
126	0xbd08496c	-0.033273146
127	0xbdad0327	-0.08447867
128	0xbd3a7bf3	-0.045528363
129	0xbe1c6644	-0.15273386
130	0xbd98f1f6	-0.074680254
131	0x3d09285c	0.033485755
132	0x3d6fa07c	0.05850266
133	0x3d05bae2	0.03264893
134	0x3d10ac7d	0.035320748
135	0x3c93960b	0.018015882
136	0x3dab30eb	0.0835894
137	0x3cf7bf71	0.030242654
138	0xbd5b4298	-0.053530306
139	0xbd68ed5a	-0.05686698
140	0xbbbbecb8	-0.005735006
141	0xbcb4ba2c	-0.02206143
142	0xbcdc9350	-0.026925713
143	0xbbd5c8d0	-0.006524183
144	0xbd8d4589	-0.068980284
145	0xbd4788ba	-0.048714377
146	0xbd0c2dbd	-0.034223307
147	0x3dcda837	0.1004185
148	0x3c04be03	0.008101943
149	0xbe008136	-0.1254929
150	0x3be7d76b	0.0070752404
151	0xbd8a9389	-0.06766421
152	0xbdab8df1	-0.083766825
153	0x3dafc47f	0.085824005
154	0xbc93e16e	-0.01805183
155	0x39edc520	0.00045351032
156	0xbc542f96	-0.0129507985
157	0xbd045145	-0.032304067
158	0xbd8dca9d	-0.06923411
159	0xbbb7432b	-0.005592724
160	0xbcf88f1b	-0.030341676
161	0x3d3fd24d	0.046831418
162	0x3d1ed845	0.03878047
163	0xbc281caa	-0.01026074
164	0xbc9c98f1	-0.019115897
165	0x3d8eba6e	0.069691524
166	0xbcfcd2ec	-0.030862294
167	0xbda5e74f	-0.08100759
168	0x3d958f35	0.07302705
169	0x3ca4ecc0	0.020132422
170	0xbcaaf7fc	-0.020870201
171	0xbd2856ae	-0.04109829
172	0x3d8801c4	0.06640962
173	0xbdeb16ed	-0.11478982
174	0x3d340bbc	0.043956503
175	0x3d2affbe	0.0417478
176	0xbd89e150	-0.06732428
177	0x387121ed	5.7490473e-05
178	0x3b8452b1	0.004038178
179	0xbd454f1d	-0.04817115
180	0x3c451428	0.012028731
181	0xbdbd3e34	-0.0924038
182	0xbba92ca2	-0.0051627913
183	0x3cdde615	0.02708725
184	0x3c73aa4f	0.014872148
185	0xbdd1b9ee	-0.102405414
186	0xbbf7d1f2	-0.007562869
187	0x3bce2773	0.006291324
188	0x3d796994	0.060891703
189	0xbd68f8cf	-0.056877907
190	0xbd10e585	-0.035375137
191	0x3d9521ba	0.072818235
192	0xbc546873	-0.012964356
193	0xbb79a865	-0.0038094756
194	0xbc983f71	-0.018584939
195	0x3ccbaca0	0.024862587
196	0x3cdaa35a	0.02668922
197	0xbcb467c6	-0.02202214
198	0x3dfa01f2	0.12207402
199	0x3d7072a7	0.05870309
200	0xbdbd5e6f	-0.092465274
201	0x3c1e2782	0.009652974
202	0xbd196739	-0.037451956
203	0x3cfa8907	0.030582918
204	0xbdf4be6c	-0.119503826
205	0xbc9ccf97	-0.019141955
206	0x3db51780	0.08842373
207	0x3d0f45e3	0.03497876
208	0xbd6fdca5	-0.058560032
209	0xbdb02aba	-0.086018994
210	0xbda265fc	-0.07929608
211	0xbd331954	-0.043725327
212	0xbd12f33b	-0.035876494
213	0x3d941c2d	0.072319366
214	0x3d109e6d	0.035307337
215	0xbca59288	-0.020211473
216	0x3d12f44b	0.035877507
217	0xbd528336	-0.051394664
218	0x3caf608e	0.021408346
219	0xbd1cc73b	-0.03827594
220	0xbd570c10	-0.052501738
221	0x3af7827e	0.0018883494
222	0xbcc080a2	-0.023498837
223	0xbcc0e028	-0.023544386
224	0x3cda223e	0.026627656
225	0x3d88707c	0.0666208
226	0xbd3d3e93	-0.046202254
227	0x3d28f8a6	0.041252755
228	0x3c65b638	0.014020495
229	0xbd044a24	-0.03229727
230	0x3cb7c4a0	0.022432625
231	0xbce9a9e3	-0.028523391
232	0x3de38638	0.111095846
233	0xbd1213bf	-0.035663363
234	0x3d60ecbf	0.05491328
235	0x3c4e9560	0.012608856
236	0xbc4d555c	-0.012532558
237	0xbd99a74f	-0.07502615
238	0x3cdb2d25	0.026754925
239	0x3d39dbff	0.04537582
240	0xbd4acc1e	-0.049511068
241	0x3b93641f	0.0044980193
242	0xbc9fbaaf	-0.019498197
243	0xbda6cb93	-0.081442975
244	0xbc1f99d7	-0.009741268
245	0x3d8f47e2	0.069961324
246	0x3c59c957	0.013292632
247	0xbcd17233	-0.02556715
248	0x3d38a253	0.04507668
249	0x3d852421	0.06501032
250	0x3da3e578	0.08002752
251	0xbe05c1be	-0.13062188
252	0x3d9fd1ca	0.07803686
253	0xbc925895	-0.017864505
254	0xbd9842d2	-0.0743462
255	0xbc452cbc	-0.012034591

network_body._body_endoder.seq_layers.2.bias f4 [256]
0	0xbcec77a3	-0.028865641
1	0x3b1072ec	0.0022041155
2	0x3d05d4ed	0.032673765
3	0xbd0e4012	-0.03472907
4	0x3d0ccb04	0.0343733
5	0x3d20962d	0.03920572
6	0x3d13d868	0.036095053
7	0x3d18d11e	0.037308805
8	0x3d08a2a0	0.033358216
9	0x3ce6a2d5	0.028153816
10	0xbcdeeaf1	-0.027211638
11	0xbd0d8b0e	-0.03455644
12	0x3d05b08a	0.032639064
13	0x3d041570	0.032247007
14	0x3d2a2e30	0.041547954
15	0x3d16430c	0.036685035
16	0xbd0d3ee1	-0.034483794
17	0x3c9e3f98	0.019317433
18	0x3cdc4333	0.026887512
19	0x3d1f7970	0.03893417
20	0xbd297719	-0.041373346
21	0xbd0b5993	-0.03402097
22	0xbd1b3070	-0.03788799
23	0xbd109f52	-0.03530819
24	0xbc4b0b52	-0.012392836
25	0xbcd741ba	-0.026276458
26	0x3cf9f15f	0.030510603
27	0x3d032366	0.03201618
28	0x3d1d1add	0.038355697
29	0x3d214bb6	0.039378844
30	0x3d1fb34d	0.038989354
31	0x3d17b956	0.037041984
32	0x3d0e6629	0.034765396
33	0x3d178146	0.03698852
34	0xbcc590f7	-0.024116976
35	0xbd2d20cd	-0.04226761
36	0x3d086613	0.03330047
37	0x3d0084e7	0.031376746
38	0x3cbbff1e	0.022948798
39	0x3d1a15af	0.037618335
40	0x3d102e15	0.035200197
41	0xbcd416d8	-0.025889799
42	0x3d270011	0.040771548
43	0x3d16fcb2	0.036862083
44	0xbd01cc04	-0.031688705
45	0xbd1964f8	-0.037449807
46	0x3d0f0bea	0.03492347
47	0xbd04efc8	-0.032455236
48	0x3d1024a8	0.035191208
49	0x3d0416c7	0.032248285
50	0xbcd49406	-0.02594949
51	0x3d1e0f93	0.03858907
52	0x3d0bc5d2	0.034124203
53	0xbca5c1a0	-0.02023393
54	0x3d0a03ee	0.033695154
55	0xbd01eec7	-0.031721856
56	0xbce06109	-0.02739002
57	0x3d23c1af	0.039979633
58	0xbd10bb06	-0.03533461
59	0x3ae1e4de	0.0017234345
60	0x3d178944	0.03699614
61	0x3ce871b8	0.028374538
62	0xbd11c48d	-0.035587836
63	0xbd0218ef	-0.03176206
64	0x3cd675a7	0.026179148
65	0xbd37ebaf	-0.0449025
66	0xbcd33e91	-0.02578667
67	0xbcd777ad	-0.026302183
68	0xbd107d27	-0.035275605
69	0xbd1742bb	-0.036928874
70	0x3d175b1c	0.036952123
71	0x3d09c964	0.033639327
72	0x3d07feb6	0.033201896
73	0xbd07fd2e	-0.033200435
74	0x3d13bf10	0.036070883
75	0x3d1db31d	0.038500894
76	0xbd08d956	-0.033410393
77	0xbd11d502	-0.03560353
78	0x3d034e8b	0.032057326
79	0xbd173dbe	-0.036924116
80	0xbd021546	-0.03175857
81	0x3d0ba5d8	0.034093708
82	0xbd1c8932	-0.038216777
83	0x3d1db20d	0.03849988
84	0x3d171f6b	0.036895197
85	0x3d116b81	0.035502914
86	0x3cee8169	0.029114442
87	0x3d0fb71f	0.035086747
88	0xbcfbb061	-0.030723752
89	0x3d14d6cc	0.03633766
90	0xbcf5cb7d	-0.030004257
91	0x3c9711d2	0.018441115
92	0x3d064b3d	0.032786597
93	0x3d103070	0.035202444
94	0xbd1cd358	-0.03828749
95	0xbcbbea1f	-0.022938786
96	0x3d0002c7	0.03125265
97	0xbd10b67d	-0.035330284
98	0xbcc10d73	-0.023565983
99	0xbd0ae7d0	-0.03391248
100	0xbd1f47b2	-0.038886733
101	0x3ce94e5a	0.028479744
102	0xbcffd8eb	-0.031231364
103	0x3d0ec7cd	0.034858514
104	0xbd01f0e0	-0.031723857
105	0x3d03e6e4	0.032202616
106	0xbd13e54c	-0.036107346
107	0xbcb0de40	-0.021590352
108	0x3d1491d3	0.03627188
109	0x3d2c4de7	0.04206648
110	0x3d16f1ee	0.036851816
111	0xbcd5d5e3	-0.026102966
112	0x3d0ddb4e	0.034632973
113	0x3d098796	0.03357657
114	0xbd0139de	-0.031549327
115	0x3d09f2be	0.033678763
116	0x3d0b45a0	0.034001946
117	0xbcf07800	-0.029354095
118	0xbcd308bb	-0.025760999
119	0xbc9cb648	-0.019129887
120	0xbd04bd80	-0.032407284
121	0xbd13ef9d	-0.036117185
122	0x3d14d584	0.036336437
123	0x3cea308e	0.028587606
124	0x3d103c08	0.0352135
125	0x3d0c0b31	0.03419036
126	0xbc1068ba	-0.008814031
127	0x3d0331a4	0.032029763
128	0xbbe83c0c	-0.0070872363
129	0x3c880a9f	0.016606627
130	0xbd2e0b7b	-0.042491417
131	0x3d16d22b	0.036821526
132	0x3d06665d	0.032812465
133	0x3d0de571	0.03464264
134	0x3d05306a	0.032516874
135	0x3d10ca7c	0.035349354
136	0xbd2018dc	-0.039086208
137	0x3ced1d63	0.028944677
138	0x3d1ce776	0.038306676
139	0x3cb6fc1c	0.022337012
140	0xbd17d77c	-0.037070736
141	0x3d21ed43	0.03953291
142	0xbcaa390b	-0.020779153
143	0x3d44e655	0.048071224
144	0xbd1d9c43	-0.0384791
145	0x3d0085b2	0.0313775
146	0x3d0b587e	0.03401994
147	0xbd2c554e	-0.04207354
148	0x3d1fa9dd	0.038980354
149	0xbcef683a	-0.029224504
150	0xbd18dc25	-0.03731932
151	0x3c9c637a	0.019090403
152	0xbcdd0aea	-0.026982743
153	0xbc1526f8	-0.009103529
154	0x3d113129	0.035447273
155	0x3c093525	0.008374487
156	0x3d18080c	0.03711705
157	0x3d1a9ceb	0.037747305
158	0xbd011817	-0.031517114
159	0x3d11a66e	0.03555911
160	0x3d04a2a5	0.032381672
161	0xbca90560	-0.020632446
162	0xbd0a29b6	-0.033731185
163	0xbd07d469	-0.033161554
164	0x3d14baf4	0.036311105
165	0xbd098af5	-0.033579785
166	0x3d0d6417	0.03451928
167	0x3cfd6f9c	0.030937009
168	0xbd169403	-0.03676225
169	0x3d0dc248	0.03460911
170	0x3cdc3bb5	0.02688394
171	0x3d13d1ec	0.03608887
172	0x3d0e602a	0.034759678
173	0xbc51d516	-0.012807151
174	0xbccd49a2	-0.025059525
175	0x3cf9f7d9	0.03051369
176	0x3d17e737	0.037085738
177	0x3d0d636d	0.034518648
178	0x3d141bf8	0.036159486
179	0x3c8eb35c	0.01741951
180	0x3d10a727	0.03531566
181	0x3cbdceb7	0.023169858
182	0xbcf43aaa	-0.02981313
183	0x3d044627	0.032293465
184	0x3d163c14	0.03667839
185	0x3d0fab63	0.035075556
186	0x3cffa298	0.03120546
187	0x3d0f09fe	0.03492164
188	0xbcd476a0	-0.025935471
189	0xbd2bf306	-0.041979812
190	0x3d16397a	0.036675908
191	0xbd044577	-0.03229281
192	0x3d11dc56	0.03561052
193	0x3d1df2e1	0.038561705
194	0x3d13e37c	0.036105618
195	0x3d04ea95	0.032450277
196	0x3cf67e01	0.03008938
197	0x3cb2895a	0.02179401
198	0xbce5c098	-0.028045937
199	0x3d0b0a8f	0.033945616
200	0x3d2257a2	0.039634354
201	0xbbba9a1b	-0.0056946403
202	0xbc39a259	-0.011330211
203	0xbd2543a2	-0.040347703
204	0xbd1b0359	-0.03784499
205	0xbcb43a69	-0.022000508
206	0x3c20afad	0.009807509
207	0xbd119fa2	-0.03555263
208	0xbcf4b159	-0.029869722
209	0x3d0211c2	0.031755216
210	0x3d13dd7c	0.036099896
211	0x3d0effba	0.03491185
212	0x3cfee79c	0.0311163
213	0xbcfbe456	-0.030748527
214	0xbd2e34bc	-0.04253076
215	0x3d1d2ab1	0.03837079
216	0x3d189845	0.03725459
217	0x3d172a72	0.036905713
218	0xbd2d9d86	-0.042386554
219	0xbd22a131	-0.039704505
220	0x3d13000f	0.035888728
221	0x3cf1ba83	0.029507881
222	0xbd01722c	-0.031603023
223	0xbd2688f3	-0.04065795
224	0x3c3fa91a	0.011698032
225	0x3d0ec128	0.034852177
226	0xbd130542	-0.035893686
227	0xbd1548fc	-0.036446556
228	0xbd3e9069	-0.04652444
229	0xbd0e59fc	-0.034753785
230	0x3d0e53cf	0.034747895
231	0x3b04961e	0.0020231078
232	0xbce3ff01	-0.027831556
233	0xbc8645ae	-0.016390648
234	0xbd07d39c	-0.03316079
235	0xbcf7a9bf	-0.030232308
236	0x3d0357ad	0.032066036
237	0x3d08fcb7	0.033444133
238	0x3d176130	0.03695792
239	0x3d05c2c0	0.03265643
240	0x3d06d779	0.032920334
241	0xbd02ddec	-0.031949922
242	0xbcc53076	-0.02407096
243	0xbd071b72	-0.03298516
244	0x3d10a4c3	0.03531338
245	0xbd0ba754	-0.034095123
246	0xbcbf301f	-0.023338376
247	0x398209f1	0.0002480294
248	0xbbca7e67	-0.006179619
249	0xbd0ee4f1	-0.034886304
250	0x3d0c5588	0.034261256
251	0xbd2530f5	-0.040329892
252	0x3cfe20ea	0.031021554
253	0xbcbeb016	-0.023277324
254	0xbd1a62fe	-0.037692063
255	0x3cfb698d	0.030689979

network_body._body_endoder.seq_layers.2.weight f4 [256, 256]
0	0xbcd11b5e	-0.025525745
1	0xbca156f7	-0.019694788
2	0xbcb9dca1	-0.022688212
3	0x3e07762e	0.13228676
4	0xbd9c8cdb	-0.076440535
5	0xbc44efb8	-0.012020044
6	0xbd532186	-0.051545642
7	0xbc843e6b	-0.016143044
8	0x3d84f833	0.06492653
9	0x3ce8f2fc	0.028436176
10	0xbd4f2385	-0.050570983
11	0x3d12b3fb	0.035816174
12	0x3c97711f	0.018486558
13	0x3e0b80a0	0.13623285
14	0x3d2108e1	0.03931511
15	0x3d5ed6f2	0.054404207
16	0xbb50ae14	-0.003184204
17	0x3d1f13c5	0.038837213
18	0x3d80e3f2	0.06293477
19	0xbcc220dc	-0.02369731
20	0x3ca18c9b	0.019720366
21	0xbe108834	-0.14114457
22	0x3c39ee85	0.011348371
23	0xbcfc7601	-0.030817987
24	0x3dbdb2bd	0.09262607
25	0xbe00571a	-0.12533227
26	0x3dacf332	0.08444823
27	0xbd632d3f	-0.055463072
28	0x3b8b40bc	0.0042496603
29	0xbd8b29af	-0.0679506
30	0xbda035f8	-0.07822794
31	0x3d7f8588	0.062383205
32	0xbc4d278f	-0.012521639
33	0x3b303aed	0.0026890591
34	0xbcf586f9	-0.029971587
35	0xbc0a55af	-0.00844328
36	0x3d200d56	0.03907522
37	0xbc871dab	-0.016493639
38	0xbca2e316	-0.019883674
39	0x3e1b701f	0.1517949
40	0x3ddbfcb8	0.10741562
41	0x3dd680a0	0.10473752
42	0x3c212b0d	0.009836924
43	0x3dcb20aa	0.099183396
44	0xbd29eec4	-0.04148747
45	0x3ba64e4a	0.0050752508
46	0x3d2fd27f	0.042925354
47	0x3c82b92b	0.015957436
48	0xbd9e4160	-0.07727313
49	0x3b879c5a	0.0041385116
50	0xbd15ca3d	-0.036569823
51	0x3d0f9342	0.035052545
52	0x3d1f1af4	0.038844064
53	0xbdb71a40	-0.08940554
54	0x3d9b61c8	0.0758701
55	0x3b2519af	0.002519231
56	0x3d998937	0.07496875
57	0x3bd22b48	0.006413851
58	0xbd4a2de8	-0.049360186
59	0xbc157284	-0.009121541
60	0xbc0d1eca	-0.008613298
61	0x3c448299	0.0119940275
62	0xbdd9afe9	-0.10629255
63	0xbc88ae7c	-0.016684763
64	0xbe02d8ed	-0.12778063
65	0x3cd8627b	0.026414147
66	0xbc5e3fc0	-0.013565004
67	0xbc685e65	-0.014182662
68	0xbd380fe0	-0.044937015
69	0xbd9cc8a5	-0.076554574
70	0xbdb08205	-0.08618549
71	0xbcd20d12	-0.025640998
72	0x3dfd5446	0.123695895
73	0xbc1afeb4	-0.00946014
74	0x3d9058b5	0.070481695
75	0xbdbceb15	-0.09224526
76	0xbdb58162	-0.088625684
77	0xbe281cca	-0.16417232
78	0x3df2a0e7	0.11847096
79	0x3d9370f2	0.07199277
80	0x3df0ec07	0.11763769
81	0xbab040e4	-0.0013447073
82	0xbdb20a27	-0.08693343
83	0xbdf79881	-0.12089635
84	0x3d3c8696	0.04602679
85	0xbd183ac5	-0.037165422
86	0x3dc5b657	0.09653919
87	0xbd0c1a5f	-0.034204837
88	0xbd8c1a07	-0.06840902
89	0xbd32d496	-0.04365977
90	0x3de2c0eb	0.110719524
91	0xbd06d86a	-0.032921232
92	0x3d080244	0.033205286
93	0xbde844c2	-0.113412395
94	0xbd091f9e	-0.033477418
95	0xbc0917e1	-0.00836751
96	0xbd60cb19	-0.05488119
97	0xbdfc608e	-0.12323104
98	0x3d507872	0.050896116
99	0x3c0dc1ce	0.008652164
100	0x3c060db2	0.008181976
101	0xbcfb9657	-0.030711336
102	0xbd5c1d79	-0.053739045
103	0x3be59357	0.0070060897
104	0xbdb9c881	-0.09071446
105	0x3d3b6410	0.045749724
106	0x3e12292e	0.14273521
107	0xbe070439	-0.13185205
108	0x3cec00ab	0.028808912
109	0xbbe85e6f	-0.0070913355
110	0x3d4869fc	0.0489292
111	0xbca76f7e	-0.020438906
112	0x3db9e07b	0.090760194
113	0xbe2ca5b8	-0.16860092
114	0xbd2151b9	-0.039384577
115	0xbdd815af	-0.10551011
116	0x3c7670ff	0.015041589
117	0xbca75e57	-0.020430727
118	0x3c484fab	0.012226026
119	0xbd5d8ee2	-0.05409134
120	0xbab888c9	-0.0014078851
121	0xbccae55f	-0.024767576
122	0xbd0fa16e	-0.03506606
123	0xbcf2dfe7	-0.02964778
124	0xbc22de63	-0.009940716
125	0x3c2d2973	0.010568964
126	0xbe254d73	-0.16142826
127	0x3b2d6683	0.0026458807
128	0xbdae7dc2	-0.0852008
129	0xbccf1f8d	-0.0252836
130	0x3c30a117	0.010780594
131	0x3cb4dd57	0.0220782
132	0xbbd2348b	-0.006414955
133	0xbdae1f5e	-0.085020766
134	0x3d0e4a2f	0.034738716
135	0xbbfd9170	-0.0077382848
136	0xbe04becd	-0.1296341
137	0xbda73ac2	-0.08165504
138	0x3c82057a	0.015871752
139	0xbd7dc196	-0.061952196
140	0x3d87a790	0.06623757
141	0xbdad4f0f	-0.08462345
142	0x3d6291ad	0.05531471
143	0xbd534bb9	-0.051585887
144	0x3be77dba	0.0070645483
145	0x3bd5f014	0.0065288637
146	0xbd9940fa	-0.074830964
147	0xbdb67b83	-0.08910277
148	0xbd0d527c	-0.03450249
149	0xbd9f7be7	-0.07787304
150	0xbd9152ee	-0.07095896
151	0xbde8b1d7	-0.11362045
152	0x3dc57698	0.096417606
153	0x3c41ef91	0.011836902
154	0x3db40c3c	0.08791396
155	0xbd85a46b	-0.06525501
156	0xbcd4f174	-0.02599404
157	0x3ce9e241	0.02855027
158	0xbdbd048d	-0.092293836
159	0xbe0ff2ea	-0.14057508
160	0xbd1dfae9	-0.038569365
161	0x3cf3e1db	0.029770782
162	0xbd5e5595	-0.054280836
163	0x3d901742	0.07035686
164	0x3e0d7480	0.13813972
165	0xbd6ee223	-0.05832113
166	0xbcd6aefc	-0.026206486
167	0x3c7d0d82	0.015445115
168	0xbc466577	-0.012109152
169	0xbd8657bc	-0.06559703
170	0x3b6125c8	0.0034354795
171	0xbda51561	-0.08060718
172	0xbdb69edf	-0.08917021
173	0xbe217ca4	-0.15770203
174	0xbc2fc059	-0.010727012
175	0xbcf75c49	-0.030195372
176	0x3ccc7f5b	0.024963072
177	0x3c408b97	0.011752031
178	0xbd4037d3	-0.046928238
179	0xbc71ab7d	-0.014750359
180	0xbd684746	-0.056708597
181	0xbdd286da	-0.10279627
182	0xbdba39cd	-0.09093056
183	0xbd817b10	-0.063223004
184	0x3d2abca1	0.041683797
185	0x3c00489c	0.007829811
186	0xbd8293bd	-0.06375835
187	0xbc8c811f	-0.017151413
188	0x3dedd335	0.1161255
189	0x3affec20	0.0019525327
190	0xbcae6a42	-0.021290902
191	0xbce227ff	-0.027606962
192	0xbd19f9ab	-0.037591618
193	0xbcb13d2e	-0.021635618
194	0xbe00d535	-0.12581332
195	0xbc82a25d	-0.015946561
196	0xbd77e646	-0.06052234
197	0x3d586ec6	0.052840017
198	0xbc1c3f64	-0.009536598
199	0xbd12e2e9	-0.03586093
200	0xbe1124b9	-0.14174165
201	0xbc86cccf	-0.016455082
202	0xb9255959	-0.00015768911
203	0xbcaeae7a	-0.021323431
204	0xbd7f5dec	-0.06234543
205	0x3c91839b	0.01776295
206	0xbd399d11	-0.045315806
207	0xbd36c17b	-0.04461811
208	0xbdc5d99c	-0.09660646
209	0xbcb12a49	-0.021626608
210	0xbbb27d22	-0.005447046
211	0x3d38c071	0.0451054
212	0x3c094480	0.008378148
213	0xbd537516	-0.051625334
214	0xbe206d2b	-0.15666644
215	0xbdbb6fa1	-0.09152151
216	0xbe2b9469	-0.16755833
217	0x3d5f4ae3	0.054514777
218	0x3d6582bb	0.056032877
219	0x3d31b0c8	0.043381482
220	0x3d8a554c	0.0675455
221	0xbd15b31f	-0.036547776
222	0xbc8bdd32	-0.017073248
223	0x3ce62ad5	0.028096596
224	0xbd9c4e07	-0.0763207
225	0xbcc53636	-0.024073701
226	0x3dd01245	0.10159735
227	0xbd3cbb12	-0.04607684
228	0xbd1c28b3	-0.03812475
229	0x3dbb1281	0.09134389
230	0x3da8bd66	0.0823925
231	0x3d5f52e6	0.054522417
232	0x3c176f4e	0.009242846
233	0xbdbc71d9	-0.09201402
234	0xbb35fdf5	-0.0027769778
235	0xbd7f5a0e	-0.062341742
236	0x3d24f9fb	0.040277462
237	0xbd2856f5	-0.041098554
238	0x3db53fab	0.08850034
239	0xbc860cf1	-0.016363593
240	0x3d9fdbc6	0.0780559
241	0xbce3c261	-0.027802648
242	0x3c9bf05a	0.019035507
243	0x3dd4292f	0.10359418
244	0xbc043f9e	-0.008071808
245	0xbc8a96b7	-0.01691757
246	0xbd6ef4cc	-0.058338925
247	0x3c90e104	0.01768542
248	0xbde0f4b1	-0.10984171
249	0x3d636b93	0.055522513
250	0x3da7fcfb	0.08202549
251	0x3c731dc4	0.01483864
252	0xbd96e263	-0.073673986
253	0x3db81279	0.089878984
254	0x3d453cf2	0.048153825
255	0xbd1fd3c9	-0.039020333
