Assets/NN/21_12from19_12.onnx (onnx, 631889 bytes, 11 tensors)

72 f4 [341]
0.00028184513 0.22344635 0.023126902 0.008898882 0.087446675 0.00028184513 0.11121803 0.3480313
0.00028184513 0.49192682 0.4750064 0.00028184513 0.13502017 0.023126902 0.0059587266 0.07882655
0.00028184513 0.11561987 0.47089717 0.020566678 0.49107498 0.47462094 0.00028184513 0.19012858
0.023126902 0.006669478 0.07946901 0.00028184513 0.10044187 0.46021447 0.0074702925 0.49710527
0.47671896 0.00028184513 0.094466105 0.023126902 0.008529773 0.069688365 0.00028184513 0.11499722
0.4938306 0.029076435 0.46912137 0.45546523 0.00028184513 0.10123799 0.023126902 0.0041993493
0.069808744 0.00028184513 0.0915256 0.49508372 0.03184896 0.47699723 0.45687157 0.00028184513
0.10297276 0.023126902 0.008930049 0.06256299 0.00028184513 0.11329546 0.45675978 0.053145718
0.1860655 0.18471426 0.00028184513 0.042529218 0.023126902 0.0038126907 0.059822194 0.00028184513
0.06917735 0.49504313 0.43165755 0.19745536 0.19181523 0.00028184513 0.08937953 0.023126902
0.007163257 0.05971359 0.00028184513 0.115481876 0.4488194 0.053145718 0.12992805 0.13209957
0.00028184513 0.031083705 0.023126902 0.002520888 0.058733866 0.00028184513 0.06990929 0.4842591
0.43165755 0.13300058 0.13283159 0.00028184513 0.07833461 0.023126902 0.004035363 0.055899862
0.00028184513 0.12176689 0.45370856 0.053145718 0.10617954 0.11088884 0.00028184513 0.018865215
0.023126902 0.00028184513 0.060716502 0.00028184513 0.081534974 0.4844391 0.43165755 0.108405836
0.11127314 0.00028184513 0.07024536 0.023126902 0.0024245104 0.055620708 0.00028184513 0.119353645
0.458648 0.053145718 0.093408234 0.10180038 0.00028184513 0.014772199 0.023126902 0.00028184513
0.056183584 0.00028184513 0.09269138 0.47971436 0.43165755 0.094257884 0.10037856 0.00028184513
0.06393856 0.023126902 0.026025355 0.055549193 0.00028184513 0.15763648 0.46373275 0.053145718
0.11111593 0.13232638 0.00028184513 0.0144818425 0.023126902 0.0050965506 0.053884692 0.00028184513
0.10808823 0.47691968 0.43165755 0.097268045 0.10494012 0.03656241 0.05382158 0.25263488
0.0605547 0.055549186 0.00028184513 0.11130822 0.48302332 0.05246477 0.09218319 0.09414178
0.045359608 0.013461905 0.2922004 0.12878224 0.053884692 0.00028184513 0.06994844 0.49692523
0.43139073 0.09209831 0.09268609 0.062367436 0.039323088 0.32675228 0.11274159 0.055549186
0.00028184513 0.11733284 0.49328277 0.051304787 0.09193405 0.09375886 0.065267645 0.008768197
0.33400255 0.1499664 0.053884692 0.00028184513 0.072316155 0.49700662 0.4312671 0.09193405
0.0938847 0.066700496 0.035762887 0.33684808 0.12509611 0.055549186 0.00028184513 0.12066992
0.496424 0.050838567 0.09193405 0.0934042 0.06805783 0.009393666 0.34109518 0.15259656
0.053884692 0.00028184513 0.075941235 0.49378148 0.43112564 0.09193405 0.094112076 0.0709589
0.03289171 0.3432533 0.13926627 0.055533618 0.00028184513 0.12428128 0.49923685 0.050330464
0.09193405 0.09324102 0.069464676 0.019827817 0.34447458 0.15597004 0.053884692 0.00028184513
0.07961125 0.4798775 0.43064475 0.09193405 0.09483003 0.07209888 0.029485427 0.34943104
00000000: 9dc4 9339 1fcf 643e a174 bd3c 9ecc 113c
00000010: 3e17 b33d 9dc4 9339 47c6 e33d 2931 b23e
00000020: 9dc4 9339 d5dd fb3e 0a34 f33e 9dc4 9339
00000030: ba42 0a3e a174 bd3c 6c41 c33b d06f a13d
00000040: 9dc4 9339 1cca ec3d 6f19 f13e 737b a83c
00000050: 2e6e fb3e 8401 f33e 9dc4 9339 11b1 423e
00000060: a174 bd3c a38b da3b a6c0 a23d 9dc4 9339
00000070: 78b4 cd3d 3ba1 eb3e 5bc9 f43b 9584 fe3e
00000080: 8214 f43e 9dc4 9339 7277 c13d a174 bd3c
00000090: 76c0 0b3c c6b8 8e3d 9dc4 9339 aa83 eb3d
000000a0: 5dd7 fc3e b431 ee3c ad30 f03e bd32 e93e
000000b0: 9dc4 9339 dd55 cf3d a174 bd3c b29a 893b
000000c0: e3f7 8e3d 9dc4 9339 c671 bb3d 9d7b fd3e
000000d0: 0e74 023d fb38 f43e 12eb e93e 9dc4 9339
000000e0: 62e3 d23d a174 bd3c 574f 123c 0621 803d
000000f0: 9dc4 9339 7307 e83d 6bdc e93e 53af 593d
00000100: f487 3e3e bc25 3d3e 9dc4 9339 1e33 2e3d
00000110: a174 bd3c 56de 793b 1e08 753d 9dc4 9339
00000120: dbac 8d3d 4b76 fd3e 3802 dd3e bd31 4a3e
00000130: 366b 443e 9dc4 9339 9d0c b73d a174 bd3c
00000140: c1b9 ea3b 3d96 743d 9dc4 9339 c381 ec3d
00000150: a8cb e53e 53af 593d dc0b 053e 1c45 073e
00000160: 9dc4 9339 41a3 fe3c a174 bd3c 7c35 253b
00000170: ec92 703d 9dc4 9339 9a2c 8f3d cff0 f73e
00000180: 3802 dd3e 4e31 083e 0105 083e 9dc4 9339
00000190: e56d a03d a174 bd3c 143b 843b 41f7 643d
000001a0: 9dc4 9339 eb60 f93d 7d4c e83e 53af 593d
000001b0: a974 d93d b019 e33d 9dc4 9339 398b 9a3c
000001c0: a174 bd3c 9dc4 9339 deb1 783d 9dc4 9339
000001d0: cffb a63d 6708 f83e 3802 dd3e e103 de3d
000001e0: 2ce3 e33d 9dc4 9339 cddc 8f3d a174 bd3c
000001f0: 89e4 1e3b 8ad2 633d 9dc4 9339 af6f f43d
00000200: e9d3 ea3e 53af 593d d14c bf3d b87c d03d
00000210: 9dc4 9339 1807 723c a174 bd3c 9dc4 9339
00000220: c220 663d 9dc4 9339 fad4 bd3d 1f9d f53e
00000230: 3802 dd3e 470a c13d 4693 cd3d 9dc4 9339
00000240: 38f2 823d a174 bd3c 2033 d53c 8d87 633d
00000250: 9dc4 9339 756b 213e 616e ed3e 53af 593d
00000260: c090 e33d 9180 073e 9dc4 9339 4045 6d3c
00000270: a174 bd3c f700 a73b 32b6 5c3d 9dc4 9339
00000280: 5d5d dd3d d12e f43e 3802 dd3e 7834 c73d
00000290: d8ea d63d 77c2 153d 0474 5c3d 5c59 813e
000002a0: 3508 783d 8b87 633d 9dc4 9339 90f5 e33d
000002b0: d54e f73e 4ce5 563d 8aca bc3d 68cd c03d
000002c0: ffca 393d 528f 5c3c 4a9b 953e 7edf 033e
000002d0: 32b6 5c3d 9dc4 9339 2141 8f3d fc6c fe3e
000002e0: 3fdf dc3e 0a9e bc3d 34d2 bd3d ff74 7f3d
000002f0: 3f11 213d 134c a73e 10e5 e63d 8b87 633d
00000300: 9dc4 9339 334c f03d 8f8f fc3e f824 523d
00000310: eb47 bc3d a504 c03d 0bab 853d 7ca8 0f3c
00000320: 6202 ab3e cb90 193e 32b6 5c3d 9dc4 9339
00000330: 7e1a 943d a777 fe3e 0bcf dc3e eb47 bc3d
00000340: 9f46 c03d 459a 883d 1b7c 123d 5a77 ac3e
00000350: 3219 003e 8b87 633d 9dc4 9339 cb21 f73d
00000360: 492b fe3e 1a3c 503d eb47 bc3d b44a bf3d
00000370: e761 8b3d e4e7 193c 07a4 ae3e 4642 1c3e
00000380: 32b6 5c3d 9dc4 9339 1487 9b3d edd0 fc3e
00000390: 80bc dc3e eb47 bc3d d5bd c03d e652 913d
000003a0: 75b9 063d e6be af3e d19b 0e3e 3877 633d
000003b0: 9dc4 9339 2f87 fe3d f99b ff3e 5127 4e3d
000003c0: eb47 bc3d 26f5 be3d 7f43 8e3d f26d a23c
000003d0: f95e b03e 9cb6 1f3e 32b6 5c3d 9dc4 9339
000003e0: 390b a33d 81b2 f53e 787d dc3e eb47 bc3d
000003f0: 3f36 c23d 94a8 933d 6c8b f13c a0e8 b23e

75 f4 [8]
75.727974 5.3546715 0.00028184513 3.1080756 77.301346 4.8871555 0.00028184513 3.2457597
00000000: b974 9742 7859 ab40 9dc4 9339 b6ea 4640
00000010: 4a9a 9a42 9463 9c40 9dc4 9339 87ba 4f40

action_model._continuous_distribution.mu.weight f4 [1, 256]
-0.04016367 -0.013675157 0.056215234 -0.03758513 0.03906398 0.05166394 0.04626416 0.029015161
0.03523791 0.023048794 -0.028896619 -0.030834805 0.02136628 0.030539019 0.02510761 0.035801124
-0.048876572 0.02014174 0.013943089 0.036711127 -0.037415035 -0.029799256 -0.04099997 -0.024352562
-0.0010211192 -0.040451568 0.035768047 0.0299573 0.031955525 0.041720636 0.035618328 0.037894793
0.05755047 0.03866987 -0.039906554 -0.037567854 0.027171291 0.04330369 0.0049194675 0.01660145
0.045574874 -0.0370705 0.0456148 0.039733298 -0.051031653 -0.047352694 0.04176196 -0.048302032
0.030031396 0.03570278 -0.041886248 0.037320983 0.02533652 -0.028331129 0.04142451 -0.031740993
-0.07420979 0.034610298 -0.058614336 0.0019261095 0.034286134 0.03371312 -0.035755377 -0.03960475
0.0114167575 -0.036447223 -0.03383471 -0.06639412 -0.030726096 -0.0409134 0.028391398 0.037905175
0.064994685 -0.0248606 0.031898987 0.04417306 -0.034479506 -0.031662334 0.027188547 -0.032683577
-0.05202502 0.02967453 -0.0484155 0.026673954 0.05609483 0.023589808 0.030475315 0.032934643
-0.04672477 0.04210838 -0.033428095 0.015498904 0.03548706 0.05228753 -0.057161476 -0.03648077
0.037698362 -0.04028789 -0.048391473 -0.06193383 -0.03409896 0.022438336 -0.048555803 0.012955746
-0.049117632 0.017650323 -0.04776743 -0.01472145 0.032698948 0.036173046 0.052608646 -0.035225254
0.03486644 0.046466418 -0.043093376 0.028435439 0.024732461 -0.041499916 -0.045741063 -0.044889037
-0.030836413 -0.03467872 0.030861964 0.014769077 0.04686193 0.014535773 -0.015682058 0.033281956
-0.0042016776 0.016309561 -0.049746208 0.021856824 0.020693637 0.041249514 0.04131559 0.023936324
-0.026084043 0.018408883 0.038750205 0.026172495 -0.050891884 0.04815968 -0.035874955 0.049125403
-0.046404816 0.039828036 0.025954677 -0.035997435 0.03359582 -0.04956241 -0.017885873 0.01595118
-0.030056726 -0.0033255843 0.028865855 0.01067749 0.06436731 0.030890169 -0.04874954 0.046519946
0.04009279 -0.029228302 -0.04868073 -0.037582073 0.040909953 -0.040921334 0.032681074 0.041451577
-0.034199104 0.03660405 0.043776967 0.049534358 0.0326942 -0.022094555 -0.023568012 0.026688308
0.04867816 0.026127318 0.035682894 0.02111886 0.0549188 0.014443354 -0.033365652 0.033864852
0.02688704 0.04137594 0.03060871 0.034565993 -0.039583698 -0.039491124 0.03300466 -0.0489052
0.04238349 0.04429059 0.050834976 0.018023575 0.025720943 0.014099587 -0.038352694 0.024227709
0.03819092 -0.031069942 -0.022168279 -0.06641328 -0.033413906 -0.027237253 0.012382829 -0.033106714
-0.01452956 0.03411266 0.047955416 0.024390083 0.030113956 -0.048614185 -0.033220325 0.02803547
0.029617915 0.029905412 -0.049706504 -0.029869864 0.02350207 0.019677276 -0.033571 -0.03918244
0.00459973 0.03528591 -0.04123825 -0.032232042 -0.033591565 -0.031040613 0.029627327 -0.0036789037
-0.04159377 -0.021694237 -0.047777947 -0.046965703 0.030760165 0.025515024 0.038460314 0.044789366
0.04226429 -0.045879755 -0.035949793 -0.041316412 0.028208273 -0.04797342 -0.034309592 -0.0018625107
-0.009444436 -0.032986008 0.032223877 -0.03896925 0.0536313 -0.043450903 -0.033874176 0.026525376
00000000: a982 24bd c40d 60bc f241 663d def2 19bd
00000010: 8d01 203d 919d 533d 7d7f 3d3d 34b1 ed3c
00000020: a055 103d d3d0 bc3c 9ab8 ecbc 4699 fcbc
00000030: 5608 af3c f72c fa3c 79ae cd3c 33a4 123d
00000040: cd32 48bd 4a00 a53c 8e71 643c 685e 163d
00000050: 8240 19bd 921d f4bc 96ef 27bd 067f c7bc
00000060: 13d7 85ba 8bb0 25bd 8481 123d 0369 f53c
00000070: cce3 023d 42e3 2a3d 86e4 113d 9237 1b3d
00000080: 0bba 6b3d 4c64 1e3d 0e75 23bd c0e0 19bd
00000090: 5496 de3c 365f 313d 7c33 a13b c4ff 873c
000000a0: b8ac 3a3d 3dd7 17bd 96d6 3a3d 62bf 223d
000000b0: 9106 51bd e6f4 41bd 970e 2b3d 5ad8 45bd
000000c0: 6704 f63c 143d 123d ea90 2bbd e3dd 183d
000000d0: 898e cf3c af16 e8bc bfac 293d d802 02bd
000000e0: 4dfb 97bd 87c3 0d3d 9615 70bd 8375 fc3a
000000f0: 9e6f 0c3d c516 0a3d 3b74 12bd 9738 22bd
00000100: 5a0d 3b3c af49 15bd 4496 0abd a4f9 87bd
00000110: 4bb5 fbbc cf94 27bd 1495 e83c 7542 1b3d
00000120: ef1b 853d 75a8 cbbc 83a8 023d d0ee 343d
00000130: 623a 0dbd 5db0 01bd 84ba de3c 37df 05bd
00000140: 3018 55bd 0018 f33c 554f 46bd 5683 da3c
00000150: b1c3 653d 6a3f c13c 5ea7 f93c 7ae6 063d
00000160: 7962 3fbd d679 2c3d e6eb 08bd 1def 7d3c
00000170: e15a 113d 732b 563d 2722 6abd dc6c 15bd
00000180: 9969 1a3d ea04 25bd 2336 46bd 54ae 7dbd
00000190: 5aab 0bbd 9ad0 b73c 73e2 46bd 5644 543c
000001a0: 922f 49bd 6997 903c c8a7 43bd 3d32 71bc
000001b0: 55ef 053d 302a 143d 2a7c 573d 5b48 10bd
000001c0: 1dd0 0e3d 9253 3e3d ae82 30bd 70f1 e83c
000001d0: bb9b ca3c d1fb 29bd fb5a 3bbd 91dd 37bd
000001e0: a59c fcbc 460b 0ebd 3bd2 fc3c 00fa 713c
000001f0: 4cf2 3f3d 7327 6e3c a977 80bc a952 083d
00000200: 3aae 89bb a19b 853c aec2 4bbd 150d b33c
00000210: b485 a93c 40f5 283d 893a 293d 1c16 c43c
00000220: 34ae d5bc 3ace 963c 89b8 1e3d b367 d63c
00000230: 0274 50bd 1643 453d 9ef1 12bd b837 493d
00000240: fa12 3ebd b922 233d e79e d43c 0c72 13bd
00000250: c59b 093d f401 4bbd 6585 92bc 0dac 823c
00000260: 8639 f6bc 0cf2 59bb 1678 ec3c a4f0 2e3c
00000270: 02d3 833d 610d fd3c 99ad 47bd b38b 3e3d
00000280: 5638 243d 3170 efbc 7265 47bd a9ef 19bd
00000290: 3291 273d 219d 27bd 97dc 053d 21c9 293d
000002a0: 5c14 0cbd 21ee 153d 7a4f 333d 8ae4 4a3d
000002b0: 5aea 053d a4ff b4bc b411 c1bc 70a1 da3c
000002c0: c062 473d f508 d63c 3a28 123d 7601 ad3c
000002d0: 89f2 603d d1a3 6c3c 6caa 08bd dfb5 0a3d
000002e0: 3642 dc3c d179 293d 1ebf fa3c 1295 0d3d
000002f0: 8422 22bd 72c1 21bd e52f 073d d250 48bd
00000300: 4f9a 2d3d 0d6a 353d 5638 503d 2da6 933c
00000310: bab4 d23c f401 673c b717 1dbd 3079 c63c
00000320: 156e 1c3d 6486 febc 409a b5bc b003 88bd
00000330: 05dd 08bd a920 dfbc 59e1 4a3c e89a 07bd
00000340: 640d 6ebc b7b9 0b3d e66c 443d b6cd c73c
00000350: 8bb1 f63c ab1f 47bd 0912 08bd a4aa e53c
00000360: 45a1 f23c 32fc f43c 0c99 4bbd a5b1 f4bc
00000370: 6a87 c03c 3d32 a13c bf81 09bd c47d 20bd
00000380: 55b9 963b f587 103d 70e9 28bd bf05 04bd
00000390: 4f97 09bd e248 febc 02b5 f23c c319 71bb
000003a0: 3b5e 2abd 1db8 b1bc cfb2 43bd 1c5f 40bd
000003b0: befc fb3c e204 d13c 9088 1d3d 0e75 373d
000003c0: 521d 2d3d 69ec 3bbd 1740 13bd 663b 29bd
000003d0: 0915 e73c c77f 44bd 3788 0cbd 7d1f f4ba
000003e0: d6bc 1abc 561c 07bd 2ffd 033d 389e 1fbd
000003f0: 7eac 5b3d 93f9 31bd a6bf 0abd bf4b d93c

action_model._discrete_distribution.branches.0.bias f4 [3]
-0.00032886464 0.00059911865 0.003566918
00000000: 776b acb9 2c0e 1d3a f4c2 693b

action_model._discrete_distribution.branches.0.weight f4 [3, 256]
-0.0076071774 -0.1246862 -0.010397776 0.0018248905 -0.039467357 0.033766743 -0.005402591 -0.014167606
0.007179384 -0.049858555 -0.011181452 0.010892155 -0.044827122 -0.032822892 -0.047708053 0.0027966409
-0.006239847 0.0743011 -0.00263858 0.026753245 -0.009345764 0.0020908753 -0.0063175363 -0.001738762
0.075526826 -0.02019269 -0.010200741 -0.0008135527 0.016083553 0.011388874 0.0046864585 -0.014559772
0.0018289683 0.036740176 0.00747774 0.0051701064 0.030504692 -0.03462511 0.07186794 -0.018174104
-0.0012391459 -0.012336315 0.01411325 0.002971043 -0.009582519 -0.005996676 -0.023499066 -0.011765463
-0.006114257 -0.014232107 0.0015757325 -0.012907543 -0.008387041 -0.03477793 -0.009380003 0.00026636
-0.0042699156 0.027284121 0.004947515 0.067134924 0.017590286 0.029609978 -0.0027874575 -0.0037153887
0.084373206 -0.0027802945 0.103051215 0.0023546435 0.007766997 0.0023509627 -0.016652321 -0.0010461633
0.016752109 -0.008029563 -0.03327986 0.017542081 -0.000749718 -0.0049928334 -0.032278437 0.0124789635
0.0045910142 -0.024176748 0.00070623116 -0.0048498283 0.048330758 -0.024003627 -0.0147955185 -0.025459081
-0.0071181646 -0.054534417 -0.0135234315 -0.03878051 -0.016857155 0.025815185 0.0049666124 -0.011013033
-0.032161947 0.0076644574 0.009623739 0.0012158568 -0.0063170698 -0.048859715 -0.014685706 -0.06284656
-0.009299097 -0.04306235 8.83051e-05 -0.01711103 0.010068038 0.045747843 -0.02045783 -0.019171631
0.046706144 -0.014955904 -0.004737191 0.030528268 -0.02231868 -0.015406287 0.0028813726 -0.029783709
0.014961839 -0.0047374144 -0.013978572 0.08067907 -0.0021333296 0.0982218 -0.10170202 0.02332842
-0.01898494 -0.029366087 0.0029875105 -0.033507157 -0.045830835 -8.316198e-05 -0.01925028 -0.0036401032
-0.0076694167 -0.03428658 0.0015438371 0.024730623 -0.0055096345 0.03417269 -0.030134354 0.061550952
-0.012306711 -0.004695484 -0.010084839 0.0014337507 -0.012791788 -0.006249384 0.00852953 -0.09216671
-0.015343687 0.06651244 0.00026102408 0.07378846 -0.015388405 -0.01360405 -0.009999767 0.012210014
-0.0080091655 -0.010573808 0.004873595 0.015004381 0.021668173 0.0059930068 0.0025080785 0.0016915416
-6.728617e-05 0.015387627 -0.023831304 0.007571382 -0.029287087 -0.024114281 -0.031722333 -0.033237357
0.008841967 -0.013396021 0.009917896 0.07340473 0.008664949 -0.06638169 -0.0084955655 0.0023592268
-0.04636947 -0.0071317647 0.0051911925 0.009145736 -0.006659604 -0.003501567 0.011433062 -0.0069014137
-0.011704868 0.028211972 -0.0075991447 -0.046972744 -0.01636831 0.06869727 -0.00039212822 0.016873786
0.03366342 -0.12148904 -0.053449936 -0.006531257 -0.009758703 -0.015993856 0.0029021418 0.013931958
-0.019480864 -0.0077101365 0.019411853 -0.07936328 0.056898043 -0.008712621 0.019049738 0.009463929
0.028824678 -0.030346505 -0.00405368 -0.0042268024 -0.035495386 -0.043022405 -0.008127597 -0.0050604204
-0.102757916 -0.023281429 0.011682628 -0.008596069 0.008318096 -0.0010261335 -0.035337187 -0.10411367
0.011595889 -0.032392036 -0.0066742124 -0.006578901 -0.0035437897 -0.0072519486 -0.00473846 -0.006785754
-0.035214145 0.006132551 -0.0013115949 0.0043414333 -0.012699766 0.0010761974 -0.019330164 0.11287271
0.11465509 -0.0006431395 -0.02883388 0.005446031 -0.01046348 -0.0018031319 -0.0030659945 -0.054246843
00000000: a145 f9bb 7a5b ffbd 6f5b 2abc 2a31 ef3a
00000010: 86a8 21bd ff4e 0a3d 3808 b1bb 3f1f 68bc
00000020: 0a41 eb3b 7c38 4cbd 6932 37bc 0275 323c
00000030: a59c 37bd 4c71 06bd 8569 43bd d947 373b
00000040: a177 ccbb 2d2b 983d 07ec 2cbb 9f29 db3c
00000050: fa1e 19bc 1107 093b 5603 cfbb 2ce7 e3ba
00000060: cfad 9a3d 246b a5bc 0221 27bc 9944 55ba
00000070: a8c1 833c 6698 3a3c dd90 993b 1c8c 6ebc
00000080: feb9 ef3a de7c 163d d407 f53b ff69 a93b
00000090: fae4 f93c 0fd3 0dbd 802f 933d dce1 94bc
000000a0: d66a a2ba 411e 4abc 433b 673c d5b5 423b
000000b0: ffff 1cbc c47f c4bb 1d81 c0bc eec3 40bc
000000c0: 1b5a c8bb c92d 69bc cf88 ce3a 297a 53bc
000000d0: cd69 09bc 4d73 0ebd 96ae 19bc 3ca6 8b39
000000e0: a6ea 8bbb f382 df3c c41e a23b 097e 893d
000000f0: 8119 903c a090 f23c c7ad 36bb e17d 73bb
00000100: dccb ac3d 9a35 36bb 840c d33d 5d50 1a3b
00000110: 4b82 fe3b 9c12 1a3b 736a 88bc 6a1f 89ba
00000120: b83b 893c 6e8e 03bc 7650 08bd 69b4 8f3c
00000130: b988 44ba ec9a a3bb 6536 04bd 9174 4c3c
00000140: 3870 963b 510e c6bc 5f22 393a 4feb 9ebb
00000150: 79f6 453d 41a3 c4bc e768 72bc 908f d0bc
00000160: 7e3f e9bb 7b5f 5fbd 6291 5dbc 50d8 1ebd
00000170: 0418 8abc 5e7a d33c f7be a23b 0270 34bc
00000180: 3fbc 03bd 2126 fb3b e3ac 1d3c 625d 9f3a
00000190: 6cff cebb 2021 48bd 519c 70bc b2b5 80bd
000001a0: 3d5b 18bc 2662 30bd 7130 b938 6e2c 8cbc
000001b0: 69f4 243c 1762 3b3d 2e97 a7bc d30d 9dbc
000001c0: f14e 3f3d 9c09 75bc 703a 9bbb 6b16 fa3c
000001d0: aad5 b6bc a76a 7cbc 69d5 3c3b f7fc f3bc
000001e0: 8022 753c 503c 9bbb 6106 65bc 113b a53d
000001f0: 55cf 0bbb 8328 c93d 2649 d0bd 3e1b bf3c
00000200: 4e86 9bbc 2691 f0bc 1cca 433b cd3e 09bd
00000210: 1db9 3bbd 3f67 aeb8 c3b2 9dbc cc8e 6ebb
00000220: bb4f fbbb 1670 0cbd 945a ca3a e097 ca3c
00000230: 2a8a b4bb aaf8 0b3d 52dc f6bc da1c 7c3d
00000240: 16a2 49bc 93dc 99bb e13a 25bc b1ec bb3a
00000250: a694 51bc a2c7 ccbb 71bf 0b3c e6c1 bcbd
00000260: 1664 7bbc ad37 883d 0fda 8839 671e 973d
00000270: a61f 7cbc 85e3 5ebc 10d6 23bc 830c 483c
00000280: e038 03bc c43d 2dbc aeb2 9f3b efd4 753c
00000290: 7481 b13c fc60 c43b 935e 243b b8b6 dd3a
000002a0: fd1b 8db8 631c 7c3c de39 c3bc 5b19 f83b
000002b0: 79eb efbc 508b c5bc 47ef 01bd e523 08bd
000002c0: e6dd 103c fc7a 5bbc ac7e 223c 3855 963d
000002d0: 6ef7 0d3c 20f3 87bd fc30 0bbc 429d 1a3b
000002e0: eaed 3dbd 94b1 e9bb e11a aa3b ffd7 153c
000002f0: cf38 dabb 8c7a 65bb bd51 3b3c 4125 e2bb
00000300: c6c5 3fbc cb1c e73c 3f02 f9bb 7e66 40bd
00000310: d616 86bc 27b1 8c3d 8f96 cdb9 e53a 8a3c
00000320: a7e2 093d 3fcf f8bd 52ee 5abd 2804 d6bb
00000330: f8e2 1fbc 8c05 83bc dc31 3e3b de42 643c
00000340: 5596 9fbc 50a5 fcbb 9b05 9f3c 3789 a2bd
00000350: ec0d 693d 62bf 0ebc 320e 9c3c 980e 1b3c
00000360: bb21 ec3c 3c99 f8bc bcd4 84bb fd80 8abb
00000370: 9c63 11bd 4338 30bd 9d29 05bc e2d1 a5bb
00000380: be72 d2bd b2b8 bebc 7e68 3f3c 87d6 0cbc
00000390: a048 083c 547f 86ba babd 10bd 8c39 d5bd
000003a0: affc 3d3c 83ad 04bd 5ab3 dabb d293 d7bb
000003b0: ed3e 68bb c1a1 edbb 1545 9bbb 085b debb
000003c0: b53c 10bd 91f3 c83b d2e9 abba 9542 8e3b
000003d0: ae12 50bc 310f 8d3a 4b5a 9ebc cf29 e73d
000003e0: 4ad0 ea3d 5c98 28ba 0735 ecbc 9f74 b23b
000003f0: 046f 2bbc 1157 ecba daee 48bb f031 5ebd

network_body._body_endoder.seq_layers.0.bias f4 [256]
0.026649378 0.045262866 0.037564944 0.04104582 0.033931796 0.036604896 0.04403863 0.025946522
0.0425537 0.041426174 -0.052021436 0.033947308 0.032830365 -0.022273151 0.011910931 -0.026878327
0.026925964 0.029018443 -0.022587355 0.038416922 0.012413707 0.037019655 -0.03466434 0.012082005
0.03552327 -0.039581843 0.03714751 0.028475076 0.03216422 0.030424247 0.030534588 -0.03015749
0.032889668 0.04005623 0.030022405 0.035494957 0.03080251 0.041023716 0.03514114 0.04313435
-0.012458378 0.037024222 0.035251815 0.039077878 0.03800493 0.03594789 0.024259374 0.020886704
0.03847734 0.03860588 0.03669327 0.049747754 -0.0109744165 -0.02815471 -0.0096988175 0.03371046
0.0332233 0.018660933 0.03547105 0.034808833 0.031107603 0.048218757 -0.014137832 0.03474469
0.044157505 -0.0041222344 -0.014410841 -0.039498806 0.019557599 -0.0013946659 -0.028255755 0.029509086
0.035164006 0.040968306 -0.040484 0.03343885 0.04287274 0.03617693 -0.044980727 0.03174655
0.038253106 0.040724747 0.03890112 0.039125416 -0.026280869 0.034328483 0.04613782 0.02980645
0.043076914 -0.03131687 0.032506518 0.04323633 0.04032416 0.037724905 0.04333222 0.027585635
0.035132915 0.040739544 0.032490887 0.025471708 -0.013760303 0.03663019 0.032103054 0.03669876
0.035424784 0.02742751 0.033034127 0.038888533 0.03309484 0.02865496 0.01779055 -0.0077991723
0.05716148 0.035141148 0.037649155 0.017587103 0.03602434 0.034912433 0.04537572 0.044134658
-0.0447669 0.00066019327 0.035829313 0.020282915 -0.035601117 0.029457321 0.032425445 0.046743385
0.039366085 0.027312556 0.035051934 0.03770568 -0.037204776 0.048228163 0.032120876 0.043318495
0.04136941 0.04051043 0.033475827 0.035553657 0.035304688 0.03215771 0.025124686 0.03519683
0.030534726 0.03733924 0.037929535 0.038734462 -0.0052013677 -0.0038908178 0.030317692 0.025122525
0.042268015 -0.03828689 -0.018661713 0.02339041 0.036165077 -0.000634962 0.040357336 0.03639052
0.041964486 -0.03656826 -0.037265893 0.039194547 -0.006100695 0.029280681 0.038692113 -0.011317373
0.038694654 0.03308774 -0.038879044 0.030708116 0.035316657 0.030488314 0.039761607 0.026618076
0.03744676 0.04281571 0.029298862 0.004943244 0.037908345 0.045073494 0.042321227 0.033879284
0.04245297 -0.02704454 0.036403324 -0.034353875 0.03522776 0.042130392 0.033485148 0.022779824
0.037038106 0.031784397 0.04518444 0.045920648 0.03686918 0.035303283 0.030986967 -0.019896116
0.040247966 -0.040265497 0.03889683 -0.026824368 -0.03250998 0.036962345 0.037306543 0.04216927
0.046575975 -0.037594836 0.025613355 0.032961495 -0.02434721 -0.021174211 0.030969236 -0.016099697
0.036910333 0.033329435 0.021765646 -0.018893 0.033313315 0.03459319 0.035972446 -0.024528561
0.04083258 0.005394522 0.029173493 0.0326903 0.03462194 0.04013726 -0.010715815 0.038485274
0.034731384 0.034778144 0.046956964 0.03910866 0.028052624 0.042671517 0.03599172 0.037909307
-0.035804864 0.0383407 -0.0366451 0.03167034 -0.0044944244 0.037045922 0.031464554 -0.04129952
0.03716744 0.04157557 0.032540232 0.016271375 0.039854053 -0.049035493 -0.0033505666 0.03914458
00000000: cc4f da3c 8e65 393d b3dd 193d a91f 283d
00000010: 11fc 0a3d 04ef 153d da61 343d cd8d d43c
00000020: ca4c 2e3d 7eae 293d 6e14 55bd 550c 0b3d
00000030: 2279 063d 2f76 b6bc 1126 433c f02f dcbc
00000040: d793 dc3c 16b8 ed3c 1e09 b9bc 105b 1d3d
00000050: dc62 4b3c eca1 173d 32fc 0dbd 9af3 453c
00000060: d980 113d 9220 22bd fd27 183d 9044 e93c
00000070: a1be 033d 453c f93c ac23 fa3c d70c f7bc
00000080: 51b7 063d 0012 243d 8cf1 f53c 2963 113d
00000090: 8c55 fc3c 7c08 283d 28f0 0f3d a5ad 303d
000000a0: 3a1e 4cbc b6a6 173d 3564 103d 2010 203d
000000b0: 0fab 1b3d 183e 133d 98bb c63c 981a ab3c
000000c0: 6a9a 1d3d 3321 1e3d af4b 163d 4dc4 4b3d
000000d0: 0ace 33bc b5a4 e6bc cae7 1ebc fb13 0a3d
000000e0: 2815 083d d0de 983c 174a 113d b593 0e3d
000000f0: 5fd5 fe3c 0881 453d 5ea2 67bc 7350 0e3d
00000100: 80de 343d cf13 87bb 731b 6cbc 80c9 21bd
00000110: 4237 a03c 39cd b6ba 9d78 e7bc 0abd f13c
00000120: 2208 103d 62ce 273d 8dd2 25bd 2df7 083d
00000130: 549b 2f3d 432e 143d b63d 38bd ac08 023d
00000140: 4aaf 1c3d fece 263d c856 1f3d f941 203d
00000150: fa4a d7bc 069c 0c3d 03fb 3c3d a82c f43c
00000160: 6b71 303d 1e46 00bd 8e25 053d 9418 313d
00000170: f22a 253d 6e85 1a3d 207d 313d 45fb e13c
00000180: 88e7 0f3d 82de 263d 2a15 053d 0baa d03c
00000190: e572 61bc 8a09 163d 7e7e 033d 7051 163d
000001a0: 9419 113d a8af e03c cb4e 073d 9549 1f3d
000001b0: 748e 073d cfbd ea3c 7dbd 913c 3390 ffbb
000001c0: 2822 6a3d 2af0 0f3d 0036 1a3d d412 903c
000001d0: 428e 133d 5700 0f3d e4db 393d 8bc6 343d
000001e0: 7f5d 37bd d210 2d3a c2c1 123d 5b28 a63c
000001f0: 7ad2 11bd 7b50 f13c 8bd0 043d fe75 3f3d
00000200: 553e 213d 95be df3c 9e92 0f3d 4571 1a3d
00000210: 0964 18bd e58a 453d 2e91 033d bc6e 313d
00000220: f872 293d 44ee 253d f31d 093d b6a0 113d
00000230: a69b 103d ceb7 033d 49d2 cd3c 8d2a 103d
00000240: f623 fa3c 08f1 183d 005c 1b3d 07a8 1e3d
00000250: 3c70 aabb 17fd 7ebb cf5c f83c c1cd cd3c
00000260: 3a21 2d3d b7d2 1cbd 73e0 98bc 3f9d bf3c
00000270: d521 143d 9473 26ba bc4d 253d 3a0e 153d
00000280: f4e2 2b3d 9ac8 15bd 1fa4 18bd 768a 203d
00000290: 57e8 c7bb 0ade ef3c 9f7b 1e3d 816c 39bc
000002a0: 497e 1e3d 0387 073d a23f 1fbd 968f fb3c
000002b0: 33a8 103d a1c2 f93c 11dd 223d 270e da3c
000002c0: c661 193d 875f 2f3d 2b04 f03c f0fa a13b
000002d0: c845 1b3d fc9e 383d 0659 2d3d 01c5 0a3d
000002e0: 2ae3 2d3d 838c ddbc a71b 153d a6b6 0cbd
000002f0: fc4a 103d eb90 2c3d b927 093d c19c ba3c
00000300: 45b5 173d 5b30 023d 5213 393d 4a17 3c3d
00000310: 2304 173d 2d9a 103d 61d8 fd3c 2efd a2bc
00000320: 0ddb 243d 6fed 24bd 4852 1f3d c7be dbbc
00000330: 2f29 05bd d465 173d bfce 183d afb9 2c3d
00000340: 73c6 3e3d 0bfd 19bd 19d3 d13c a202 073d
00000350: cd73 c7bc 8a75 adbc 32b3 fd3c 83e3 83bc
00000360: 4a2f 173d 7284 083d de4d b23c 7ec5 9abc
00000370: 8b73 083d 97b1 0d3d d857 133d 1ff0 c8bc
00000380: 1040 273d 88c4 b03b 40fd ee3c 44e6 053d
00000390: bccf 0d3d f866 243d 6391 2fbc bca2 1d3d
000003a0: 7f42 0e3d 8773 0e3d f255 403d 6730 203d
000003b0: 9ece e53c 54c8 2e3d 0e6c 133d ca46 1b3d
000003c0: 1fa8 12bd 230b 1d3d 2c19 16bd c2b8 013d
000003d0: f745 93bb 77bd 173d fae0 003d af29 29bd
000003e0: e33c 183d 254b 2a3d e848 053d 8c4b 853c
000003f0: 013e 233d 71d9 48bd 2e95 5bbb 1156 203d

network_body._body_endoder.seq_layers.0.weight f4 [256, 349]
0.012724133 -0.03309865 -0.0610995 -0.029702684 0.02976112 0.060238052 0.04193614 -0.03878963
-0.04550172 0.064525664 0.03677594 0.059427902 0.021347038 -0.07150484 0.050633743 -0.014491889
-0.052475937 -0.0066915895 0.020989005 0.024422 -0.03000595 0.06251848 0.095449716 -0.07413114
-0.04585442 0.035407964 -0.036427192 -0.018182458 0.010771328 0.00594087 -0.046039123 -0.018217707
-0.01447339 0.0076033804 0.007334437 -0.012417446 -0.021127084 0.0036804131 -0.13396274 0.047801
0.033463877 -0.09814153 -0.07091176 0.033126734 0.116049096 0.010238578 -0.05979374 -0.027691653
-0.09585122 0.12084174 -0.08294376 -0.06453553 -0.11827205 -0.04405508 -0.003197363 -0.040023964
0.07681461 0.06257281 -0.082607 0.036499187 -0.05878198 0.033206288 -0.013748018 -0.08333823
0.05014687 -0.09610732 -0.057381354 0.025152551 -0.0585214 0.06364352 -0.118564315 0.1020809
-0.019803457 0.007428448 0.019739505 -0.015360621 -0.027782645 0.06651992 0.030198412 0.022376696
-0.06825979 0.007543279 -0.101316705 0.008584241 -0.041990012 -0.10257014 -0.031160472 0.0050869095
-0.053435873 -0.032266058 0.03408834 -0.030556249 0.02113179 -0.043023292 -0.03906197 -0.083251104
0.027385116 0.09848064 0.023196762 0.058105543 0.005585517 0.0064778333 0.034060694 0.09051416
-0.008938073 -0.018353637 -0.014782152 0.0028323806 -0.03196313 0.043018624 0.047433723 -0.020508911
0.04069716 0.06694154 -0.0064357147 0.07400523 0.07897084 -0.04926197 0.06784319 0.0024415348
-0.018070418 0.062990196 0.021948956 0.054174908 -0.0047273072 -0.029421998 -0.033273146 -0.0836368
-0.04610209 -0.15280496 -0.07666367 0.032486893 0.05850266 0.03160461 0.035169955 0.018015882
0.07796502 0.030242654 -0.051601216 -0.0588057 -0.005981794 -0.019803977 -0.026994 -0.006524183
-0.06756437 -0.04886517 -0.03156648 0.098263964 0.008101943 -0.12505224 0.0066471715 -0.0677357
-0.082959466 0.085226044 -0.01805183 0.00043974986 -0.013101637 -0.031228127 -0.07164886 -0.005592724
-0.027123956 0.04590078 0.038533714 -0.010869926 -0.018997436 0.069833316 -0.030749718 -0.08082009
0.07337854 0.017977376 -0.020870201 -0.039140046 0.067019396 -0.11486124 0.04446646 0.042169046
-0.06580953 0.0012077768 0.003519579 -0.04755006 0.009613916 -0.0924038 -0.0033351847 0.02448108
0.0146253705 -0.10248022 -0.007243741 0.0076550455 0.06393849 -0.057069078 -0.034232985 0.07066316
-0.012964356 -0.0041116546 -0.01874927 0.024791028 0.026664652 -0.021885086 0.122456476 0.06137419
-0.092031986 0.010170955 -0.039866682 0.030582918 -0.118873194 -0.02179262 0.08817701 0.034954235
-0.058871523 -0.084891446 -0.07671711 -0.04256463 -0.034833334 0.07016429 0.035307337 -0.019116607
0.035994206 -0.051466107 0.021383777 -0.036956657 -0.051181108 0.004077748 -0.023426525 -0.021936633
0.024212841 0.0666208 -0.047672663 0.039300177 0.013773674 -0.032321792 0.021339184 -0.027232299
0.11142575 -0.03352341 0.054985847 0.010327762 -0.012532558 -0.074490674 0.026554389 0.045304373
-0.04953559 0.0068404656 -0.018114481 -0.0804965 -0.009608339 0.07273454 0.010877817 -0.02556715
0.03840191 0.0644907 0.07978052 -0.13064566 0.07747063 -0.016721692 -0.0692282 -0.010733234
00000000: e278 503c 7392 07bd 7843 7abd 0b53 f3bc
00000010: 98cd f33c 2dbc 763d 3bc5 2b3d e0e1 1ebd
00000020: 0360 3abd 0826 843d 5ea2 163d ac6a 733d
00000030: fcdf ae3c 2171 92bd 5465 4f3d 636f 6dbc
00000040: 02f1 56bd 1f45 dbbb 22f1 ab3c a510 c83c
00000050: 0acf f5bc b009 803d 247b c33d 11d2 97bd
00000060: d8d1 3bbd f107 113d ae34 15bd 61f3 94bc
00000070: 397a 303c a1ab c23b 8593 3cbd 4d3d 95bc
00000080: cc21 6dbc c725 f93b b855 f03b 8b72 4bbc
00000090: b512 adbc 1633 713b 872d 09be fbca 433d
000000a0: 6b11 093d 6dfe c8bd 2f3a 91bd e6af 073d
000000b0: 26ab ed3d b5bf 273c 48ea 74bd 9bd9 e2bc
000000c0: a54d c4bd e07b f73d 6bde a9bd 342b 84bd
000000d0: 9e38 f2bd 1973 34bd da8a 51bb 2bf0 23bd
000000e0: fa50 9d3d 2c26 803d dc2d a9bd 2c80 153d
000000f0: 60c5 70bd 5103 083d 5e3f 61bc 3cad aabd
00000100: ce66 4d3d ead3 c4bd b608 6bbd b90c ce3c
00000110: 23b4 6fbd 8957 823d d9d1 f2bd ca0f d13d
00000120: dc3a a2bc 576a f33b beb4 a13c 1dab 7bbc
00000130: 6e98 e3bc 993b 883d a962 f73c 554f b73c
00000140: cacb 8bbd 9c2d f73b 227f cfbd eba4 0c3c
00000150: b8fd 2bbd 4b10 d2bd 3f44 ffbc 17b0 a63b
00000160: 93df 5abd 6a29 04bd 37a0 0b3d 1951 fabc
00000170: 931c ad3c 3139 30bd 72ff 1fbd 8e7f aabd
00000180: c056 e03c 38b0 c93d 2307 be3c 1400 6e3d
00000190: b606 b73b 0144 d43b 3a83 0b3d 7d5f b93d
000001a0: ff70 12bc 5e5a 96bc d730 72bc 769f 393b
000001b0: c5eb 02bd 4c34 303d dd49 423d 4e02 a8bc
000001c0: 11b2 263d a518 893d b0e2 d2bb 0e90 973d
000001d0: 77bb a13d ebc6 49bd 5ff1 8a3d 2802 203b
000001e0: 6a08 94bc 0101 813d 4cce b33c 82e6 5d3d
000001f0: 87e7 9abb 6706 f1bc 6c49 08bd c549 abbd
00000200: 8cd5 3cbd e778 1cbe d801 9dbd fa10 053d
00000210: 7ca0 6f3d d673 013d 5f0e 103d 0b96 933c
00000220: 20ac 9f3d 71bf f73c cc5b 53bd 3fde 70bd
00000230: ed02 c4bb f33b a2bc 8522 ddbc d0c8 d5bb
00000240: 305f 8abd d826 48bd da4b 01bd 9e3e c93d
00000250: 03be 043c b20d 00be 84d0 d93b 04b9 8abd
00000260: a7e6 a9bd fe8a ae3d 6ee1 93bc 3a8e e639
00000270: 40a8 56bc 21d2 ffbc a3bc 92bd 2b43 b7bb
00000280: 0f33 debc 7502 3c3d 87d5 1d3d c617 32bc
00000290: 83a0 9bbc c504 8f3d d5e6 fbbc 0185 a5bd
000002a0: 7d47 963d 4a45 933c fcf7 aabc 5051 20bd
000002b0: 7741 893d 5f3c ebbd 7622 363d 73b9 2c3d
000002c0: 26c7 86bd 444e 9e3a bda8 663b dac3 42bd
000002d0: b083 1d3c 343e bdbd 1d93 5abb 8c8c c83c
000002e0: 409f 6f3c 26e1 d1bd e75c edbb 2dd7 fa3b
000002f0: 2ff2 823d 44c1 69bd e337 0cbd d9b7 903d
00000300: 7368 54bc 0fbb 86bb 1298 99bc 8e16 cb3c
00000310: d46f da3c 5a48 b3bc 76ca fa3d 8163 7b3d
00000320: 447b bcbd 14a4 263c 3f4b 23bd 0789 fa3c
00000330: ca73 f3bd 7086 b2bc 2696 b43d 2c2c 0f3d
00000340: 4423 71bd 91db adbd dc1d 9dbd 4058 2ebd
00000350: 66ad 0ebd 4cb2 8f3d 6d9e 103d 6e9a 9cbc
00000360: a96e 133d 20ce 52bd 082d af3c dd5f 17bd
00000370: 48a3 51bd a19e 853b fce8 bfbc 74b4 b3bc
00000380: 025a c63c 7c70 883d 6944 43bd 39f9 203d
00000390: faaa 613c db63 04bd 83cf ae3c 4516 dfbc
000003a0: 2f33 e43d d84f 09bd d738 613d c635 293c
000003b0: 5c55 4dbc 918e 98bd 9788 d93c 1491 393d
000003c0: d5e5 4abd fc25 e03b d264 94bc 59db a4bd
000003d0: 4b6c 1dbc d9f5 943d df38 323c 3372 d1bc
000003e0: 524b 1d3d b313 843d f863 a33d fac7 05be
000003f0: eca8 9e3d eefb 88bc 84c7 8dbd 72da 2fbc

network_body._body_endoder.seq_layers.2.bias f4 [256]
-0.031881858 0.00417184 0.032810863 -0.035184193 0.034167342 0.039356876 0.03571949 0.037153658
0.033464376 0.029004289 -0.02793797 -0.036635067 0.0323523 0.03218986 0.04122102 0.03662397
-0.037333317 0.020168846 0.027060345 0.039201476 -0.04211896 -0.032857224 -0.040680785 -0.039061695
-0.009404398 -0.02467446 0.030385213 0.03191086 0.038458556 0.039220564 0.039119527 0.036785986
0.035001412 0.03746476 -0.02947237 -0.044959642 0.033807877 0.031257458 0.024754973 0.03598573
0.03513853 -0.027972601 0.040974937 0.036854815 -0.035618182 -0.0390848 0.034637973 -0.033608817
0.035172913 0.032246213 -0.028663196 0.038148675 0.03447329 -0.020672925 0.033558212 -0.03644448
-0.028988324 0.040337328 -0.03662119 0.0050270017 0.037284013 0.029013917 -0.036504403 -0.03304636
0.028076261 -0.046344306 -0.02363805 -0.029555801 -0.035275593 -0.039323542 0.036696747 0.033344124
0.033218924 -0.03252463 0.03594631 0.038642965 -0.034223773 -0.037654474 0.03219002 -0.03949279
-0.03371661 0.033795778 -0.039049316 0.03848365 0.037443202 0.035259254 0.028699305 0.034635868
-0.034229424 0.035834506 -0.031627983 0.018387768 0.03289697 0.03535691 -0.03889933 -0.024920296
0.030878088 -0.036654297 -0.027284214 -0.03385281 -0.03912356 0.02958308 -0.033021547 0.034501273
-0.032807913 0.0325766 -0.035767075 -0.024747128 0.03626308 0.042795073 0.03642814 -0.03101958
0.035068337 0.033793334 -0.032752372 0.03434397 0.033598877 -0.029674113 -0.02794036 -0.020827256
-0.03490694 -0.039126873 0.035991903 0.029252455 0.0351544 0.035205055 -0.006516871 0.03210205
-0.010339445 0.017071586 -0.044493508 0.035948683 0.033197623 0.03480158 0.03216763 0.03539054
-0.040992316 0.028668378 0.03830547 0.022125151 -0.038092416 0.03983438 -0.024251368 0.048802707
-0.040953625 0.031224295 0.03385069 -0.045630973 0.038751226 -0.03125478 -0.038756665 0.022239849
-0.028005086 -0.008327519 0.035599038 0.009955127 0.036819678 0.037478823 -0.032630544 0.03576001
0.032628898 -0.022455387 -0.03665355 -0.03487337 0.03629879 -0.03734015 0.034785543 0.031001348
-0.03757884 0.034915183 0.027047029 0.03589148 0.03436517 -0.012897772 -0.025369067 0.030642802
0.036977906 0.034812376 0.036277212 0.019029034 0.035378374 0.024573985 -0.03233587 0.032244578
0.03631224 0.034899946 0.030793421 0.034732632 -0.026612367 -0.043171618 0.037057687 -0.035672903
0.035328954 0.038644254 0.035805482 0.031749126 0.03001924 0.022542646 -0.031213751 0.03432275
0.03978893 -0.004126863 -0.0120555395 -0.04084763 -0.037778925 -0.023890013 0.006570284 -0.037721034
-0.034213908 0.031682372 0.03630973 0.035391804 0.03254691 -0.033306662 -0.04129998 0.038511097
0.03778802 0.03653265 -0.04219668 -0.0381237 0.035728674 0.029790504 -0.034465406 -0.041101567
0.01246201 0.034690678 -0.037414163 -0.03811696 -0.04967106 -0.03458905 0.034602385 0.0055225706
-0.030286588 -0.020126462 -0.032760963 -0.0342039 0.031993605 0.03345556 0.036722608 0.032563053
0.032917745 -0.03325582 -0.030060617 -0.03467485 0.035296552 -0.034335207 -0.026183875 0.00054787507
-0.0040130666 -0.037863214 0.034043025 -0.042981736 0.030970374 -0.025188338 -0.040549073 0.031606004
00000000: 8d96 02bd eeb3 883b af64 063d 4d1d 10bd
00000010: 0ef3 0b3d ad34 213d 9a4e 123d 6f2e 183d
00000020: f111 093d 679a ed3c 2bde e4bc a70e 16bd
00000030: d883 043d 84d9 033d 5fd7 283d 0403 163d
00000040: d2ea 18bd 2339 a53c a8ad dd3c ba91 203d
00000050: ee84 2cbd 4c95 06bd e5a0 26bd 28ff 1fbd
00000060: e714 1abc 1822 cabc 69ea f83c f6b4 023d
00000070: b886 1d3d bea5 203d cc3b 203d e7ac 163d
00000080: a45d 0f3d a674 193d 0a70 f1bc 9a27 38bd
00000090: 217a 0a3d d207 003d f1ca ca3c c665 133d
000000a0: 6bed 0f3d cc26 e5bc 56d5 273d 13f5 163d
000000b0: 5fe4 11bd 6217 20bd 8ce0 0d3d 66a9 09bd
000000c0: 7911 103d 9b14 043d 14cf eabc c941 1c3d
000000d0: dd33 0d3d 445a a9bc 5674 093d cf46 15bd
000000e0: ec78 edbc c138 253d 1a00 16bd 8cb9 a43b
000000f0: 1fb7 183d 98ae ed3c a485 15bd 9f5b 07bd
00000100: 3000 e63c 87d3 3dbd 95a4 c1bc 021f f2bc
00000110: 247d 10bd b911 21bd 544f 163d d993 083d
00000120: 9110 083d 8c38 05bd 703c 133d 1648 1e3d
00000130: 3a2e 0cbd 943b 1abd afd9 033d 31c3 21bd
00000140: 6e1a 0abd 716d 0a3d 2df2 1fbd 08a1 1d3d
00000150: 0b5e 193d 026c 103d ce1a eb3c 57de 0d3d
00000160: 2734 0cbd 34c7 123d 588c 01bd f2a1 963c
00000170: f9be 063d 68d2 103d e754 1fbd a625 ccbc
00000180: 0bf4 fc3c d122 16bd 2583 dfbc 3ea9 0abd
00000190: 0740 20bd 3758 f23c 9a41 07bd 3551 0d3d
000001a0: 9761 06bd 0a6f 053d 7f80 12bd 7dba cabc
000001b0: 9888 143d e349 2f3d ac35 153d c61c febc
000001c0: d1a3 0f3d e16a 0a3d 5a27 06bd 43ac 0c3d
000001d0: fa9e 093d 2017 f3bc 2fe3 e4bc ec9d aabc
000001e0: 94fa 0ebd 8043 20bd 3f6c 133d d8a2 ef3c
000001f0: 0ffe 0f3d 2d33 103d 7a8b d5bb 707d 033d
00000200: c766 29bc b6d9 8b3c d33e 36bd ed3e 133d
00000210: 3bfa 073d 1a8c 0e3d 34c2 033d acf5 103d
00000220: 8fe7 27bd f2d9 ea3c 32e6 1c3d ce3f b53c
00000230: cb06 1cbd 6029 233d ceaa c6bc 59e5 473d
00000240: fdbe 27bd 18ca ff3c 05a7 0a3d 8be7 3abd
00000250: 9bb9 1e3d 0305 00bd 4fbf 1ebd 5830 b63c
00000260: ec6a e5bc 2570 08bc 4cd0 113d d41a 233c
00000270: 3bd0 163d 6583 193d 9ba7 05bd 1779 123d
00000280: e1a5 053d 5cf4 b7bc 0822 16bd 61d7 0ebd
00000290: 0aae 143d fcf1 18bd 497b 0e3d 8af6 fd3c
000002a0: 45ec 19bd 3903 0f3d bb91 dd3c f202 133d
000002b0: 7ec2 0c3d 2d51 53bc cad2 cfbc 9d06 fb3c
000002c0: 2576 173d 6c97 0e3d 6a97 143d c7e2 9b3c
000002d0: eae8 103d 624f c93c 9e72 04bd e412 043d
000002e0: 25bc 143d 3ff3 0e3d 7c42 fc3c ce43 0e3d
000002f0: 2e02 dabc b9d4 30bd cdc9 173d c01d 12bd
00000300: 18b5 103d 7049 1e3d c5a8 123d 5f0b 023d
00000310: e9ea f53c 5bab b83c fbb3 ffbc 0396 0c3d
00000320: b8f9 223d a33a 87bb 9984 45bc d84f 27bd
00000330: 13be 1abd fdb4 c3bc 894b d73b 5f81 1abd
00000340: e223 0cbd 60c5 013d 83b9 143d fff6 103d
00000350: e94f 053d 916c 08bd 2b2a 29bd d0bd 1d3d
00000360: 9cc7 1a3d 43a3 153d 6dd6 2cbd 9927 1cbd
00000370: 3b58 123d 370b f43c 992b 0dbd 1e5a 28bd
00000380: 752d 4c3c d017 0e3d 983f 19bd 8820 1cbd
00000390: e273 4bbd 3fad 0dbd 3bbb 0d3d aef6 b43b
000003a0: 941b f8bc 40e0 a4bc 5c30 06bd 6319 0cbd
000003b0: ba0b 033d b308 093d 726a 163d d660 053d
000003c0: c2d4 063d 4137 08bd af41 f6bc 3707 0ebd
000003d0: 1e93 103d 13a3 0cbd 917f d6bc 469f 0f3a
000003e0: 0b80 83bb 7516 1bbd b370 0b3d 9e0d 30bd
000003f0: 95b5 fd3c c657 cebc c916 26bd 4c75 013d

network_body._body_endoder.seq_layers.2.weight f4 [256, 256]
-0.02774364 -0.020423697 -0.023064949 0.13140424 -0.077487886 -0.012514633 -0.047831435 -0.014481944
0.06265751 0.023767767 -0.051949047 0.030915186 0.016829297 0.13447322 0.035462175 0.05756013
-0.005383574 0.03677931 0.06292388 -0.02764356 0.018378727 -0.14167124 0.0105769085 -0.027879713
0.09121717 -0.1235102 0.08042593 -0.056591615 0.0033606887 -0.0698776 -0.086559296 0.063737944
-0.016380321 0.00086722337 -0.032190714 -0.008758711 0.04465132 -0.017421337 -0.02100498 0.14799201
0.10823444 0.10413067 0.0057356097 0.09522564 -0.04120834 0.0024240764 0.041737262 0.019333499
-0.080673136 0.004377163 -0.039665513 0.033894982 0.034703173 -0.08846506 0.07586907 -0.0028518918
0.0727231 0.008829506 -0.053602282 -0.008928512 -0.011809344 0.00963039 -0.107162684 -0.017698668
-0.12813227 0.025422813 -0.009141341 -0.012563248 -0.05135769 -0.07815018 -0.086548045 -0.02873012
0.11977531 -0.010462173 0.06926115 -0.09399253 -0.085694246 -0.1674375 0.11610216 0.06960059
0.116453536 -0.0020633498 -0.090895094 -0.1217501 0.04524275 -0.03816923 0.09683555 -0.03681005
-0.070322536 -0.044789657 0.1115452 -0.032013156 0.030236684 -0.11582774 -0.032958645 -0.008492856
-0.0572208 -0.122696094 0.04707104 0.0019777184 0.0100582205 -0.032829437 -0.05585697 0.002893515
-0.09246275 0.044007618 0.14178167 -0.13586207 0.028126782 -0.0084072435 0.045778602 -0.021862665
0.09483077 -0.1673055 -0.03829855 -0.101239726 0.01508531 -0.022164984 0.011106358 -0.051259268
0.00081562693 -0.026232643 -0.03865462 -0.030883232 -0.011037877 0.008600667 -0.16112879 -4.5867404e-05
-0.08630588 -0.027809436 0.00688307 0.022828333 -0.006739217 -0.0892447 0.032673035 -0.0062960633
-0.12809388 -0.085434146 0.012893946 -0.062887296 0.061587654 -0.084095426 0.050564412 -0.056914214
0.0038083082 0.004840465 -0.074787445 -0.09204028 -0.037303068 -0.074817315 -0.07202471 -0.113088936
0.0924985 0.012329417 0.081403464 -0.06278678 -0.026290733 0.025430763 -0.09404816 -0.14498273
-0.039858244 0.03351609 -0.051948283 0.072982274 0.13508967 -0.06147714 -0.027177183 0.011383844
-0.013881611 -0.06609935 0.0053255945 -0.08286154 -0.08835709 -0.15953687 -0.0076553603 -0.029923864
0.024145706 0.007725203 -0.04720797 -0.015176249 -0.06250163 -0.09517835 -0.09570768 -0.06562624
0.03546762 0.009936482 -0.06582846 -0.017575635 0.11254197 0.0003213264 -0.023603885 -0.03155629
-0.038629025 -0.020392336 -0.124676906 -0.018217724 -0.058255885 0.05318065 -0.013406848 -0.027807798
-0.14170936 -0.016200263 -0.0057159574 -0.017905364 -0.058664043 0.0185048 -0.0475508 -0.043263637
-0.09569254 -0.020936668 -0.005673387 0.043801267 0.012344748 -0.054029077 -0.15533112 -0.09255312
-0.16767652 0.051941898 0.05695887 0.0400871 0.06491617 -0.03748805 -0.020757472 0.024559274
-0.07762646 -0.02580372 0.09849482 -0.048369326 -0.04053073 0.09237138 0.08078213 0.05336194
0.012821651 -0.095839426 -0.005891839 -0.06912743 0.039742086 -0.041540544 0.08640524 -0.020216124
0.07393411 -0.027481947 0.024104415 0.1017852 -0.009290897 -0.019077597 -0.060548075 0.021102963
-0.10858513 0.051354606 0.081250615 0.013242693 -0.07535191 0.09381393 0.04910902 -0.039747793
00000000: a146 e3bc 994f a7bc b4f2 bcbc d58e 063e
00000010: f8b1 9ebd 2d0a 4dbc e5ea 43bd ad45 6dbc
00000020: 9552 803d 9fb4 c23c 86c8 54bd d841 fd3c
00000030: 98dd 893c 59b3 093e c940 113d 2cc4 6b3d
00000040: b168 b0bb e7a5 163d 3cde 803d bf74 e2bc
00000050: fc8e 963c 4412 11be c54a 2d3c ff63 e4bc
00000060: 11d0 ba3d eaf2 fcbd 5ab6 a43d 9ccc 67bd
00000070: 003f 5c3b fd1b 8fbd 0046 b1bd 0a89 823d
00000080: 0630 86bc 6056 633a 69da 03bd b280 0fbc
00000090: 4de4 363d 31b7 8ebc a312 acbc 388b 173e
000000a0: 05aa dd3d 7642 d53d c8f1 bb3b a905 c33d
000000b0: 14ca 28bd 41dd 1e3b b1f4 2a3d 4961 9e3c
000000c0: f537 a5bd 4e6e 8f3b 4e78 22bd 77d5 0a3d
000000d0: ea24 0e3d 2b2d b5bd 3e61 9b3d cee6 3abb
000000e0: d9ef 943d a2a9 103c 118e 5bbd e548 12bc
000000f0: fb7b 41bc c9c8 1d3c 1c78 dbbd ccfc 90bc
00000100: 1b35 03be 8143 d03c 90c5 15bc 15d6 4dbc
00000110: 715c 52bd 340d a0bd 1a40 b1bd 6e5b ebbc
00000120: c24c f53d 8969 2bbc cad8 8d3d 287f c0bd
00000130: 7780 afbd bc74 2bbe f8c6 ed3d c18a 8e3d
00000140: 317f ee3d 4439 07bb 3527 babd 1e58 f9bd
00000150: 7650 393d 5757 1cbd b851 c63d 23c6 16bd
00000160: 4305 90bd 5c75 37bd cf71 e43d 3a20 03bd
00000170: ecb2 f73c 1837 edbd a5ff 06bd 9f25 0bbc
00000180: 5c60 6abd 1748 fbbd 90cd 403d 9c9c 013b
00000190: 3ccb 243c 2978 06bd 47ca 64bd 20a1 3d3b
000001a0: 1c5d bdbd 5541 343d 372f 113e 6d1f 0bbe
000001b0: 236a e63c 89be 09bc 5882 3b3d 5519 b3bc
000001c0: a236 c23d 2252 2bbe f1de 1cbd c656 cfbd
000001d0: 6028 773c 5793 b5bc 71f7 353c 3df5 51bd
000001e0: cccf 553a d7e5 d6bc 4f54 1ebd d5fe fcbc
000001f0: 36d8 34bc d0e9 0c3c f2fe 24be c061 40b8
00000200: 23c1 b0bd 9dd0 e3bc 608b e13b 7c02 bb3c
00000210: a6d4 dcbb edc5 b6bd 29d4 053d 354f cebb
00000220: 0b2b 03be 19f8 aebd 2141 533c 0ecb 80bd
00000230: 5643 7c3d 393a acbd a11c 4f3d e11e 69bd
00000240: cf94 793b c39c 9e3b 292a 99bd 9d7f bcbd
00000250: 1acb 18bd d239 99bd b181 93bd 2c9b e7bd
00000260: db6f bd3d 5301 4a3c dcb6 a63d 5b96 80bd
00000270: aa5f d7bc 2d54 d03c 529c c0bd 5a76 14be
00000280: 6642 23bd 2b48 093d b9c7 54bd bb77 953d
00000290: f254 0a3e 74cf 7bbd afa2 debc 4d83 3a3c
000002a0: b26f 63bc 195f 87bd 5382 ae3b 50b3 a9bd
000002b0: 90f4 b4bd a25d 23be d1d9 fabb e422 f5bc
000002c0: 37cd c53c b323 fd3b 255d 41bd cda5 78bc
000002d0: db00 80bd deec c2bd 6302 c4bd 0d67 86bd
000002e0: 7f46 113d a0cc 223c 12d1 86bd c7fa 8fbc
000002f0: 687c e63d b377 a839 ef5c c1bc 2b41 01bd
00000300: 7839 1ebd d40d a7bc 9b56 ffbd 563d 95bc
00000310: b99d 6ebd f4d3 593d 65a8 5bbc 2ecd e3bc
00000320: 421c 11be 6ab6 84bc ed4c bbbb 45ae 92bc
00000330: b549 70bd 6197 973c a1c4 42bd 3635 31bd
00000340: 73fa c3bd 6083 abbc d2e7 b9bb f568 333d
00000350: a041 4a3c 984d 5dbd 1f0f 1fbe 7d8c bdbd
00000360: 65b3 2bbe 07c1 543d b44d 693d 5f32 243d
00000370: c5f2 843d 128d 19bd 930b aabc 8830 c93c
00000380: 9ffa 9ebd 5362 d3bc a7b7 c93d ea1e 46bd
00000390: 8d03 26bd 352d bd3d 1a71 a53d 0d92 5a3d
000003a0: e711 523c 7647 c4bd 5410 c1bb af92 8dbd
000003b0: 99c8 223d 6b26 2abd 3bf5 b03d 499c a5bc
000003c0: c46a 973d d221 e1bc 9f76 c53c c274 d03d
000003d0: d938 18bc 9f48 9cbc 4201 78bd 1fe0 ac3c
000003e0: e161 debd 3559 523d b966 a63d e1f7 583c
000003f0: 1a52 9abd 8521 c03d 8a26 493d 95ce 22bd
