Assets/NN/22_12from21_12-2.onnx (onnx, 631889 bytes, 11 tensors)

72 f4 [341]
0	0x398c1f02	0.00026725983
1	0x3e634566	0.22194442
2	0x3cdd14ca	0.026987452
3	0x3c19df94	0.009391684
4	0x3db54a07	0.0885201
5	0x398c1f02	0.00026725983
6	0x3df1110c	0.117708296
7	0x3eb16a9a	0.34651643
8	0x398c1f02	0.00026725983
9	0x3efaab89	0.48958996
10	0x3ef1f090	0.47253847
11	0x398c1f02	0.00026725983
12	0x3e0b96ce	0.13631746
13	0x3cdd14ca	0.026987452
14	0x3bce1f94	0.0062903855
15	0x3da32082	0.07965185
16	0x398c1f02	0.00026725983
17	0x3df99e23	0.12188365
18	0x3ef20731	0.47271112
19	0x3c9fc36d	0.019502366
20	0x3efba525	0.49149433
21	0x3ef2db7c	0.47433078
22	0x398c1f02	0.00026725983
23	0x3e45957b	0.19295304
24	0x3cdd14ca	0.026987452
25	0x3be85b45	0.0070909583
26	0x3da46231	0.08026541
27	0x398c1f02	0.00026725983
28	0x3dd8d861	0.10588146
29	0x3eec982d	0.4620985
30	0x3be81e77	0.00708371
31	0x3efecb4a	0.49764472
32	0x3ef41647	0.47673246
33	0x398c1f02	0.00026725983
34	0x3dc7f360	0.09763217
35	0x3cdd14ca	0.026987452
36	0x3c13e6ea	0.009027222
37	0x3d8fab5b	0.07015105
38	0x398c1f02	0.00026725983
39	0x3df908b7	0.12159865
40	0x3efd9cea	0.49533778
41	0x3ce1de26	0.027571749
42	0x3eefa7c8	0.46807694
43	0x3ee8588b	0.45380053
44	0x398c1f02	0.00026725983
45	0x3dd50ad3	0.10402455
46	0x3cdd14ca	0.026987452
47	0x3b8fe65a	0.0043914737
48	0x3d8fd9b7	0.07023948
49	0x398c1f02	0.00026725983
50	0x3dc759bd	0.09733913
51	0x3efe35ff	0.4965057
52	0x3cf7fbfe	0.030271526
53	0x3ef433e1	0.4769583
54	0x3ee99d8c	0.4562801
55	0x398c1f02	0.00026725983
56	0x3dda7c55	0.10668246
57	0x3cdd14ca	0.026987452
58	0x3c1bab2e	0.009501262
59	0x3d809ff2	0.06280507
60	0x398c1f02	0.00026725983
61	0x3df4f428	0.119606316
62	0x3ee8966a	0.45427257
63	0x3d4e6b79	0.050395463
64	0x3e41ac77	0.18913446
65	0x3e4035d4	0.18770534
66	0x398c1f02	0.00026725983
67	0x3d37116c	0.04469435
68	0x3cdd14ca	0.026987452
69	0x3b83f1d2	0.00402663
70	0x3d755f82	0.059905536
71	0x398c1f02	0.00026725983
72	0x3d93e9f0	0.072223544
73	0x3efcb7ba	0.49358922
74	0x3edb1cda	0.4279545
75	0x3e4f5ac5	0.2024947
76	0x3e4936ac	0.19649762
77	0x398c1f02	0.00026725983
78	0x3dbdabf5	0.09261314
79	0x3cdd14ca	0.026987452
80	0x3bf827b2	0.0075730914
81	0x3d74edc6	0.05979707
82	0x398c1f02	0.00026725983
83	0x3df9def9	0.12200732
84	0x3ee42e59	0.4456661
85	0x3d4e6b79	0.050395463
86	0x3e066fe6	0.13128623
87	0x3e08d926	0.13364086
88	0x398c1f02	0.00026725983
89	0x3d059d1e	0.03262054
90	0x3cdd14ca	0.026987452
91	0x3b329e80	0.0027255118
92	0x3d70b89f	0.05876982
93	0x398c1f02	0.00026725983
94	0x3d967943	0.073473476
95	0x3ef6b706	0.4818651
96	0x3edb1cda	0.4279545
97	0x3e09b3e9	0.13447537
98	0x3e0998af	0.1343715
99	0x398c1f02	0.00026725983
100	0x3da69382	0.08133604
101	0x3cdd14ca	0.026987452
102	0x3b895b02	0.004191757
103	0x3d64dbaf	0.05587357
104	0x398c1f02	0.00026725983
105	0x3e0491c6	0.12946233
106	0x3ee6f836	0.45111245
107	0x3d4e6b79	0.050395463
108	0x3dda9afb	0.106740914
109	0x3de54c65	0.11196212
110	0x398c1f02	0.00026725983
111	0x3ca29130	0.019844621
112	0x3cdd14ca	0.026987452
113	0x398c1f02	0.00026725983
114	0x3d793dee	0.060850076
115	0x398c1f02	0.00026725983
116	0x3db05b24	0.08611134
117	0x3ef6e6d0	0.4822297
118	0x3edb1cda	0.4279545
119	0x3ddf6d95	0.10909573
120	0x3de5a2d5	0.11212698
121	0x398c1f02	0.00026725983
122	0x3d964711	0.073377736
123	0x3cdd14ca	0.026987452
124	0x3b20872d	0.0024494634
125	0x3d63a0f7	0.05557343
126	0x398c1f02	0.00026725983
127	0x3e01fa06	0.12693033
128	0x3ee9a487	0.45633337
129	0x3d4e6b79	0.050395463
130	0x3dbfb025	0.09359769
131	0x3dd30a66	0.10304718
132	0x398c1f02	0.00026725983
133	0x3c845fe6	0.01615901
134	0x3cdd14ca	0.026987452
135	0x398c1f02	0.00026725983
136	0x3d6624b4	0.056187347
137	0x398c1f02	0.00026725983
138	0x3dc83214	0.09775177
139	0x3ef5293e	0.47883028
140	0x3edb1cda	0.4279545
141	0x3dc17fb8	0.094481885
142	0x3dce3463	0.10068586
143	0x398c1f02	0.00026725983
144	0x3d899cda	0.0671937
145	0x3cdd14ca	0.026987452
146	0x3ce07881	0.02740121
147	0x3d634f65	0.05549564
148	0x398c1f02	0.00026725983
149	0x3e2aaa38	0.16666496
150	0x3eec88b5	0.4619805
151	0x3d4e6b79	0.050395463
152	0x3de944e6	0.113900945
153	0x3e0b943f	0.1363077
154	0x398c1f02	0.00026725983
155	0x3c8134d8	0.015772268
156	0x3cdd14ca	0.026987452
157	0x3bb4c017	0.005516063
158	0x3d5c5c99	0.053799246
159	0x398c1f02	0.00026725983
160	0x3de42039	0.111389585
161	0x3ef45130	0.4771819
162	0x3edb1cda	0.4279545
163	0x3dc6eb29	0.09712822
164	0x3dd712aa	0.10501607
165	0x3d1a89ed	0.037729193
166	0x3d66d471	0.056354944
167	0x3e83f362	0.25771624
168	0x3d8419d9	0.064502425
169	0x3d634e0d	0.055494357
170	0x398c1f02	0.00026725983
171	0x3df213f4	0.11820212
172	0x3ef6e345	0.48220268
173	0x3d4bc665	0.04974975
174	0x3dbd20f6	0.092348024
175	0x3dc16949	0.0944391
176	0x3d3f5117	0.046708193
177	0x3c69072d	0.014222902
178	0x3e9819dc	0.2970723
179	0x3e080725	0.13283975
180	0x3d5c5c99	0.053799246
181	0x398c1f02	0.00026725983
182	0x3d975b38	0.073904455
183	0x3efea31a	0.49733812
184	0x3edafb43	0.42769822
185	0x3dbce82b	0.0922397
186	0x3dbe5035	0.09292642
187	0x3d839970	0.0642575
188	0x3d26b291	0.040697638
189	0x3ea9336d	0.33047047
190	0x3df2ba54	0.118519455
191	0x3d634e0d	0.055494357
192	0x398c1f02	0.00026725983
193	0x3dff00b4	0.12451306
194	0x3efc5f12	0.49291283
195	0x3d474503	0.0486498
196	0x3dbc8af1	0.092061885
197	0x3dc0af08	0.094083846
198	0x3d899eba	0.06719728
199	0x3c122300	0.008919477
200	0x3ead603d	0.33862486
201	0x3e1fefe4	0.15618855
202	0x3d5c5c99	0.053799246
203	0x398c1f02	0.00026725983
204	0x3d9cae61	0.07650448
205	0x3efe9afd	0.49727622
206	0x3edaec3c	0.42758358
207	0x3dbc8af1	0.092061885
208	0x3dc0ade2	0.094081655
209	0x3d8cf8fc	0.068834275
210	0x3d165a3a	0.03670714
211	0x3eae3523	0.34024915
212	0x3e066a5b	0.13126509
213	0x3d634e0d	0.055494357
214	0x398c1f02	0.00026725983
215	0x3e0352a6	0.12824497
216	0x3efe1c87	0.4963114
217	0x3d457571	0.048207704
218	0x3dbc8af1	0.092061885
219	0x3dbfcc48	0.093651354
220	0x3d8f87ea	0.070083454
221	0x3c1dbef3	0.009628045
222	0x3eb0d7d4	0.34539664
223	0x3e22ce8b	0.15899102
224	0x3d5c5c99	0.053799246
225	0x398c1f02	0.00026725983
226	0x3da47ecb	0.08031996
227	0x3efce716	0.49395055
228	0x3edadb30	0.42745352
229	0x3dbc8af1	0.092061885
230	0x3dc12736	0.09431307
231	0x3d95c909	0.07313735
232	0x3d08ea9b	0.033426862
233	0x3eb19717	0.34685585
234	0x3e143174	0.1447199
235	0x3d633d5b	0.055478435
236	0x398c1f02	0.00026725983
237	0x3e0740cd	0.13208313
238	0x3eff9cc6	0.49924296
239	0x3d437c3c	0.0477259
240	0x3dbc8af1	0.092061885
241	0x3dbf7a2d	0.09349475
242	0x3d9287b5	0.0715479
243	0x3ca88773	0.0205724
244	0x3eb28521	0.34867194
245	0x3e26644a	0.16249195
246	0x3d5c5c99	0.053799246
247	0x398c1f02	0.00026725983
248	0x3dac79f4	0.08421698
249	0x3ef614d0	0.48062754
250	0x3edaa0e3	0.42700872
251	0x3dbc8af1	0.092061885
252	0x3dc2a180	0.0950346
253	0x3d982ea2	0.074307695
254	0x3cf66247	0.03007616
255	0x3eb51807	0.35369894

75 f4 [8]
0	0x429b2c2c	77.58627
1	0x40aae64d	5.340613
2	0x398c1f02	0.00026725983
3	0x404b2f05	3.1747448
4	0x429dbc5a	78.867874
5	0x409d7273	4.920221
6	0x398c1f02	0.00026725983
7	0x4052d8b1	3.2944758

action_model._continuous_distribution.mu.weight f4 [1, 256]
0	0xbd2023fa	-0.03909681
1	0xbc8015c6	-0.015635382
2	0x3d5d736c	0.054065153
3	0xbd10549f	-0.03523695
4	0x3d1e01ad	0.038575817
5	0x3d5cf9af	0.053949054
6	0x3d449c83	0.048000824
7	0x3cedd1fe	0.029030796
8	0x3d11355d	0.03545128
9	0x3caa993c	0.020825021
10	0xbce73cd7	-0.028227253
11	0xbcf453e7	-0.029825164
12	0x3ca9bc76	0.020719748
13	0x3cf0ef79	0.029411064
14	0x3cc599fe	0.02412128
15	0x3d12a5b1	0.035802547
16	0xbd480928	-0.048836857
17	0x3ca060e0	0.019577444
18	0x3c5d5e8d	0.013511312
19	0x3d16f350	0.036853135
20	0xbd142a8e	-0.036173396
21	0xbcec2d9b	-0.02883034
22	0xbd227d7b	-0.03967045
23	0xbcc2ed76	-0.02379487
24	0xbb65346c	-0.0034973873
25	0xbd1bec8b	-0.03806738
26	0x3d0e8f23	0.034804475
27	0x3ce43d6a	0.027861316
28	0x3d006a43	0.03135134
29	0x3d2f4274	0.042787984
30	0x3d11d372	0.03560204
31	0x3d1910bd	0.03736948
32	0x3d6c9977	0.057763543
33	0x3d1bfbc3	0.038081896
34	0xbd1f7218	-0.038927168
35	0xbd14d1df	-0.03633296
36	0x3ccf48d9	0.025303291
37	0x3d2c3b91	0.042048994
38	0x3b9076c5	0.0044086897
39	0x3c9924d7	0.018694324
40	0x3d3b23a3	0.045688283
41	0xbd11044f	-0.0354045
42	0x3d37efe6	0.04490652
43	0x3d1eba55	0.03875192
44	0xbd478710	-0.04871279
45	0xbd3bdb3d	-0.04586338
46	0x3d276492	0.040867396
47	0xbd4045f0	-0.046941698
48	0x3cec3d13	0.028837716
49	0x3d135c9c	0.03597699
50	0xbd29ff17	-0.04150304
51	0x3d1cf971	0.038323823
52	0x3cc208d2	0.023685846
53	0xbcf80c48	-0.030279294
54	0x3d279531	0.040913764
55	0xbd01a8e3	-0.031655204
56	0xbd94e2b4	-0.07269803
57	0x3d08d741	0.033408407
58	0xbd67da79	-0.056604836
59	0xbbbcbe10	-0.005759962
60	0x3d0d7514	0.034535483
61	0x3d0fb952	0.035088845
62	0xbd0b5743	-0.034018766
63	0xbd1d17db	-0.03835283
64	0x3c235d18	0.009970926
65	0xbd0e01d5	-0.034669716
66	0xbd160d8d	-0.036634017
67	0xbd866c27	-0.06563597
68	0xbcea6dd3	-0.028616821
69	0xbd1ec042	-0.03875757
70	0x3ce4c434	0.027925588
71	0x3d196bd1	0.037456337
72	0x3d861b65	0.06548194
73	0xbcc418c2	-0.023937587
74	0x3cfbeab9	0.030751573
75	0x3d3e02e3	0.04638947
76	0xbd063983	-0.03276969
77	0xbcfec21a	-0.031098414
78	0x3cd5432c	0.026033007
79	0xbcfcd43c	-0.03086292
80	0xbd4fb432	-0.050708957
81	0x3cf5ff0c	0.030028842
82	0xbd40bd91	-0.047055785
83	0x3cd4ee9b	0.025992682
84	0x3d65adfe	0.056074135
85	0x3cc2531a	0.023721267
86	0x3d040930	0.032235324
87	0x3d058b04	0.03260328
88	0xbd390131	-0.04516715
89	0x3d23ab73	0.03995843
90	0xbd06b534	-0.032887653
91	0x3c69c921	0.014269144
92	0x3d0951a7	0.033525135
93	0x3d549034	0.051895335
94	0xbd66b588	-0.056325465
95	0xbd152ff7	-0.036422696
96	0x3d1ad624	0.037801877
97	0xbd1d2036	-0.038360797
98	0xbd410e77	-0.047132935
99	0xbd779728	-0.06044689
100	0xbd074e39	-0.033033583
101	0x3ca6f1b0	0.020378917
102	0xbd4186d1	-0.04724771
103	0x3c1a1cdf	0.0094062975
104	0xbd428d35	-0.047497947
105	0x3c80a94a	0.015705723
106	0xbd3cea10	-0.046121657
107	0xbc5f0ad7	-0.013613424
108	0x3d04b512	0.032399245
109	0x3d186ad9	0.037211273
110	0x3d5abb05	0.053401012
111	0xbd0db30a	-0.034594573
112	0x3d11d61b	0.035604578
113	0x3d3b46f8	0.045721978
114	0xbd2c2935	-0.042031486
115	0x3cec74c6	0.028864276
116	0x3cc7ddbd	0.024397725
117	0xbd23ccd7	-0.039990272
118	0xbd37d2b8	-0.04487869
119	0xbd3be045	-0.045868177
120	0xbcfbaa03	-0.030720716
121	0xbd0a9b3b	-0.033839446
122	0x3cf692e8	0.030099347
123	0x3c755fc3	0.014976445
124	0x3d3d0353	0.04614575
125	0x3c4cd89d	0.0125028165
126	0xbc98403c	-0.018585317
127	0x3d086d42	0.03330732
128	0xbc0f4223	-0.008743796
129	0x3c6c161f	0.014409571
130	0xbd45276d	-0.048133302
131	0x3ca568e5	0.02019162
132	0x3c9b1876	0.018932562
133	0x3d2713bc	0.040790305
134	0x3d2cfbf4	0.04223247
135	0x3cb2ea03	0.021840101
136	0xbcd15f26	-0.025558066
137	0x3c959a4d	0.018262053
138	0x3d21b6e4	0.03948106
139	0x3cf481d6	0.029847067
140	0xbd4c6279	-0.0498986
141	0x3d45d876	0.048302136
142	0xbd0fea99	-0.03513584
143	0x3d4c78d3	0.049919914
144	0xbd3907c7	-0.045173433
145	0x3d2045a6	0.039128922
146	0x3cd402f4	0.025880314
147	0xbd10b854	-0.03533204
148	0x3d082385	0.033237
149	0xbd471b9b	-0.04861031
150	0xbc819907	-0.01582004
151	0x3c610343	0.013733688
152	0xbcede733	-0.029040908
153	0xbb675a7c	-0.0035301736
154	0x3cecf452	0.028925095
155	0x3c0465a7	0.008080876
156	0x3d8704a2	0.065926805
157	0x3cf948fe	0.030430313
158	0xbd4055ab	-0.0469567
159	0x3d4579cd	0.04821186
160	0x3d20b0de	0.039231174
161	0xbcecbf68	-0.028899863
162	0xbd417fdf	-0.047241088
163	0xbd13f2e8	-0.036120325
164	0x3d2ee075	0.042694528
165	0xbd21d43b	-0.03950904
166	0x3d018ccb	0.03162841
167	0x3d24dad6	0.04024776
168	0xbd06052c	-0.032719776
169	0x3d1e7e76	0.03869482
170	0x3d29d936	0.041466914
171	0x3d480f24	0.048842564
172	0x3d020f9e	0.031753175
173	0xbcbf1371	-0.0233247
174	0xbcb8e100	-0.022568226
175	0x3cd8dd55	0.026472727
176	0x3d46abe7	0.048503783
177	0x3cc50773	0.024051404
178	0x3d0f8f24	0.03504862
179	0x3ca99302	0.020699982
180	0x3d67bc9f	0.056576367
181	0x3c55f4df	0.01305887
182	0xbd032289	-0.032015357
183	0x3d059836	0.032615863
184	0x3cd36c91	0.025808604
185	0x3d274570	0.040837705
186	0x3cfd0c9e	0.030889805
187	0x3d0cab80	0.034343243
188	0xbd1d5a79	-0.03841636
189	0xbd1c64c5	-0.03818204
190	0x3cfeda46	0.03110994
191	0xbd447c06	-0.04796984
192	0x3d2ea2c7	0.042635705
193	0x3d3513f4	0.044208482
194	0x3d53a172	0.051667638
195	0x3c8f60e8	0.017502263
196	0x3cce0628	0.02514942
197	0x3c65ea0d	0.014032853
198	0xbd176a2f	-0.0369665
199	0x3cb35284	0.021889932
200	0x3d1ca3d5	0.03824218
201	0xbd0dd4c3	-0.034626734
202	0xbcce3e97	-0.02517633
203	0xbd8475cd	-0.06467781
204	0xbd037235	-0.03209134
205	0xbcdf88ad	-0.027286852
206	0x3c82e98f	0.01598051
207	0xbd0048c8	-0.03131941
208	0xbc5d8097	-0.013519428
209	0x3d0b0417	0.033939447
210	0x3d434492	0.047672816
211	0x3cb56669	0.02214356
212	0x3cfec2e8	0.031098798
213	0xbd409386	-0.04701569
214	0xbcf8673b	-0.030322662
215	0x3ce081f8	0.027405724
216	0x3cf12af7	0.029439433
217	0x3cf5119b	0.029915622
218	0xbd448fd2	-0.04798872
219	0xbce7cfc6	-0.028297316
220	0x3cc4d071	0.024025174
221	0x3c922eb3	0.017844534
222	0xbd0736e6	-0.03301134
223	0xbd1b85a3	-0.037969243
224	0x3b193c23	0.0023381792
225	0x3d0a1637	0.033712592
226	0xbd2435bc	-0.040090308
227	0xbcf8b8b2	-0.030361507
228	0xbd03713b	-0.032090407
229	0xbcf08bb9	-0.0293635
230	0x3ceae509	0.028673666
231	0xbba5d3da	-0.005060655
232	0xbd2b69d2	-0.041848965
233	0xbca683da	-0.020326544
234	0xbd3af698	-0.045645326
235	0xbd3afd24	-0.04565157
236	0x3cf80088	0.03027369
237	0x3ccc5d7d	0.024946922
238	0x3d1cad9d	0.038251508
239	0x3d2f9716	0.042868696
240	0x3d265235	0.040605742
241	0xbd34fb99	-0.044185255
242	0xbd0dfd03	-0.03466512
243	0xbd22e2a6	-0.03976693
244	0x3cdaa5b3	0.02669034
245	0xbd3cc10a	-0.046082534
246	0xbd0b7234	-0.03404446
247	0xbb8736c9	-0.004126404
248	0xbc12fd27	-0.008971489
249	0xbd024d64	-0.031812087
250	0x3d05a4cb	0.032627862
251	0xbd1a2442	-0.037632234
252	0x3d54a02c	0.051910564
253	0xbd2af4b9	-0.041737292
254	0xbd04c721	-0.032416467
255	0x3cd2456c	0.025667869

action_model._discrete_distribution.branches.0.bias f4 [3]
0	0xba3d67e2	-0.00072252576
1	0x3ab83a20	0.0014055409
2	0x3b534fff	0.0032243726

action_model._discrete_distribution.branches.0.weight f4 [3, 256]
0	0xbc02b83c	-0.007978495
1	0xbe02ec1d	-0.12785383
2	0xbc2f0b45	-0.010683839
3	0x3a6d70b7	0.00090576283
4	0xbd1dfb29	-0.038569603
5	0x3d05b2fc	0.032641396
6	0xbbacd23f	-0.0052740867
7	0xbc494ba9	-0.012286105
8	0x3c044e24	0.008075271
9	0xbd3bf872	-0.045891233
10	0xbc30d4a8	-0.010792889
11	0x3c37f8ac	0.011228722
12	0xbd2ecfbd	-0.042678583
13	0xbd015c0f	-0.031581935
14	0xbd397fc0	-0.045287848
15	0x3affeefb	0.0019526178
16	0xbbcda1a7	-0.006275374
17	0x3d96b1d1	0.073581345
18	0xbb9531a2	-0.004553036
19	0x3ccb842e	0.024843302
20	0xbc0e9f65	-0.008704995
21	0x3ac5cf4d	0.0015091688
22	0xbbd273e4	-0.0064225066
23	0xbb0ce83b	-0.0021500725
24	0x3d951c3d	0.07280777
25	0xbcab294f	-0.02089372
26	0xbc0229d3	-0.007944542
27	0x3ac43fda	0.0014972643
28	0x3c8f957b	0.017527333
29	0x3c4413fc	0.011967655
30	0x3b821113	0.0039693206
31	0xbc83e57c	-0.016100638
32	0x3a2a7ff7	0.00065040536
33	0x3d0d6143	0.034516584
34	0x3bfbb649	0.007681642
35	0x3b9d0172	0.004791432
36	0x3d04987e	0.03237199
37	0xbd0c9f54	-0.034331635
38	0x3d91d586	0.071208045
39	0xbc9d06d6	-0.019168299
40	0xbabc41a8	-0.0014362829
41	0xbc557106	-0.013027435
42	0x3c3eb8b7	0.011640719
43	0x3b3a884d	0.002846259
44	0xbc1b437e	-0.009476541
45	0xbbb2a652	-0.005451956
46	0xbcc0c841	-0.023532989
47	0xbc3c06d7	-0.01147624
48	0xbbce3eb5	-0.0062940964
49	0xbc3eb246	-0.011639183
50	0x3b3b7561	0.0028603899
51	0xbc49ee41	-0.012324871
52	0xbc00967f	-0.007848381
53	0xbd0ca332	-0.034335323
54	0xbbda2be0	-0.0066580623
55	0x3a741d66	0.0009312242
56	0xbb880074	-0.0041504446
57	0x3cdb772e	0.026790228
58	0x3ba70d4d	0.005098021
59	0x3d809368	0.062781155
60	0x3c871e04	0.016493805
61	0x3cdd4c7e	0.027014013
62	0xbb3519fe	-0.00276339
63	0xbb5fced4	-0.0034150379
64	0x3da946c7	0.08265453
65	0xbb20c919	-0.0024533926
66	0x3dcda4d9	0.10041208
67	0x3a885129	0.0010400164
68	0x3c1010bd	0.008793053
69	0x3b496205	0.003072859
70	0xbc8a7bbe	-0.016904708
71	0x3b23befd	0.0024985664
72	0x3c73f4ef	0.01488994
73	0xbc07df4e	-0.008292986
74	0xbd0631ba	-0.032762267
75	0x3c87b21b	0.01656442
76	0xb9d64861	-0.00040871187
77	0xbbd7cdcf	-0.0065858136
78	0xbcfddc38	-0.030988798
79	0x3c529d6b	0.012854914
80	0x3bae52c4	0.005319925
81	0xbcca98ae	-0.024731006
82	0x3a97981c	0.0011565718
83	0xbba793b4	-0.005114043
84	0x3d40db21	0.047083978
85	0xbcbe995a	-0.023266483
86	0xbc885b92	-0.016645227
87	0xbcd38f2d	-0.025825107
88	0xbbe2935a	-0.0069145383
89	0xbd63bf52	-0.05560238
90	0xbc6ab91b	-0.014326359
91	0xbd22964a	-0.039694108
92	0xbc8e7a32	-0.017392252
93	0x3cc3cb12	0.023900542
94	0x3ba352de	0.004984244
95	0xbc3354ec	-0.01094554
96	0xbd025a6e	-0.03182452
97	0x3c038f29	0.0080297375
98	0x3c2e0600	0.010621548
99	0x3acb8197	0.0015526292
100	0xbbcfdf17	-0.006343733
101	0xbd3c3d8b	-0.04595713
102	0xbc6bc778	-0.014390819
103	0xbd859b14	-0.065237194
104	0xbc21f1f5	-0.009884347
105	0xbd26c9f8	-0.040719956
106	0x398d0220	0.000268952
107	0xbc9b9b12	-0.018994842
108	0x3c2c30dc	0.010509696
109	0x3d349c07	0.04409411
110	0xbca85381	-0.02054763
111	0xbca49cd4	-0.020094313
112	0x3d403c2d	0.046932388
113	0xbc5c6b20	-0.013453275
114	0xbb99938d	-0.004686779
115	0x3cf6e9f3	0.030140853
116	0xbc918bb8	-0.017766818
117	0xbc825210	-0.015908271
118	0x3b509f7e	0.0031833346
119	0xbcfe2bab	-0.031026682
120	0x3c69a9b0	0.014261648
121	0xbba4e173	-0.0050317585
122	0xbc584064	-0.013198946
123	0x3da3b61d	0.0799372
124	0xbb005a08	-0.0019584913
125	0x3dc67282	0.096898094
126	0xbdd17f15	-0.10229317
127	0x3cbea5d7	0.023272438
128	0xbcafc927	-0.021458222
129	0xbcd8fd2c	-0.02648791
130	0x3b48c316	0.0030633858
131	0xbd1649e4	-0.03669156
132	0xbd378ec2	-0.04481388
133	0x3a11203a	0.0005536113
134	0xbc86a65c	-0.016436748
135	0xbb88f20e	-0.004179246
136	0xbc160ec8	-0.009158798
137	0xbd11f452	-0.035633393
138	0x39cc91be	0.00039018499
139	0x3ccf9612	0.025340114
140	0xbbabec84	-0.0052467007
141	0x3d0665c5	0.0328119
142	0xbd0685f1	-0.03284258
143	0x3d7534a1	0.059864644
144	0xbc451654	-0.012029249
145	0xbb30d866	-0.0026984452
146	0xbc491f62	-0.012275549
147	0x3ab910f5	0.0014119433
148	0xbc464788	-0.012102015
149	0xbbf6c4a5	-0.007530766
150	0x3c0f2df7	0.008738986
151	0xbdbd0c73	-0.0923089
152	0xbc876fe6	-0.01653285
153	0x3d8968ad	0.067094184
154	0x3a7074da	0.00091726857
155	0x3d94fbe2	0.07274605
156	0xbc79c928	-0.015245713
157	0xbc632640	-0.0138641
158	0xbc229c88	-0.009925015
159	0x3c380b93	0.011233228
160	0xbbee1cc4	-0.0072666127
161	0xbc2c2d48	-0.010508843
162	0x3bc02e17	0.0058648693
163	0x3c827b40	0.01592791
164	0x3ca99ca6	0.020704579
165	0x3bca7b59	0.006179255
166	0xba305069	-0.0006725849
167	0x3b485140	0.0030566007
168	0xb975153f	-0.00023372936
169	0x3c716fa6	0.014736092
170	0xbcafa29b	-0.021439841
171	0x3bc6b2ae	0.0060637807
172	0xbce1a58c	-0.02754476
173	0xbcd76ee1	-0.026297988
174	0xbd06e516	-0.032933317
175	0xbd026f71	-0.03184456
176	0x3c041f75	0.008064141
177	0xbc6011fe	-0.013676165
178	0x3c15c1cf	0.009140446
179	0x3d938d59	0.07204694
180	0x3c060098	0.0081788525
181	0xbd832923	-0.064043306
182	0xbc093855	-0.008375247
183	0x3b588002	0.0033035283
184	0xbd37b2c1	-0.044848207
185	0xbbeb8384	-0.0071873087
186	0x3bb5a44e	0.0055432683
187	0x3c0699ef	0.008215412
188	0xbbc792f9	-0.0060905186
189	0xbb40d06d	-0.0029421106
190	0x3c1fa001	0.009742738
191	0xbbf55af8	-0.007487651
192	0xbc38b5d0	-0.011273816
193	0x3cdb7ad8	0.026791975
194	0xbc24f0fa	-0.010067219
195	0xbd3eb392	-0.04655797
196	0xbc736bf8	-0.014857285
197	0x3d8a32f5	0.067480005
198	0x3a8f44f6	0.0010930586
199	0x3c91636a	0.0177476
200	0x3d0a14bc	0.03371118
201	0xbdfc5b38	-0.12322086
202	0xbd646395	-0.05575903
203	0xbbc1e968	-0.005917717
204	0xbc29bffa	-0.010360712
205	0xbc897263	-0.016778177
206	0x3bd8ee5c	0.0066202115
207	0x3c65dccf	0.014029696
208	0xbcbb2927	-0.022846771
209	0xbbc11991	-0.0058929403
210	0x3c9e45f2	0.019320462
211	0xbda1c909	-0.078996725
212	0x3d688530	0.056767642
213	0xbc148d08	-0.009066828
214	0x3ca579cd	0.02019968
215	0x3c22b467	0.009930707
216	0x3ce8c23d	0.028412933
217	0xbcf4bc4b	-0.029874941
218	0xbb8e0870	-0.004334502
219	0xbb9cd89d	-0.0047865645
220	0xbd00831d	-0.03137504
221	0xbd2628b5	-0.040566165
222	0xbc10b915	-0.0088331895
223	0xbbbc5e67	-0.0057485583
224	0xbdd9cd84	-0.10634902
225	0xbcbb30a6	-0.022850346
226	0x3c458864	0.012056444
227	0xbc03d6c4	-0.00804681
228	0x3c0ba0b1	0.008522199
229	0x3a0710ff	0.0005152374
230	0xbd12da0d	-0.03585248
231	0xbdd1508d	-0.10220442
232	0x3c444b2e	0.011980815
233	0xbd0937f5	-0.03350063
234	0xbbeb48b8	-0.0071802996
235	0xbbe0b75f	-0.006857797
236	0xbacd530b	-0.0015665008
237	0xbc054800	-0.008134842
238	0xbbcbebf4	-0.006223196
239	0xbb6669e3	-0.0035158328
240	0xbd0f9f60	-0.0350641
241	0x3bd7c86c	0.0065851714
242	0xba973823	-0.0011537116
243	0x3b9b1336	0.0047325147
244	0xbc4005eb	-0.011720161
245	0x3abee5fb	0.0014564389
246	0xbc997e6a	-0.018737037
247	0x3de75390	0.11295235
248	0x3ded3771	0.1158284
249	0xb9745338	-0.00023300655
250	0xbce055c8	-0.027384654
251	0x3bb1f76f	0.0054311077
252	0xbc1a2e7c	-0.009410497
253	0xbb2ad0ce	-0.0026064399
254	0xbb0f9ad7	-0.002191236
255	0xbd59121a	-0.05299578

network_body._body_endoder.seq_layers.0.bias f4 [256]
0	0x3cd60fad	0.026130522
1	0x3d328e19	0.043592546
2	0x3d18959d	0.037252057
3	0x3d1fe4ca	0.03903655
4	0x3d0061f0	0.0313434
5	0x3d0eeab0	0.034891784
6	0x3d26841c	0.040653333
7	0x3cc53cd4	0.024076857
8	0x3d30e3e3	0.04318608
9	0x3d27df86	0.040984653
10	0xbd4c4213	-0.0498677
11	0x3d0c737c	0.034289822
12	0x3d01719d	0.03160249
13	0xbc930a8b	-0.017949363
14	0x3c345a70	0.01100789
15	0xbcc35768	-0.02384539
16	0x3cd7bba1	0.026334586
17	0x3cfa823b	0.030579677
18	0xbcc34c17	-0.023839993
19	0x3d19c4f1	0.037541334
20	0x3c51f8ab	0.012815635
21	0x3d1493da	0.036273815
22	0xbd0af7f4	-0.033927873
23	0x3c2d5cb0	0.01058118
24	0x3d0d787d	0.034538735
25	0xbd10da52	-0.035364456
26	0x3d172834	0.036903575
27	0x3ceb00f6	0.028686982
28	0x3d000c7e	0.031261913
29	0x3ce123ca	0.027482886
30	0x3ce7f4c4	0.028314956
31	0xbcdb65e9	-0.026781993
32	0x3cfdee4f	0.030997423
33	0x3d1ad831	0.037803832
34	0x3ce4cbf0	0.027929276
35	0x3d10cb72	0.03535027
36	0x3cf2074f	0.0295445
37	0x3d204879	0.039131615
38	0x3d09b6da	0.033621646
39	0x3d30d9ec	0.043176576
40	0xbc341670	-0.010991678
41	0x3d14a953	0.036294293
42	0x3d0ced6f	0.03440612
43	0x3d176348	0.036959916
44	0x3d2132f5	0.039355237
45	0x3d0a4b57	0.033763256
46	0x3cc8fcc3	0.024534589
47	0x3ca96f83	0.020683056
48	0x3d18b646	0.037283204
49	0x3d25d9d8	0.040490955
50	0x3d14e3ae	0.036349945
51	0x3d4d180a	0.050071754
52	0xbc3febdb	-0.011713947
53	0xbcc63fd1	-0.024200352
54	0xbb36be97	-0.0027884596
55	0x3cf98082	0.030456785
56	0x3cfd5b95	0.030927459
57	0x3c9b6389	0.01896836
58	0x3d065da5	0.03280415
59	0x3d142c15	0.036174852
60	0x3ce92045	0.02845777
61	0x3d42b88a	0.04753927
62	0xbc12c948	-0.008959122
63	0x3d08a9db	0.03336511
64	0x3d30e506	0.043187164
65	0xbb98ba49	-0.004660879
66	0xbc3f5fba	-0.011680538
67	0xbd17cbc0	-0.037059546
68	0x3caa2b5f	0.020772634
69	0x3c006df0	0.007838711
70	0xbcd3d6e9	-0.025859313
71	0x3ce35dd6	0.027754705
72	0x3d077878	0.033073872
73	0x3d3006f5	0.042975385
74	0xbd109c02	-0.03530503
75	0x3d01b829	0.03166977
76	0x3d2883a3	0.041141164
77	0x3d0f1fcc	0.034942433
78	0xbd248e2a	-0.04017464
79	0x3cf0752d	0.029352749
80	0x3d0b80d1	0.034058396
81	0x3d187702	0.03722287
82	0x3d20232a	0.039096035
83	0x3d16330d	0.03666978
84	0xbcbfc67d	-0.023410076
85	0x3d02c938	0.03193018
86	0x3d3f64a1	0.046726827
87	0x3ce66c0f	0.028127698
88	0x3d23b686	0.03996899
89	0xbcde6307	-0.02714683
90	0x3cf9154c	0.030405663
91	0x3d2b378d	0.041801024
92	0x3d1ab752	0.037772484
93	0x3d15ebe5	0.03660192
94	0x3d31d9f5	0.04342075
95	0x3cd96cb9	0.0265411
96	0x3d0b94fe	0.034077637
97	0x3d25103c	0.040298685
98	0x3d0f47eb	0.034980696
99	0x3cf402c9	0.029786484
100	0xbc5c8bea	-0.0134610925
101	0x3d209a43	0.039209615
102	0x3d09e948	0.03366974
103	0x3d178fd0	0.037002385
104	0x3d116b1b	0.035502534
105	0x3ccc9fd9	0.024978565
106	0x3cffad78	0.031210646
107	0x3d18caf2	0.03730292
108	0x3d019007	0.031631496
109	0x3cda7ff2	0.026672337
110	0x3c955b4a	0.018232007
111	0xbbf9e1a9	-0.0076257777
112	0x3d66fd19	0.056393716
113	0x3d0f5f4c	0.03500299
114	0x3d25feed	0.04052632
115	0x3c8e2a86	0.017354261
116	0x3d109c69	0.035305414
117	0x3d0cbda9	0.03436056
118	0x3d25dca2	0.040493615
119	0x3d3219cb	0.04348163
120	0xbd37a06b	-0.04483072
121	0xb9f40756	-0.00046544772
122	0x3d0b4087	0.033997085
123	0x3cbb01f8	0.022828087
124	0xbd03e313	-0.032198977
125	0x3ce17679	0.027522312
126	0x3cfb743e	0.030695077
127	0x3d40c23a	0.04706023
128	0x3d157fb5	0.036498744
129	0x3ccd0748	0.025027886
130	0x3d0e09a3	0.03467716
131	0x3d093fa6	0.033507966
132	0xbd0c729e	-0.034288995
133	0x3d3d426f	0.046205934
134	0x3cf83575	0.030298928
135	0x3d39cf13	0.045363497
136	0x3d271f64	0.04080142
137	0x3d297534	0.04137154
138	0x3d006016	0.031341635
139	0x3d1051f6	0.035234414
140	0x3d0e6fb3	0.034774493
141	0x3d06245b	0.032749515
142	0x3cae6ca5	0.02129204
143	0x3d0d539c	0.034503564
144	0x3cec8650	0.028872639
145	0x3d1655a4	0.036702767
146	0x3d185064	0.03718604
147	0x3d25355e	0.040334098
148	0xbacaa30e	-0.0015459971
149	0xbb7554eb	-0.0037434648
150	0x3cea9d88	0.02863957
151	0x3cc3a73e	0.023883458
152	0x3d2833af	0.041064914
153	0xbd16c085	-0.036804695
154	0xbc848114	-0.01617483
155	0x3ceaa91c	0.02864509
156	0x3d0fb850	0.035087883
157	0xbb06eb80	-0.0020587146
158	0x3d299227	0.041399147
159	0x3d0d6725	0.034522194
160	0x3d29888c	0.041389987
161	0xbd1342ba	-0.035952307
162	0xbd0c5210	-0.03425795
163	0x3d1d585a	0.038414337
164	0x3b2eac5a	0.0026653023
165	0x3cd44011	0.025909455
166	0x3d1a2d06	0.037640594
167	0xbc4d3bdf	-0.012526481
168	0x3d26513f	0.040604826
169	0x3d0371a3	0.032090794
170	0xbd0f96fe	-0.035056107
171	0x3cf8b18f	0.030358104
172	0x3d0d1598	0.03444442
173	0x3cea7ce5	0.028624007
174	0x3d20b5b2	0.03923578
175	0x3cd27ce6	0.025694322
176	0x3d1106eb	0.035406988
177	0x3d271765	0.040793795
178	0x3ce74a02	0.028233532
179	0x3c4c74aa	0.012478987
180	0x3d2919c5	0.04128434
181	0x3d332177	0.043733086
182	0x3d28ed07	0.041241672
183	0x3d00035b	0.0312532
184	0x3d37f915	0.044915278
185	0xbcd1684e	-0.025562432
186	0x3d0a7479	0.033802483
187	0xbcf18415	-0.029481927
188	0x3d0ef7c3	0.034904253
189	0x3d249be9	0.04018775
190	0x3d05f342	0.03270269
191	0x3ccaba70	0.024747103
192	0x3d10cce6	0.035351656
193	0x3cf8c67d	0.030368084
194	0x3d38b482	0.04509402
195	0x3d350aab	0.044199627
196	0x3d189a07	0.037256267
197	0x3d083e0a	0.03326229
198	0x3ced769e	0.028987225
199	0xbca16541	-0.019701602
200	0x3d1ba896	0.038002573
201	0xbd14c4db	-0.03632055
202	0x3d25a188	0.04043725
203	0xbccc25f1	-0.024920436
204	0xbcf36f8a	-0.029716272
205	0x3d0ca47b	0.03433655
206	0x3d14e8b4	0.036354735
207	0x3d2377de	0.039909236
208	0x3d3c4e65	0.0459732
209	0xbd0efbd0	-0.034908116
210	0x3cc13c9c	0.023588471
211	0x3cfb1b75	0.030652741
212	0xbcb6393b	-0.022244086
213	0xbc89cb1a	-0.01682048
214	0x3cf1ca85	0.029515514
215	0xbc8ba165	-0.017044732
216	0x3d0be85d	0.034157146
217	0x3d01c7cb	0.031684678
218	0x3cad7628	0.021174505
219	0xbc6a513d	-0.014301595
220	0x3d0b2d15	0.03397854
221	0x3cfa4960	0.030552566
222	0x3d0a97c6	0.03383615
223	0xbca7f2da	-0.020501543
224	0x3d24cf63	0.040236842
225	0x3b9efc82	0.0048518786
226	0x3ce21e92	0.027602468
227	0x3cf4a520	0.029863894
228	0x3d09af9c	0.03361474
229	0x3d172eb2	0.036909766
230	0xbc2769dd	-0.010218111
231	0x3d1a8d34	0.037732318
232	0x3d078c27	0.033092644
233	0x3d03faf7	0.03222176
234	0x3d46f669	0.04857484
235	0x3d1e289e	0.038612954
236	0x3cd90cc2	0.026495341
237	0x3d2b9f87	0.041900184
238	0x3d0bc3ef	0.034122404
239	0x3d1a9f8b	0.03774981
240	0xbd09d919	-0.033654306
241	0x3d1b81a1	0.03796542
242	0xbd1110cc	-0.03541641
243	0x3cf41029	0.029792862
244	0xbac97c82	-0.0015372189
245	0x3d173777	0.03691813
246	0x3cefdbc6	0.0292796
247	0xbd21f9e3	-0.03954495
248	0x3d1c2c58	0.038128227
249	0x3d1d7369	0.03844014
250	0x3cf3277a	0.02968191
251	0x3c7f495a	0.015581453
252	0x3d21a35c	0.039462432
253	0xbd3b1c0a	-0.045681037
254	0xbba99ffa	-0.0051765414
255	0x3d1a7850	0.037712395

network_body._body_endoder.seq_layers.0.weight f4 [256, 349]
0	0x3c5078e2	0.012724133
1	0xbd126910	-0.035744727
2	0xbd784531	-0.06061286
3	0xbcfe957c	-0.03107714
4	0x3cce61ca	0.025193114
5	0x3d76bc2d	0.060238052
6	0x3d2009bd	0.039071787
7	0xbd2fcbbc	-0.042918906
8	0xbd3a6003	-0.04550172
9	0x3d90bc3b	0.07067152
10	0x3d2f0404	0.04272844
11	0x3d736aac	0.059427902
12	0x3c909bfc	0.017652504
13	0xbd917217	-0.07101839
14	0x3d5bede4	0.053693667
15	0xbc95dd34	-0.018293954
16	0xbd56f102	-0.052475937
17	0xbb236b04	-0.0024935612
18	0x3cab6d57	0.02092616
19	0x3ccc4a1c	0.024937682
20	0xbcf07866	-0.029354285
21	0x3d81a7a5	0.06330804
22	0x3dc37b24	0.095449716
23	0xbda0a347	-0.07843643
24	0xbd39d391	-0.04536778
25	0x3cee0ecf	0.029059796
26	0xbd221c61	-0.039577845
27	0xbc94f361	-0.018182458
28	0x3bb74a91	0.005593606
29	0x3b9c21b9	0.0047647622
30	0xbd3a771b	-0.045523744
31	0xbc7cdbd2	-0.015433269
32	0xbc42bbf4	-0.011885632
33	0x3bf925c7	0.0076033804
34	0x3bc3270b	0.005955582
35	0xbc437983	-0.011930826
36	0xbcb11462	-0.021616165
37	0xbae72e45	-0.0017637691
38	0xbe092d87	-0.13396274
39	0x3d520a44	0.05127932
40	0x3d0772b5	0.033068378
41	0xbdc7f044	-0.09762624
42	0xbd8fd860	-0.07023692
43	0x3d09cf42	0.033644922
44	0x3dedab26	0.116049096
45	0x3bb28945	0.0054484927
46	0xbd72ec01	-0.059307102
47	0xbcfb2cc7	-0.030661
48	0xbdc18534	-0.094492346
49	0x3df77be0	0.12084174
50	0xbda65f1a	-0.08123608
51	0xbd8a902a	-0.06765778
52	0xbdf7a255	-0.12091509
53	0xbd2493a6	-0.04017987
54	0x39d12910	0.0003989418
55	0xbd23f02b	-0.040023964
56	0x3d9704fa	0.07373996
57	0x3d812540	0.06305933
58	0xbda4dfc7	-0.08050495
59	0x3d0bb8e4	0.034111872
60	0xbd70c560	-0.05878198
61	0x3cf8ffd2	0.030395422
62	0xbc6578eb	-0.01400588
63	0xbda99eee	-0.082822666
64	0x3d576435	0.0525858
65	0xbdc0c87c	-0.09413239
66	0xbd6b08b6	-0.057381354
67	0x3cb94315	0.022614995
68	0xbd6db5dc	-0.058034763
69	0x3d7c8ee8	0.061659724
70	0xbdec6f61	-0.11544681
71	0x3dd10fca	0.1020809
72	0xbc9ef860	-0.019405544
73	0x3b87d105	0.00414479
74	0x3c908c74	0.017645098
75	0xbbac803c	-0.00526431
76	0xbc9401de	-0.018067297
77	0x3d883b99	0.06651992
78	0x3ce0a142	0.027420644
79	0x3cbb4bf2	0.022863362
80	0xbd84d375	-0.06485645
81	0x3bca6a15	0.0061771967
82	0xbdcf7f22	-0.101316705
83	0x3c17da35	0.009268333
84	0xbd2663ea	-0.04062263
85	0xbdd101fd	-0.10205457
86	0xbd04f180	-0.032456875
87	0x3b8255ae	0.003977499
88	0xbd5adf93	-0.053435873
89	0xbd0f0f83	-0.034926903
90	0x3d0d9e7e	0.034574978
91	0xbcfc8189	-0.030823486
92	0x3cd0cffb	0.025489798
93	0xbd303931	-0.043023292
94	0xbd23b3a0	-0.039966226
95	0xbda4e304	-0.08051112
96	0x3ccf2e76	0.025290709
97	0x3dc929fe	0.098224625
98	0x3cc1f462	0.023676101
99	0x3d6e0014	0.058105543
100	0x3b26aab8	0.0025431346
101	0x3be4366d	0.006964496
102	0x3d01dc44	0.031704202
103	0x3db7163b	0.08939787
104	0xbc1270ff	-0.008938073
105	0xbc5f07d1	-0.013612703
106	0xbc71234c	-0.014717888
107	0x3b5b6ca7	0.003348151
108	0xbcef5aee	-0.029218163
109	0x3d3aa5a5	0.045568127
110	0x3d4249dd	0.047433723
111	0xbc91a948	-0.017780915
112	0x3d28b058	0.0411838
113	0x3d8918a5	0.06694154
114	0x3a89c547	0.0010511064
115	0x3d97900e	0.07400523
116	0x3d9ec102	0.07751657
117	0xbd3b586c	-0.045738623
118	0x3d86a731	0.06574858
119	0xbb9acf41	-0.0047244136
120	0xbca792de	-0.020455774
121	0x3d810101	0.062990196
122	0x3c8f4211	0.017487558
123	0x3d5fe4c9	0.054661546
124	0xbbd1c40e	-0.0064015454
125	0xbcf8de0a	-0.030379314
126	0xbd08496c	-0.033273146
127	0xbdb0c03c	-0.08630416
128	0xbd39a2c4	-0.04532124
129	0xbe1bf1b3	-0.1522892
130	0xbd94c0bc	-0.07263324
131	0x3d11c34b	0.035586637
132	0x3d6fa07c	0.05850266
133	0x3d119ba6	0.03554883
134	0x3d120ca6	0.035656594
135	0x3c93960b	0.018015882
136	0x3da5457b	0.08069893
137	0x3cf7bf71	0.030242654
138	0xbd5ab353	-0.053393673
139	0xbd627704	-0.055289283
140	0xbc045221	-0.008076222
141	0xbcb13973	-0.02163384
142	0xbcdb639b	-0.026780894
143	0xbbd5c8d0	-0.006524183
144	0xbd92cc94	-0.071679264
145	0xbd462891	-0.04837853
146	0xbd0a4c5b	-0.033764224
147	0x3dc7c144	0.09753659
148	0x3c04be03	0.008101943
149	0xbe01de52	-0.12682465
150	0x3c025f0f	0.007957234
151	0xbd89aab6	-0.06722014
152	0xbdaa4dfc	-0.083156556
153	0x3db47774	0.088118464
154	0xbc93e16e	-0.01805183
155	0x3b47b0e9	0.0030470437
156	0xbc4eaf38	-0.012615018
157	0xbd06ac32	-0.032879062
158	0xbd9314b9	-0.07181687
159	0xbbb7432b	-0.005592724
160	0xbcfed7e7	-0.03110881
161	0x3d44f453	0.04808457
162	0x3d15416d	0.036439348
163	0xbc2af316	-0.010433933
164	0xbc94a985	-0.01814724
165	0x3d95787a	0.0729837
166	0xbd01255f	-0.03152978
167	0xbda561a6	-0.080752656
168	0x3d9344de	0.0719087
169	0x3c8add67	0.016951276
170	0xbcaaf7fc	-0.020870201
171	0xbd2e5656	-0.042562805
172	0x3d8b1c31	0.067924865
173	0xbdea2e1a	-0.114345744
174	0x3d3699f4	0.044580415
175	0x3d346dc8	0.044050008
176	0xbd8a699a	-0.06758423
177	0x3b5b2ffe	0.0033445354
178	0x3b864af9	0.004098293
179	0xbd491c33	-0.04909916
180	0x3c1ac2da	0.00944587
181	0xbdbd3e34	-0.0924038
182	0xbb3ebefb	-0.0029105532
183	0x3cebce23	0.028784817
184	0x3c4d433b	0.012528236
185	0xbdd069cf	-0.101764314
186	0xbbc12c84	-0.0058951993
187	0x3bfee5c3	0.0077788546
188	0x3d71203d	0.058868635
189	0xbd65dfd2	-0.056121655
190	0xbd110f71	-0.035415117
191	0x3d8e9de4	0.06963709
192	0xbc546873	-0.012964356
193	0xbbbdf759	-0.0057973084
194	0xbc903570	-0.017603606
195	0x3ccf5057	0.025306864
196	0x3cde611f	0.02714592
197	0xbc9feeee	-0.01952311
198	0x3df89f95	0.12139813
199	0x3d767947	0.060174253
200	0xbdbb6b57	-0.09151333
201	0x3c1398b5	0.009008576
202	0xbd23fb5e	-0.040034644
203	0x3cfa8907	0.030582918
204	0xbdf2daee	-0.11858164
205	0xbc76c6dc	-0.01506206
206	0x3db049fe	0.08607863
207	0x3d1124b6	0.0354354
208	0xbd64412a	-0.055726208
209	0xbdad923b	-0.08475157
210	0xbda60cfa	-0.08107944
211	0xbd2f7ab2	-0.04284162
212	0xbd0f9a92	-0.03505952
213	0x3d8d9857	0.06913822
214	0x3d109e6d	0.035307337
215	0xbc9350d3	-0.017982876
216	0x3d139258	0.036028236
217	0xbd50b155	-0.050950367
218	0x3cb31e53	0.021865046
219	0xbd12c9d5	-0.035837013
220	0xbd59a8af	-0.053139385
221	0x3b4e7cc6	0.0031507476
222	0xbcba119c	-0.022713475
223	0xbcc6748c	-0.024225496
224	0x3cc4f981	0.024044754
225	0x3d88707c	0.0666208
226	0xbd2e5e26	-0.042570256
227	0x3d3934d9	0.045216415
228	0x3c3f4445	0.011673992
229	0xbd026b51	-0.031840626
230	0x3ccfb9c8	0.025357142
231	0xbce6bb83	-0.028165584
232	0x3de3da92	0.11125673
233	0xbd10cf77	-0.035354104
234	0x3d612c08	0.054973632
235	0x3c16ea8b	0.009211193
236	0xbc4d555c	-0.012532558
237	0xbd9637ee	-0.073348865
238	0x3ce2eaf6	0.027699929
239	0x3d3baddd	0.045820106
240	0xbd48ed4b	-0.049054425
241	0x3bcae671	0.0061920215
242	0xbc9f5026	-0.019447397
243	0xbda52755	-0.080641426
244	0xbc004abe	-0.00783032
245	0x3d8dfdef	0.069331996
246	0x3c2f7809	0.010709771
247	0xbcd17233	-0.02556715
248	0x3d427010	0.047470152
249	0x3d8ae204	0.0678139
250	0x3d9f14d4	0.077676445
251	0xbe054a19	-0.13016547
252	0x3da617aa	0.08109982
253	0xbc8e958c	-0.017405294
254	0xbd95c090	-0.07312119
255	0xbc3c6938	-0.0114996955

network_body._body_endoder.seq_layers.2.bias f4 [256]
0	0xbcf18e92	-0.029486928
1	0x3b206026	0.0024471371
2	0x3d00e2eb	0.031466406
3	0xbd152e6a	-0.036421217
4	0x3d06ef68	0.03294316
5	0x3d1c5cc2	0.0381744
6	0x3d0e72a3	0.034777295
7	0x3d146bed	0.03623574
8	0x3d0329f3	0.032022428
9	0x3cd70878	0.026249155
10	0xbcaca597	-0.021075053
11	0xbd15fa89	-0.036615882
12	0x3cff5cd4	0.031172194
13	0x3cfe968f	0.031077651
14	0x3d2397fe	0.039939873
15	0x3d0fec96	0.035137735
16	0xbd08e3fc	-0.033420548
17	0x3c9f6c41	0.0194608
18	0x3cd86e92	0.026419912
19	0x3d1aaa74	0.037760213
20	0xbd2bbac5	-0.041926164
21	0xbcf2c126	-0.029633116
22	0xbd1a69b8	-0.037698478
23	0xbd0fef51	-0.03514034
24	0xbc51858c	-0.012788188
25	0xbcc27dbe	-0.0237416
26	0x3cf090eb	0.029365977
27	0x3cfc89aa	0.030827362
28	0x3d1752e3	0.03694428
29	0x3d1c4091	0.038147513
30	0x3d19f4fb	0.037587147
31	0x3d114b9a	0.03547249
32	0x3d085cc0	0.03329158
33	0x3d143f17	0.03619298
34	0xbcc71f3f	-0.024306891
35	0xbd299ef6	-0.041411363
36	0x3d03d026	0.032180928
37	0x3cf63d73	0.030058598
38	0x3cb98249	0.022645133
39	0x3d194960	0.03742349
40	0x3d09b069	0.033615503
41	0xbcde42a8	-0.027131394
42	0x3d217670	0.03941959
43	0x3d103e9e	0.035215966
44	0xbd0ac49a	-0.0338789
45	0xbd21af5b	-0.039473873
46	0x3d09632b	0.03354184
47	0xbd018f7c	-0.031630978
48	0x3d0a35ca	0.033742703
49	0x3cfd6d4c	0.030935906
50	0xbcc37cfb	-0.023863306
51	0x3d180658	0.037115425
52	0x3d05e902	0.032692917
53	0xbc929534	-0.017893411
54	0x3d03676c	0.032081053
55	0xbcef2e28	-0.029196814
56	0xbceff873	-0.029293275
57	0x3d1f9bae	0.038966827
58	0xbd148a47	-0.036264684
59	0x3b0c852e	0.0021441686
60	0x3d12cdb3	0.0358407
61	0x3ce302e7	0.027711345
62	0xbd08f02e	-0.03343218
63	0xbcff35a9	-0.031153517
64	0x3cd12369	0.02552958
65	0xbd35cbb0	-0.044383705
66	0xbcce7607	-0.025202764
67	0xbcccecd2	-0.025015268
68	0xbd142eee	-0.03617757
69	0xbd19f139	-0.037583563
70	0x3d126d21	0.035748605
71	0x3d04ab2d	0.03238981
72	0x3d029f85	0.03189041
73	0xbce5b6a5	-0.028041193
74	0x3d0ce858	0.034401268
75	0x3d1938a4	0.037407532
76	0xbd0c7df9	-0.034299824
77	0xbd0f8c4b	-0.035045903
78	0x3cff2360	0.031144798
79	0xbd141d32	-0.036160655
80	0xbd0799c2	-0.03310562
81	0x3d06efce	0.03294354
82	0xbd135b2b	-0.035975616
83	0x3d18e78e	0.037330203
84	0x3d13a8ec	0.03604977
85	0x3d0d6fc7	0.034530427
86	0x3ce16672	0.02751467
87	0x3d0a7213	0.033800196
88	0xbd002024	-0.03128065
89	0x3d0e108b	0.034683745
90	0xbcdd1dc5	-0.026991734
91	0x3c920d17	0.017828507
92	0x3d009f71	0.031402055
93	0x3d0c43ca	0.034244336
94	0xbd1f2c9e	-0.03886091
95	0xbca75c2e	-0.020429697
96	0x3cf4a903	0.029865747
97	0xbd17f73d	-0.03710102
98	0xbcba2c3d	-0.022726173
99	0xbd0f74a6	-0.035023354
100	0xbd212f8a	-0.039351977
101	0x3cdd30ee	0.02700087
102	0xbce95387	-0.028482212
103	0x3d09801f	0.03356945
104	0xbd02db9a	-0.03194771
105	0x3cfb7e0a	0.030699749
106	0xbd17543f	-0.036945578
107	0xbca4cd63	-0.020117467
108	0x3d0f4851	0.034981076
109	0x3d2afe8e	0.04174667
110	0x3d109679	0.035299752
111	0xbcc1c39b	-0.023652842
112	0x3d0b2bde	0.033977382
113	0x3d03d267	0.032183077
114	0xbd0408bb	-0.03223489
115	0x3d0722d9	0.032992218
116	0x3d051f5b	0.032500606
117	0xbcf99f51	-0.030471476
118	0xbce0fe14	-0.027464904
119	0xbc79f672	-0.015256511
120	0xbcf87e06	-0.03033353
121	0xbd15ae3e	-0.036543123
122	0x3d0e8ad9	0.034800384
123	0x3cebebbb	0.028798928
124	0x3d09c288	0.033632785
125	0x3d0eb778	0.03484294
126	0xbc12aa3a	-0.008951718
127	0x3cfcb067	0.030845834
128	0xbb215738	-0.0024618637
129	0x3c76b93b	0.015058811
130	0xbd347eee	-0.044066362
131	0x3d117510	0.03551203
132	0x3d01d55d	0.03169762
133	0x3d07e5cd	0.03317814
134	0x3d00ac47	0.031414296
135	0x3d0b3360	0.033984542
136	0xbd210686	-0.03931286
137	0x3ce21478	0.02759765
138	0x3d17992b	0.037011307
139	0x3cb66be0	0.022268236
140	0xbd1849fd	-0.037179936
141	0x3d1e33c0	0.03862357
142	0xbc99612d	-0.018723095
143	0x3d4504cb	0.048100274
144	0xbd2554bc	-0.040364012
145	0x3cf6875f	0.030093847
146	0x3d071d54	0.032986954
147	0xbd33b601	-0.043874744
148	0x3d19743a	0.037464358
149	0xbcf11bbd	-0.029432172
150	0xbd246202	-0.04013253
151	0x3c8e1dd7	0.017348213
152	0xbccaaf8a	-0.024741907
153	0xbc132d99	-0.008983039
154	0x3d0c600d	0.03427129
155	0x3bfb425b	0.0076678223
156	0x3d11d92f	0.035607513
157	0x3d1483b4	0.036258414
158	0xbd01ef52	-0.031722374
159	0x3d0deca0	0.03464949
160	0x3cfd3a6c	0.030911647
161	0xbc8926ed	-0.016742194
162	0xbd165ab7	-0.036707606
163	0xbd0ed328	-0.034869343
164	0x3d11f9b5	0.03563853
165	0xbd029c29	-0.031887207
166	0x3d0888b4	0.033333495
167	0x3cf5d09e	0.030006703
168	0xbd16791f	-0.036736604
169	0x3d09c2da	0.03363309
170	0x3cd2f0fb	0.025749674
171	0x3d0e4ddf	0.034742232
172	0x3d09435d	0.03351151
173	0xbbe3a22e	-0.0069468236
174	0xbcb84747	-0.022494925
175	0x3cef8236	0.029236894
176	0x3d124d32	0.03571815
177	0x3d074bdb	0.033031326
178	0x3d0fcbed	0.03510659
179	0x3c8d42d5	0.017243782
180	0x3d0b6df0	0.03404039
181	0x3cb4d3d9	0.022073673
182	0xbcfebeec	-0.031096898
183	0x3cfe9699	0.03107767
184	0x3d0f1f06	0.034941696
185	0x3d0a3853	0.03374512
186	0x3cf5fe9c	0.030028634
187	0x3d08f54a	0.03343705
188	0xbce002c9	-0.027345078
189	0xbd313297	-0.043261137
190	0x3d0ffb92	0.035152026
191	0xbd0201c4	-0.031739965
192	0x3d0c80c1	0.034302477
193	0x3d190225	0.03735556
194	0x3d0e05c2	0.03467346
195	0x3cfd85ca	0.030947585
196	0x3cef3eb2	0.0292047
197	0x3cb31836	0.02186213
198	0xbce61ac7	-0.02808894
199	0x3d05edaf	0.032697376
200	0x3d1ee1c2	0.03878952
201	0xbb89de6e	-0.004207424
202	0xbc175fca	-0.0092391465
203	0xbd232d96	-0.039838396
204	0xbd21253b	-0.039342146
205	0xbc938204	-0.018006332
206	0x3c1ecb2f	0.009691997
207	0xbd124f17	-0.035719957
208	0xbcf0467d	-0.029330486
209	0x3cfb3aae	0.03066763
210	0x3d0ee402	0.034885414
211	0x3d098230	0.033571422
212	0x3cf9d269	0.03049584
213	0xbcf9c6b5	-0.030490259
214	0xbd33322c	-0.04374902
215	0x3d17fbd2	0.03710539
216	0x3d14f64f	0.03636771
217	0x3d100e58	0.03516993
218	0xbd301112	-0.04298503
219	0xbd256bcd	-0.04038601
220	0x3d0e9a9e	0.034815423
221	0x3ce51dbe	0.027968284
222	0xbd035a81	-0.032068733
223	0xbd281430	-0.041034877
224	0x3c37c47e	0.011216281
225	0x3d079f18	0.033110708
226	0xbd12e04d	-0.03585844
227	0xbd1b63b8	-0.037936896
228	0xbd40ce81	-0.047071937
229	0xbd096da5	-0.03355183
230	0x3d088e8f	0.03333908
231	0x3a596fc2	0.0008294546
232	0xbcc76471	-0.024339886
233	0xbc5da2fb	-0.013527627
234	0xbd0b565f	-0.034017917
235	0xbcf168e0	-0.029468954
236	0x3cfc75a6	0.030817818
237	0x3d04f077	0.032455888
238	0x3d10dc64	0.03536643
239	0x3d0062ad	0.031344105
240	0x3d0022ff	0.031283375
241	0xbcfab487	-0.03060366
242	0xbcc189d6	-0.023625296
243	0xbd0ee07e	-0.03488206
244	0x3d0be998	0.03415832
245	0xbd0a3da6	-0.0337502
246	0xbcad38fd	-0.021145338
247	0x3aa6d92f	0.0012729521
248	0xbbdedb08	-0.006801013
249	0xbd08039d	-0.03320657
250	0x3d0852cd	0.03328209
251	0xbd2770de	-0.040879123
252	0x3cf5284f	0.029926447
253	0xbccf2ef0	-0.025290936
254	0xbd0dfb0c	-0.034663245
255	0x3cf30860	0.02966708

network_body._body_endoder.seq_layers.2.weight f4 [256, 256]
0	0xbcca833b	-0.024720779
1	0xbcb0b189	-0.02156903
2	0xbcb1fc35	-0.021726707
3	0x3e05541c	0.13020366
4	0xbd99d9b8	-0.0751223
5	0xbbfd8810	-0.007737167
6	0xbd462a2d	-0.048380066
7	0xbca32587	-0.019915355
8	0x3d840053	0.06445374
9	0x3cf90917	0.030399842
10	0xbd541c0b	-0.051784556
11	0x3d164769	0.036689196
12	0x3c9776af	0.01848921
13	0x3e0a353a	0.13496867
14	0x3d22ed2c	0.039776966
15	0x3d5b8a59	0.053598735
16	0xbb8d62d9	-0.004314762
17	0x3d2514fa	0.040303208
18	0x3d84b84e	0.06480466
19	0xbcccd580	-0.025004148
20	0x3c870072	0.016479705
21	0xbe10eddb	-0.14153235
22	0x3c3b3d47	0.011428184
23	0xbd0654bf	-0.032795664
24	0x3dbc8159	0.092043586
25	0xbe01f6d4	-0.12691814
26	0x3db0dc7c	0.08635804
27	0xbd57e544	-0.05270888
28	0x3b93b1ae	0.004507265
29	0xbd9059a7	-0.0704835
30	0xbda242a7	-0.07922869
31	0x3d7b3224	0.061327115
32	0xbc6f69f8	-0.014612667
33	0x3ba1faf9	0.0049432484
34	0xbcf9c36c	-0.030488692
35	0xbbea4bb2	-0.007150137
36	0x3d288a82	0.041147716
37	0xbc7c2dc7	-0.015391774
38	0xbc9adcb1	-0.018904062
39	0x3e1be697	0.15224682
40	0x3dd7277e	0.105055794
41	0x3dda43f4	0.10657492
42	0x3c3b81b0	0.011444494
43	0x3dd2e59d	0.102977015
44	0xbd334eb1	-0.043776218
45	0x3b0900b9	0.0020904972
46	0x3d22e12d	0.039765526
47	0x3c97aad5	0.018514076
48	0xbd9c0922	-0.076189294
49	0x3b1da3d4	0.0024053948
50	0xbd10d434	-0.035358623
51	0x3d2818aa	0.041039146
52	0x3d22851c	0.039677724
53	0xbdbca21c	-0.092106074
54	0x3d98345a	0.0743186
55	0x3a7a995b	0.0009559595
56	0x3d972a5a	0.07381125
57	0x3c00736a	0.007840017
58	0xbd45906c	-0.048233435
59	0xbc02cb11	-0.007982985
60	0xbc1234f7	-0.008923761
61	0x3c3683a0	0.01113978
62	0xbdd9da24	-0.1063731
63	0xbc8735df	-0.01650518
64	0xbe016ecb	-0.1263992
65	0x3cbc8732	0.023013685
66	0xbc4d4635	-0.012528946
67	0xbc7a2be8	-0.015269257
68	0xbd346a8c	-0.044046924
69	0xbda20229	-0.07910568
70	0xbdadc29e	-0.08484386
71	0xbcce076e	-0.025150027
72	0x3dfdaa13	0.12385955
73	0xbbaa4670	-0.005196385
74	0x3d8f4232	0.06995048
75	0xbdc13333	-0.094335936
76	0xbdabdd88	-0.08391863
77	0xbe27106a	-0.16314855
78	0x3df28aad	0.118428566
79	0x3d929f05	0.07159237
80	0x3df41031	0.11917151
81	0x3a1d680e	0.000600458
82	0xbdae665c	-0.08515617
83	0xbdfbb3a6	-0.122901246
84	0x3d3a43aa	0.045474686
85	0xbd174012	-0.036926337
86	0x3dcb63f5	0.09931175
87	0xbd093723	-0.033499848
88	0xbd85cd49	-0.06533296
89	0xbd3d9067	-0.04628029
90	0x3ddc96d7	0.10770958
91	0xbd02a6d1	-0.03189737
92	0x3d1432cd	0.03618126
93	0xbdeae116	-0.11468713
94	0xbcfc0531	-0.030764194
95	0xbbe6afd7	-0.0070400047
96	0xbd6dae62	-0.058027633
97	0xbdf94c0d	-0.12172709
98	0x3d67e817	0.056617822
99	0x3bf77ce0	0.007552728
100	0x3c1100af	0.008850261
101	0xbce69f89	-0.028152244
102	0xbd5752ae	-0.052569084
103	0x3c28074e	0.010255648
104	0xbdb726d7	-0.08942955
105	0x3d372318	0.044711202
106	0x3e14d7e0	0.14535475
107	0xbe0437aa	-0.12911859
108	0x3cd34d67	0.025793744
109	0xbc0580ce	-0.008148385
110	0x3d5d381a	0.05400858
111	0xbc98d695	-0.018657008
112	0x3dc204c9	0.09473569
113	0xbe2d48b8	-0.16922271
114	0xbd24fe7f	-0.04028177
115	0xbdd6088a	-0.104508474
116	0x3c840179	0.016113983
117	0xbca96195	-0.020676414
118	0x3c7395d7	0.014867268
119	0xbd506ec4	-0.050886884
120	0xbb518053	-0.0031967356
121	0xbcae94b1	-0.021311136
122	0xbd141f92	-0.03616292
123	0xbceeaf90	-0.02913645
124	0xbc2f5b8f	-0.010702982
125	0x3c1caccb	0.009562681
126	0xbe249684	-0.16073042
127	0x3bcac5d4	0.0061881337
128	0xbdb07346	-0.08615737
129	0xbcd63d19	-0.02615218
130	0x3c1e33d9	0.009655916
131	0x3cb64183	0.022248035
132	0xbbf0eacf	-0.00735221
133	0xbda6819e	-0.08130191
134	0x3d091c46	0.03347423
135	0xbbd406fd	-0.0064705596
136	0xbe06014c	-0.13086432
137	0xbd9db74e	-0.07700978
138	0x3c8267c5	0.015918622
139	0xbd7fb015	-0.062423784
140	0x3d8561bf	0.06512784
141	0xbdad8822	-0.08473231
142	0x3d624a58	0.05524668
143	0xbd4b8c5c	-0.049694404
144	0x3b9b0ce6	0.004731762
145	0x3bb519c5	0.0055267536
146	0xbd962a35	-0.07332269
147	0xbdb791fb	-0.089633904
148	0xbd035c26	-0.0320703
149	0xbd9b3866	-0.075791165
150	0xbd92cc0c	-0.07167825
151	0xbde364cf	-0.11103212
152	0x3dc8ccf7	0.09804719
153	0x3c243807	0.010023124
154	0x3dba5620	0.09098458
155	0xbd83c535	-0.06434099
156	0xbcb7bb7c	-0.022428267
157	0x3cd44b44	0.025914796
158	0xbdbc8197	-0.09204405
159	0xbe104b89	-0.14091314
160	0xbd1f921a	-0.038957693
161	0x3cfe25e5	0.031023929
162	0xbd65820f	-0.056032237
163	0x3d90b8ac	0.07066473
164	0x3e0a578d	0.1350996
165	0xbd77086f	-0.060310777
166	0xbced0f2f	-0.028937904
167	0x3c3a3290	0.011364594
168	0xbc448227	-0.011993921
169	0xbd882429	-0.06647522
170	0x3b34b606	0.0027574315
171	0xbd9faa3d	-0.07796142
172	0xbdaea76d	-0.08528028
173	0xbe230baa	-0.15922418
174	0xbc2dc572	-0.010606157
175	0xbcdb0368	-0.026735023
176	0x3cb9eef7	0.022696955
177	0x3c4dde0b	0.012565146
178	0xbd35e96c	-0.04441206
179	0xbc999cba	-0.01875149
180	0xbd6a1f76	-0.05715891
181	0xbdcf4dd9	-0.1012227
182	0xbdbe49e9	-0.09291441
183	0xbd846c1e	-0.06465934
184	0x3d3c2b49	0.045939717
185	0x3b867f84	0.0041045565
186	0xbd83c967	-0.06434899
187	0xbc98c179	-0.018646942
188	0x3defee02	0.11715318
189	0x3aaeaf57	0.0013327402
190	0xbcb7b418	-0.022424743
191	0xbcd43fdc	-0.025909357
192	0xbd12a05d	-0.035797466
193	0xbca57448	-0.020197049
194	0xbdfa85da	-0.122325614
195	0xbc625e6b	-0.013816456
196	0xbd70f364	-0.058825865
197	0x3d6bc804	0.057563797
198	0xbc075808	-0.008260734
199	0xbd1a0871	-0.037605707
200	0xbe11041a	-0.14161721
201	0xbcab103a	-0.02088176
202	0x3928a619	0.00016083605
203	0xbca58ef2	-0.020209763
204	0xbd7d4450	-0.061832726
205	0x3c945f1b	0.018111756
206	0xbd2e4d39	-0.042554114
207	0xbd4298eb	-0.047509115
208	0xbdbdeee5	-0.09274081
209	0xbcca2d4d	-0.024679804
210	0xbba7643b	-0.005108384
211	0x3d2cd366	0.042193793
212	0x3bb37118	0.0054761283
213	0xbd5e5105	-0.054276485
214	0xbe1cd2c3	-0.15314774
215	0xbdb6d571	-0.089274295
216	0xbe2bf805	-0.1679383
217	0x3d5ebd5b	0.054379802
218	0x3d6b80db	0.057495933
219	0x3d2aeac9	0.041727815
220	0x3d8fa9bd	0.07014797
221	0xbd206e17	-0.03916749
222	0xbc9390ae	-0.018013325
223	0x3cd8cc27	0.026464535
224	0xbd971256	-0.07376544
225	0xbcacb07e	-0.021080252
226	0x3dd28cf1	0.10280789
227	0xbd41b288	-0.0472894
228	0xbd1a4520	-0.03766358
229	0x3db8eb85	0.09029297
230	0x3daba160	0.08380389
231	0x3d699c44	0.057033792
232	0x3bf3f5b8	0.0074450634
233	0xbdbcfe79	-0.09228224
234	0xb94b73f4	-0.00019402785
235	0xbd814d44	-0.063135654
236	0x3d24fb7a	0.04027889
237	0xbd1d8ddd	-0.03846537
238	0x3db702d8	0.08936089
239	0xbc69a6a3	-0.014260921
240	0x3d9c91e7	0.07645016
241	0xbcc583be	-0.024110671
242	0x3c8ca7e9	0.01716991
243	0x3dd36685	0.103222884
244	0xbc34cd04	-0.011035208
245	0xbc72f0fe	-0.014827965
246	0xbd6f6b36	-0.058451854
247	0x3c994cae	0.018713322
248	0xbdde4dab	-0.10854658
249	0x3d670fb8	0.056411475
250	0x3da23c12	0.07921614
251	0x3c40f20e	0.01177646
252	0xbd92fcb0	-0.071771026
253	0x3db8f0f5	0.09030334
254	0x3d3d8687	0.046270873
255	0xbd1f1739	-0.038840506
