Assets/NN/CharacterBehav.onnx (onnx, 627761 bytes, 11 tensors)

72 f4 [341]
0	0x3a83120c	0.0009999885
1	0x3eaf759a	0.3426941
2	0x3bbc3ac7	0.0057443115
3	0x3b8311b3	0.0039999126
4	0x3d446894	0.047951296
5	0x3a83120c	0.0009999885
6	0x3d7130bc	0.058884367
7	0x3ee07879	0.43841913
8	0x3a83120c	0.0009999885
9	0x3efcfd06	0.49411792
10	0x3ef42f5e	0.47692388
11	0x3a83120c	0.0009999885
12	0x3e3a6f50	0.18206525
13	0x3bbc3ac7	0.0057443115
14	0x3b595aa7	0.0033165605
15	0x3d3186a2	0.043341286
16	0x3a83120c	0.0009999885
17	0x3d7d7326	0.061877392
18	0x3efff783	0.49993524
19	0x3d8fb6ac	0.07017264
20	0x3efdf0f3	0.49597892
21	0x3ef671dc	0.48133743
22	0x3a83120c	0.0009999885
23	0x3e5cd708	0.21566403
24	0x3bbc3ac7	0.0057443115
25	0x3b595ab7	0.0033165643
26	0x3d1b95d0	0.03798467
27	0x3a83120c	0.0009999885
28	0x3d6bb5d7	0.057546463
29	0x3efe735f	0.49697396
30	0x3cf48b39	0.029851543
31	0x3effc4f8	0.49954963
32	0x3ef74b31	0.48299554
33	0x3a83120c	0.0009999885
34	0x3d9326e2	0.07185151
35	0x3bbc3ac7	0.0057443115
36	0x3b8311a2	0.0039999047
37	0x3d008cbf	0.031384226
38	0x3a83120c	0.0009999885
39	0x3d759a40	0.059961557
40	0x3efdbd54	0.49558508
41	0x3dd71ed5	0.105039276
42	0x3ef9481c	0.48687828
43	0x3ef38672	0.4756351
44	0x3a83120c	0.0009999885
45	0x3d4c34ab	0.049854916
46	0x3bbc3ac7	0.0057443115
47	0x3b2086f5	0.0024494503
48	0x3cc32c89	0.023824947
49	0x3a83120c	0.0009999885
50	0x3d57a7e1	0.052650336
51	0x3eff0b7b	0.49813446
52	0x3deae4d0	0.11469424
53	0x3efc0ef7	0.49230167
54	0x3ef4ed04	0.4783708
55	0x3a83120c	0.0009999885
56	0x3d9483d9	0.072517104
57	0x3bbc3ac7	0.0057443115
58	0x3b4f3d45	0.0031622213
59	0x3c9dbfbc	0.019256465
60	0x3a83120c	0.0009999885
61	0x3d69b0d5	0.057053406
62	0x3e9f373c	0.31096828
63	0x3e4dfade	0.2011523
64	0x3e27d494	0.16389686
65	0x3e25ca97	0.16190563
66	0x3a83120c	0.0009999885
67	0x3d069897	0.032860365
68	0x3bbc3ac7	0.0057443115
69	0x3ae30534	0.0017320276
70	0x3c474c6f	0.012164219
71	0x3a83120c	0.0009999885
72	0x3d3e69f1	0.046487752
73	0x3efab7a8	0.48968244
74	0x3ef21aaa	0.47285968
75	0x3e347334	0.17622072
76	0x3e30c7c0	0.17263699
77	0x3a83120c	0.0009999885
78	0x3d5c8059	0.05383334
79	0x3bbc3ac7	0.0057443115
80	0x3b395c46	0.002828376
81	0x3c8bf4d0	0.01708451
82	0x3a83120c	0.0009999885
83	0x3d5b2468	0.053501517
84	0x3e9c20e8	0.30493855
85	0x3e4dfade	0.2011523
86	0x3e0a7eb9	0.13524903
87	0x3e09c6bc	0.13454717
88	0x3a83120c	0.0009999885
89	0x3cbce402	0.023057941
90	0x3bbc3ac7	0.0057443115
91	0x3a83120c	0.0009999885
92	0x3c45f264	0.012081716
93	0x3a83120c	0.0009999885
94	0x3d2ff4e5	0.04295816
95	0x3ef96273	0.48707923
96	0x3ef21aaa	0.47285968
97	0x3e1422d1	0.14466406
98	0x3e126dd3	0.14299707
99	0x3a83120c	0.0009999885
100	0x3cf0224c	0.029313229
101	0x3bbc3ac7	0.0057443115
102	0x3b208701	0.002449453
103	0x3c1372a0	0.008999497
104	0x3a83120c	0.0009999885
105	0x3d5c2b26	0.053752087
106	0x3e9baadf	0.30403802
107	0x3e4dfade	0.2011523
108	0x3dfb17bf	0.122603886
109	0x3dfab9c6	0.12242465
110	0x3a83120c	0.0009999885
111	0x3c7b1c5f	0.015326588
112	0x3bbc3ac7	0.0057443115
113	0x3a83120c	0.0009999885
114	0x3c70c17f	0.014694571
115	0x3a83120c	0.0009999885
116	0x3d31fc77	0.04345366
117	0x3ef8e1ed	0.48609868
118	0x3ef21aaa	0.47285968
119	0x3e00c042	0.1257334
120	0x3e000d31	0.12505032
121	0x3a83120c	0.0009999885
122	0x3cd650a1	0.026161494
123	0x3c3f0bd9	0.01166054
124	0x3c7a930c	0.015293848
125	0x3c0de1d9	0.008659803
126	0x3a83120c	0.0009999885
127	0x3d5eba76	0.05437704
128	0x3eae6470	0.34061003
129	0x3e4dfade	0.2011523
130	0x3de8e949	0.113726206
131	0x3dea474e	0.114393815
132	0x3a83120c	0.0009999885
133	0x3c7a0b77	0.0152615225
134	0x3c4496b5	0.011998822
135	0x3a83120c	0.0009999885
136	0x3bde3c53	0.0067820936
137	0x3a83120c	0.0009999885
138	0x3d5e658b	0.054296058
139	0x3ef8e918	0.48615336
140	0x3ef21aaa	0.47285968
141	0x3deb8ea5	0.11501817
142	0x3debe058	0.115173995
143	0x3b2d63b7	0.002645714
144	0x3cd16b13	0.025563752
145	0x3cc56679	0.024096714
146	0x3c8a4323	0.016877716
147	0x3c0bfa52	0.008543568
148	0x3a83120c	0.0009999885
149	0x3da84527	0.08216315
150	0x3eb1600f	0.346436
151	0x3e4dfade	0.2011523
152	0x3de6229a	0.112370685
153	0x3df2d3a0	0.118567705
154	0x3a83120c	0.0009999885
155	0x3c786e0e	0.015162958
156	0x3cc27bd5	0.023740688
157	0x3b4f3d38	0.0031622183
158	0x3bbf1030	0.005830787
159	0x3a83120c	0.0009999885
160	0x3d93af26	0.07211141
161	0x3efa8004	0.48925793
162	0x3ef21aaa	0.47285968
163	0x3de688d6	0.11256568
164	0x3dea4091	0.11438096
165	0x3cab00f3	0.020874476
166	0x3cbeab79	0.023275124
167	0x3e917d78	0.28416038
168	0x3d6fd8f0	0.058556497
169	0x3c0bfa52	0.008543568
170	0x3a83120c	0.0009999885
171	0x3d50d197	0.05098113
172	0x3ed669a2	0.41877466
173	0x3e4b9b31	0.1988342
174	0x3de61bc1	0.112357624
175	0x3de51942	0.11186458
176	0x3cbfe55d	0.023424799
177	0x3c76cdbc	0.015063699
178	0x3ea960d7	0.33081695
179	0x3d22b93f	0.039727446
180	0x3bbf1030	0.005830787
181	0x3a83120c	0.0009999885
182	0x3d4cdd7e	0.05001592
183	0x3effc0fb	0.4995192
184	0x3ef1083d	0.47076598
185	0x3de6b879	0.11265654
186	0x3de59fcd	0.1121212
187	0x3d0c31fd	0.03422736
188	0x3ca226cb	0.019793889
189	0x3ec9c49b	0.3940781
190	0x3daf38e2	0.085557714
191	0x3c0bfa52	0.008543568
192	0x3a83120c	0.0009999885
193	0x3d4f60c6	0.0506294
194	0x3eec7883	0.46185693
195	0x3e46dc63	0.19420008
196	0x3de61bc1	0.112357624
197	0x3de53f98	0.1119377
198	0x3d0f7fd8	0.03503403
199	0x3c81c2ff	0.015840052
200	0x3ec9f596	0.3944518
201	0x3daf9204	0.08572772
202	0x3bbf1030	0.005830787
203	0x3a83120c	0.0009999885
204	0x3d5254c4	0.05135037
205	0x3efaa5a4	0.489545
206	0x3ef072ac	0.46962488
207	0x3de65ffd	0.11248777
208	0x3de68697	0.1125614
209	0x3d1499d6	0.036279522
210	0x3ca6a265	0.020341108
211	0x3ed1d8b8	0.40985656
212	0x3dba955b	0.091105185
213	0x3c0bfa52	0.008543568
214	0x3a83120c	0.0009999885
215	0x3d51d028	0.051223904
216	0x3ef189ee	0.47175545
217	0x3e453077	0.19256769
218	0x3de61bc1	0.112357624
219	0x3de571e6	0.11203365
220	0x3d1680d4	0.036743954
221	0x3c4de7fe	0.012567518
222	0x3ed2aef4	0.41149104
223	0x3db5c5fa	0.08875652
224	0x3bbf1030	0.005830787
225	0x3a83120c	0.0009999885
226	0x3d502349	0.0508149
227	0x3ef6cf53	0.4820505
228	0x3eefdbd4	0.46847403
229	0x3de61bc1	0.112357624
230	0x3de74cbc	0.11293933
231	0x3d1f318a	0.038865604
232	0x3c9fdb38	0.019513711
233	0x3ed450ee	0.41467994
234	0x3dbf59b1	0.09343279
235	0x3c0b040e	0.008484853
236	0x3a83120c	0.0009999885
237	0x3d5845aa	0.05280081
238	0x3ef4f7af	0.47845218
239	0x3e4306be	0.1904554
240	0x3de61bc1	0.112357624
241	0x3de5a4f5	0.11213104
242	0x3d1afe5a	0.037840225
243	0x3c96ca7f	0.018407105
244	0x3ed4cf4b	0.41564402
245	0x3dbaa292	0.09113039
246	0x3bbf1030	0.005830787
247	0x3a83120c	0.0009999885
248	0x3d4ce7db	0.050025802
249	0x3ef3ec1e	0.4764108
250	0x3eee4f79	0.46545008
251	0x3de61bc1	0.112357624
252	0x3de90169	0.11377222
253	0x3d228452	0.03967697
254	0x3c8b3b92	0.016996179
255	0x3ed54a23	0.41658124

75 f4 [4]
0	0x42113a66	36.30703
1	0x409bd912	4.870248
2	0x3a83120c	0.0009999885
3	0x4003b979	2.0581954

action_model._continuous_distribution.mu.weight f4 [1, 256]
0	0x3cc0c525	0.023531506
1	0xbceb35ae	-0.02871212
2	0x3cbe4610	0.023226768
3	0x3d16c517	0.036809053
4	0xbc950404	-0.018190391
5	0x3c99f0c5	0.018791566
6	0x3d0a41bc	0.033754095
7	0x3cee0d69	0.029059129
8	0xbc308b1f	-0.010775357
9	0x3cd6b490	0.026209146
10	0x3cb9d819	0.022686051
11	0x3cc88522	0.024477545
12	0x3c468317	0.012116215
13	0xbb284cec	-0.0025680615
14	0x3cea48c3	0.028599149
15	0x3cfad3d3	0.030618584
16	0xbd2889a9	-0.041146908
17	0x3cd8fbfb	0.026487341
18	0x3be8b65d	0.0071018175
19	0xbd1b9602	-0.037984855
20	0xbcf33be0	-0.029691637
21	0x3d062c6c	0.032757208
22	0x3cc00c04	0.02344323
23	0x3cc14cd8	0.023596212
24	0x3d5b49d6	0.053537212
25	0x3cb5fee2	0.022216264
26	0x3cccd4d3	0.025003826
27	0x3c9fc4c4	0.019503005
28	0xbcf8de02	-0.0303793
29	0x3cfddf2f	0.030990211
30	0xba8c11fa	-0.001068651
31	0x3cf4acf5	0.029867629
32	0x3cd052a8	0.025430039
33	0xbcf0823f	-0.029358981
34	0x3c9cc711	0.019137891
35	0xbbf505de	-0.007477506
36	0xbcfd2d26	-0.030905318
37	0x3c9f21ad	0.019425238
38	0x3cb8ea2b	0.022572597
39	0x3ba107d0	0.0049142614
40	0xbcef7dab	-0.029234728
41	0x3d5d3118	0.054001898
42	0x3cf61ea7	0.030043913
43	0xbca227d7	-0.019794388
44	0xbcf0787f	-0.029354332
45	0xbb459224	-0.003014692
46	0x3d237632	0.03990764
47	0xbca93590	-0.020655423
48	0x3bcc91e4	0.0062429775
49	0x3d1be040	0.03805566
50	0xbcb938d4	-0.022610106
51	0xbd347d4a	-0.044064797
52	0x3cd08139	0.025452243
53	0x3d0c8e86	0.03431561
54	0xbc922e9c	-0.01784449
55	0x3cc9af66	0.02461977
56	0xbcb8de87	-0.022567047
57	0xbc16e8af	-0.0092107495
58	0x3d06fed4	0.032957867
59	0xbc2a96a0	-0.010411888
60	0x3cea49fb	0.02859973
61	0x3d204b34	0.03913422
62	0xbcc9930c	-0.02460625
63	0xbc96526d	-0.01834985
64	0x3ce52c30	0.027975172
65	0xbcbfb345	-0.023400912
66	0x3bbc9904	0.0057555456
67	0xb9a325d8	-0.00031117979
68	0x3cd5e85e	0.026111778
69	0x3cf465dd	0.029833728
70	0xbc90423c	-0.017609708
71	0x3cde0d55	0.027105967
72	0xbcbb5388	-0.02286698
73	0x39d81e28	0.000412212
74	0x3cbe5eae	0.023238506
75	0x3cacd9ea	0.021100003
76	0x3c5e09d4	0.013552148
77	0x3ca4c100	0.02011156
78	0x3cf3e69a	0.029773045
79	0x3d14d313	0.03633411
80	0x3ce61a72	0.028088782
81	0xbcee3923	-0.02907998
82	0xbc99be84	-0.018767603
83	0x3d19bb6f	0.037532266
84	0xbcab58f9	-0.020916449
85	0xbcd9aa97	-0.026570601
86	0x3d12c028	0.035827786
87	0x3ccb902f	0.024849026
88	0x3d0255ba	0.031820036
89	0xbcb383d8	-0.021913454
90	0xbcb220cd	-0.021744156
91	0x3cb11dd0	0.021620661
92	0xbd26ce4d	-0.040724088
93	0x382c0e37	4.1021234e-05
94	0x3d0f44c3	0.034977686
95	0x3d02601b	0.031829935
96	0xbd18e492	-0.037327357
97	0xbcc57b2b	-0.024106583
98	0xbcb7339b	-0.022363475
99	0x3cdd662a	0.027026255
100	0xbc9a2aa2	-0.018819157
101	0xbca5f400	-0.02025795
102	0xbccba7c8	-0.024860278
103	0xbc85568c	-0.01627662
104	0x3d48fd51	0.049069706
105	0xbcdaf70c	-0.02672913
106	0x3d174b31	0.036936942
107	0x3cb80b34	0.02246628
108	0x3ce81037	0.028328044
109	0x3aec6b39	0.0018037326
110	0xbd0ea921	-0.034829263
111	0x3d3b7ee8	0.045775324
112	0xbd00acac	-0.031414673
113	0xbc56bf06	-0.013107067
114	0xbcdf123a	-0.02723037
115	0x3d083e39	0.033262465
116	0xbcc9b020	-0.024620116
117	0x3ccb6460	0.024828136
118	0x3ce12b38	0.027486429
119	0xbcd2677c	-0.02568411
120	0xbcabbd80	-0.020964384
121	0xbbb3689b	-0.0054751164
122	0xbd30b218	-0.043138593
123	0x3d4cc53e	0.049992792
124	0xbcbe79af	-0.023251383
125	0xbced50bc	-0.028969161
126	0xbc42ebad	-0.01189701
127	0x3c8b34a1	0.016992869
128	0x3cb7b4e4	0.022425123
129	0x3cc79c15	0.024366418
130	0xbd17ac69	-0.037029658
131	0x3cf510d6	0.029915255
132	0xbc25d421	-0.010121376
133	0xbb6ffa5a	-0.0036617727
134	0x3d0d09d3	0.034433197
135	0x3d2cf9be	0.04223036
136	0xbbb0402d	-0.005378744
137	0x3cda23b7	0.026628358
138	0x3d18e950	0.03733188
139	0xbcd95dac	-0.026533924
140	0x3cf8c42e	0.030366983
141	0x3c56e439	0.013115936
142	0xbc58abde	-0.01322457
143	0x3ccd9652	0.025096092
144	0xbcda463d	-0.02664482
145	0x3c9e1104	0.019295223
146	0xbce73267	-0.028222276
147	0x3d1d9dfa	0.038480736
148	0xbc8fb112	-0.017540488
149	0x3c8def18	0.017325923
150	0xbcfa820f	-0.030579595
151	0xbce4edea	-0.027945478
152	0x3cc4a952	0.02400652
153	0x3ca085de	0.019595083
154	0x3c8e8400	0.017396927
155	0x3d05e8d4	0.032692745
156	0x3cedb3dc	0.029016428
157	0xbc58dc43	-0.013236108
158	0xbd091b31	-0.033473197
159	0xbc8b2455	-0.016985098
160	0x3c2cb33c	0.01054078
161	0xbcfccd9b	-0.03085976
162	0x3c508dc9	0.012729117
163	0x3d0a8e7c	0.03382729
164	0xbd00e2bd	-0.031466234
165	0xbc61e54b	-0.013787578
166	0x3cd25070	0.025673121
167	0x3c99edaf	0.018790094
168	0x3ceeae03	0.02913571
169	0x3cc86aff	0.024465082
170	0x3d0053d9	0.031329963
171	0x3caa044e	0.020754006
172	0xbcc5864f	-0.024111895
173	0xbc9426f0	-0.018084973
174	0x3d0de30d	0.03464036
175	0x3c7023a6	0.014656937
176	0xbcc6eb06	-0.02428199
177	0xbc87bc18	-0.016569182
178	0xbd04a468	-0.032383353
179	0x3ce458c2	0.027874354
180	0x3cbfd7c2	0.023418311
181	0xbcf1181a	-0.029430438
182	0x3cbeeffb	0.023307791
183	0x3d0201df	0.031740066
184	0xbcaecc9f	-0.021337805
185	0x3cd0472c	0.025424562
186	0xbc5302e0	-0.012879103
187	0xbcd7675a	-0.026294399
188	0x3cc8f1da	0.024529386
189	0xbc72bb2c	-0.014815133
190	0x3c834cf0	0.016027898
191	0xbc1c110d	-0.00952555
192	0x3cfa5af2	0.030560944
193	0x3d050cde	0.032482974
194	0xbcdcd725	-0.026958058
195	0x3cfedca4	0.031111069
196	0xbcbe5d16	-0.023237746
197	0x3cac01fe	0.020997044
198	0x3cada5cd	0.021197224
199	0xbc808c86	-0.015692007
200	0xbcee3398	-0.029077336
201	0x3d177787	0.036979225
202	0xbd0feb78	-0.03513667
203	0xbc64776a	-0.013944486
204	0x3b7d6998	0.0038667675
205	0xbca99830	-0.020702451
206	0x3c117c64	0.008879755
207	0xbc94006a	-0.018066604
208	0x3cddde94	0.027083673
209	0xbcbf689d	-0.023365313
210	0xbd2b24d1	-0.041783158
211	0xbd2c7c2d	-0.04211061
212	0xbd512466	-0.051060103
213	0x3d163e53	0.03668053
214	0x3d5f8c01	0.054576878
215	0xbc12b1b6	-0.008953502
216	0x3cdfb9e8	0.027310327
217	0xbce584c9	-0.028017418
218	0x3d5f8eb2	0.054579444
219	0xbd1870cc	-0.037216946
220	0x3d01b482	0.031666286
221	0x3ccf439f	0.025300799
222	0x3d449b60	0.04799974
223	0xbd11999f	-0.035546895
224	0x3cb2c76d	0.02182361
225	0xbd1be4f6	-0.03806015
226	0x3d075f48	0.03304985
227	0x3cb53910	0.022121936
228	0x3ce4c90b	0.027927896
229	0x3ccdbfa4	0.025115795
230	0x3d092bac	0.033488914
231	0xbc9780b8	-0.018493995
232	0xbcdc9dbe	-0.026930686
233	0x3cbd9d2e	0.023146238
234	0x3d27cc12	0.0409661
235	0x3c312044	0.010810915
236	0xbc872f36	-0.016502004
237	0xbcc9b025	-0.024620125
238	0x3d0c7cc4	0.034298673
239	0x3cd32592	0.02577475
240	0xbd2c0b74	-0.04200311
241	0x3c946238	0.01811324
242	0x3c9b6167	0.018967343
243	0x3bea5753	0.007151523
244	0xbc882cf2	-0.016622994
245	0x3d2eb201	0.042650227
246	0x3bfc71ac	0.0077039804
247	0x3d3ae078	0.045624226
248	0x3c6ab6f2	0.014325844
249	0xbd1c2a65	-0.038126368
250	0xbd003b8f	-0.0313068
251	0x3d1874f4	0.03722091
252	0x3cf90a37	0.030400379
253	0x3d15b5bb	0.036550265
254	0x3d02d369	0.031939898
255	0xbd1a5f72	-0.03768868

action_model._discrete_distribution.branches.0.bias f4 [3]
0	0xba2f2594	-0.000668132
1	0x3b03a6a5	0.0020088342
2	0xbab16080	-0.0013532788

action_model._discrete_distribution.branches.0.weight f4 [3, 256]
0	0xbabaa092	-0.0014238528
1	0x3bb0a6f8	0.005390998
2	0x3b0aef44	0.0021199742
3	0xb9be868c	-0.0003633987
4	0x3bedb56e	0.007254294
5	0x3beb8efa	0.007188675
6	0x3a682b56	0.0008856555
7	0xbc004e50	-0.007831171
8	0xbb4a81dc	-0.0030900156
9	0xbc8d184b	-0.017223498
10	0xbb5723f5	-0.0032827829
11	0xbc6e74d0	-0.014554217
12	0x3c3e0ed1	0.011600212
13	0x3c38db38	0.011282735
14	0xbcceb581	-0.025233032
15	0x3b8dc5fe	0.004326581
16	0xbbceaf11	-0.0063074906
17	0xbc368173	-0.011139262
18	0x3b8313ab	0.0040001473
19	0x3b2e56ab	0.002660195
20	0xbb191297	-0.0023357028
21	0xbc314927	-0.0108206635
22	0xbb2d7e01	-0.002647281
23	0xba81120d	-0.0009847298
24	0xbc4c67d9	-0.012475931
25	0x3b069c62	0.0020539989
26	0x3b14f652	0.0022729826
27	0x398c86fc	0.00026803452
28	0xbb954992	-0.0045558894
29	0x3baa57e1	0.0051984643
30	0xbbc29c88	-0.00593907
31	0xbb46991a	-0.0030303658
32	0xbbf061f6	-0.0073358966
33	0xbb90d566	-0.0044199703
34	0x3c512c5e	0.012766926
35	0xbabd4a28	-0.0014441656
36	0x3bd75849	0.0065718037
37	0xbc899a0a	-0.016797084
38	0x3b812499	0.0039411304
39	0x3bd19717	0.006396185
40	0x3bddba67	0.0067666057
41	0xbc33144a	-0.01093013
42	0x3bf0e19f	0.007351115
43	0x3c278c5a	0.0102263335
44	0xbc91ed9c	-0.017813496
45	0xbca061dd	-0.019577915
46	0xba70e37f	-0.0009189173
47	0x3c42928d	0.011875761
48	0xb79bda83	-1.8579192e-05
49	0xbc3eda08	-0.011648662
50	0x34765f19	2.2945132e-07
51	0x3892f2c5	7.007042e-05
52	0xbb99d77f	-0.0046948786
53	0xbc01b9b5	-0.007917811
54	0x3bd9b299	0.006643605
55	0x3b2f7cdd	0.0026777305
56	0xbb397e5f	-0.0028304083
57	0x3bb5d3d9	0.005548936
58	0xbc509bf7	-0.012732497
59	0x3c2dc7f5	0.0106067555
60	0x398777cf	0.0002583847
61	0x3bc4d901	0.006007314
62	0xbbb3eb1b	-0.0054906732
63	0x3bc386eb	0.005967011
64	0x3b8be1a5	0.0042688423
65	0x3c1c9e20	0.009559184
66	0xbc161b38	-0.009161763
67	0x3b67dbc6	0.0035378798
68	0xbc12dbac	-0.008963507
69	0xbc9f55d1	-0.0194501
70	0x3ba5eed3	0.0050638705
71	0x3bf16aec	0.0073674824
72	0x3b7bf5c8	0.0038446058
73	0xbc79158b	-0.01520289
74	0xbc20b7b2	-0.009809421
75	0x3b68f9dd	0.003554932
76	0xbc540ce5	-0.012942527
77	0xbc199edc	-0.009376254
78	0x3bb9573c	0.005656151
79	0xbba8af3d	-0.005147843
80	0xbc3d3bbe	-0.011549888
81	0x3ba2c992	0.0049678767
82	0x3bdb68d3	0.0066958456
83	0xbb42e972	-0.0029741195
84	0x3b912770	0.00442975
85	0x3c4494ee	0.011998398
86	0xbb1b51f4	-0.002369997
87	0xbc4390ad	-0.011936349
88	0x3c47debb	0.012199099
89	0x3bb746d9	0.0055931625
90	0xbb349d4e	-0.0027559581
91	0xbaccf824	-0.0015637917
92	0x3b672b6e	0.003527369
93	0x3b28f14d	0.0025778592
94	0x3a981c12	0.0011605045
95	0xbbc73b5e	-0.006080075
96	0xbb720045	-0.003692643
97	0xbb2605ee	-0.0025333124
98	0xba9204a9	-0.0011140305
99	0x3926db34	0.00015912653
100	0xbb11c1db	-0.002224079
101	0x3c7a88ba	0.015291387
102	0x3b392d37	0.002825571
103	0xb901ba2a	-0.0001237175
104	0xbc07daf7	-0.008291951
105	0xbb8426d8	-0.004032951
106	0x3a6f9747	0.00091396685
107	0x3b0e7047	0.0021734403
108	0xbc2a2e78	-0.010387056
109	0x3a61f522	0.00086195965
110	0x3c100d07	0.008792168
111	0x3a72604e	0.0009245918
112	0x3ab7debe	0.0014028174
113	0xbc023002	-0.007946016
114	0x3c11e07b	0.008903618
115	0xbc19be01	-0.009383679
116	0x3bb9f4d3	0.0056749373
117	0xbb205c32	-0.0024469015
118	0xbc8db470	-0.017297953
119	0x3ba6c9f3	0.005089992
120	0x38b7626f	8.744455e-05
121	0xba8aaf8d	-0.0010580883
122	0xbc8d0ebb	-0.017218938
123	0xbb051b69	-0.0020310527
124	0x3b0a5474	0.0021107467
125	0xbb331e80	-0.0027331412
126	0xbb1a35c3	-0.002353058
127	0x3c2fa910	0.01072146
128	0x3b9a718c	0.004713243
129	0x3a54e77f	0.0008121654
130	0xbadbf16e	-0.0016780326
131	0x3b5e153d	0.003388717
132	0xbadb8961	-0.0016749316
133	0x3c0f5ffa	0.00875091
134	0xbb232828	-0.002489576
135	0x3a803a54	0.0009783008
136	0x3b99a75c	0.0046891402
137	0xbb4e50f0	-0.0031481348
138	0xbaf1231d	-0.0018397305
139	0xbc3282c1	-0.010895432
140	0xbbe6c4dd	-0.007042511
141	0x3b4b000e	0.0030975374
142	0x3c84483d	0.016147727
143	0xbb1b1892	-0.0023665768
144	0xbb635340	-0.0034687072
145	0x3c458078	0.012054555
146	0x3bfd9b94	0.0077394936
147	0xbc114c4a	-0.008868286
148	0x3bafa1c5	0.0053598606
149	0xbba55bad	-0.005046329
150	0xbad81833	-0.0016486704
151	0xb9a876ee	-0.00032132067
152	0x3b0bb345	0.002131657
153	0xbb416b8a	-0.0029513561
154	0xbba7eab8	-0.005124416
155	0xbb0c5dfd	-0.0021418326
156	0xbbf9aaba	-0.007619229
157	0x3bcd7e2c	0.0062711444
158	0x3ba802c3	0.0051272823
159	0x39f36cd6	0.0004642966
160	0xb7ca1304	-2.4089131e-05
161	0x3c87b3da	0.016565252
162	0xbb1fee8a	-0.0024403655
163	0xbbf4817a	-0.007461724
164	0x3c01ac3e	0.007914601
165	0x3b7b7bf8	0.0038373452
166	0xb9d9cef5	-0.0004154366
167	0x3c096ae2	0.008387299
168	0x3b310855	0.0027013023
169	0xbb44d99d	-0.0030036934
170	0xbb19cd06	-0.002346815
171	0xbc5ea12a	-0.013588229
172	0xbbd79442	-0.006578953
173	0xbb72c39e	-0.0037042866
174	0x3c934cc5	0.017980943
175	0x3b8062ee	0.0039180433
176	0xbb649f8c	-0.0034885136
177	0x3c1f7ff5	0.009735097
178	0xbbf54343	-0.007484825
179	0xbc314221	-0.010818989
180	0xba7f9445	-0.0009749572
181	0x3b31a738	0.0027107727
182	0xbc4903aa	-0.01226894
183	0xbb37e5d6	-0.0028060577
184	0x3b6ff335	0.0036613469
185	0x3abaa1ea	0.0014238928
186	0x3b39f4ca	0.0028374665
187	0xb9f3301a	-0.0004638441
188	0xbc28e6b8	-0.010308914
189	0xbc03d2d4	-0.008045871
190	0x3baff4ac	0.0053697433
191	0x3c452e1d	0.01203492
192	0xbc8aec8b	-0.016958496
193	0xba8aceeb	-0.0010590231
194	0x3bab33f5	0.0052246996
195	0xbc7eafb6	-0.015544822
196	0xbbaaa731	-0.005207919
197	0x3b1dc0f8	0.0024071317
198	0xbc038397	-0.008026979
199	0x3c50d988	0.012747176
200	0x3c168f27	0.009189404
201	0x3c0a9d7d	0.0084604
202	0xbc365553	-0.011128741
203	0x3b292b36	0.002581311
204	0x3b8f72e7	0.004377711
205	0xbb9b5ca7	-0.0047412696
206	0xba480831	-0.0007630615
207	0xbbc49172	-0.0059987837
208	0x3bb3f2be	0.0054915836
209	0x3bd40ae7	0.006471026
210	0x3b935420	0.0044961125
211	0x3bd1786f	0.0063925306
212	0x3b32a5db	0.0027259502
213	0x3c647e8d	0.013946188
214	0xbc5499ff	-0.012976169
215	0xbc5fe1b3	-0.013664651
216	0x39922eeb	0.00027882247
217	0xbb59794e	-0.0033183875
218	0x3b2ef5df	0.0026696844
219	0xbb4f8dac	-0.0031670136
220	0xbb988ae4	-0.004655229
221	0xbbd8bc76	-0.006614263
222	0x3aa9575b	0.0012919711
223	0xbb94d899	-0.004542422
224	0x3c2143b2	0.0098428
225	0x38368fe0	4.3526175e-05
226	0x3b9144db	0.004433257
227	0x3acee12c	0.0015783659
228	0x3b65fe70	0.0035094284
229	0xbb67d81f	-0.003537662
230	0xbb8bae04	-0.0042626876
231	0xbb364fc1	-0.0027818533
232	0xba905c3e	-0.0011013818
233	0xbab9a965	-0.0014164863
234	0xbbee53dd	-0.007273181
235	0xba6805d6	-0.0008850967
236	0x3bc70369	0.0060734046
237	0x3ac7537f	0.0015207379
238	0xbb3c303c	-0.0028715273
239	0xbc24f741	-0.010068716
240	0x3babef83	0.005247058
241	0xbb70b119	-0.0036726652
242	0xbc55d579	-0.013051384
243	0x3b5c75bd	0.0033639513
244	0x3b466c83	0.003027708
245	0x3b2dda96	0.0026527992
246	0xbaa2f96e	-0.0012433955
247	0xbc40a811	-0.01175882
248	0x3853c2d7	5.048778e-05
249	0xbb9af5ad	-0.004728994
250	0x3b704759	0.003666362
251	0xbbbbf2ad	-0.0057357163
252	0xbc335255	-0.010944922
253	0x393b46b2	0.00017860046
254	0x3c2d6849	0.010583946
255	0xbc447034	-0.011989642

network_body._body_endoder.seq_layers.0.bias f4 [256]
0	0xbc67fd13	-0.014159459
1	0x3d05a756	0.032630287
2	0xbcdc63f3	-0.026903128
3	0xbcf3e31d	-0.029771382
4	0xbcaf29c4	-0.02138222
5	0x3ccb28fa	0.024799813
6	0x3ce523bb	0.02797114
7	0x3cc43123	0.023949211
8	0x3ce73100	0.028221607
9	0xbacde520	-0.0015708543
10	0xbd11eb2b	-0.035624664
11	0x3cd4159c	0.02588921
12	0x3cd8b1a1	0.026451888
13	0x3ce0b6e4	0.027430959
14	0x3cf89a95	0.030347148
15	0x3cda244b	0.026628634
16	0x3ca5f225	0.020257065
17	0x3d065d54	0.03280385
18	0x3c886328	0.016648844
19	0xbcb8e050	-0.022567898
20	0x3cf86041	0.030319335
21	0xbd00af1b	-0.031416994
22	0x3cc8a5af	0.024493067
23	0xbce082c5	-0.027406106
24	0x3c842b78	0.016134009
25	0xbc660321	-0.014038832
26	0x3cfe3ad5	0.031033913
27	0x3ce34d63	0.027746862
28	0x3ced9096	0.028999608
29	0x3ce2953d	0.027659053
30	0x3cdb47bc	0.026767604
31	0xbca4502a	-0.020057756
32	0x3cf3b8d0	0.029751211
33	0x3ce05881	0.027385952
34	0x3c497a9c	0.012297299
35	0xbcc8dfb8	-0.02452074
36	0x3cb5405f	0.022125421
37	0x3cc0cbea	0.023534734
38	0xbca5c112	-0.020233665
39	0xbcabf6f3	-0.020991778
40	0x3cec8770	0.028873175
41	0xbcccbab5	-0.024991373
42	0xbad66a05	-0.00163585
43	0xbaa6066a	-0.0012666706
44	0x3cfbc185	0.030731926
45	0xbcc1d769	-0.023662286
46	0x3d08a074	0.033356145
47	0x3cd0acdf	0.025473056
48	0x3cc2f4c7	0.02379836
49	0x3cb9285e	0.022602256
50	0x3bf16f3d	0.007367997
51	0xbca8b024	-0.020591803
52	0x3c7e3771	0.015516148
53	0x3cd12b4b	0.025533339
54	0xbcc93de8	-0.024565652
55	0x3ccf7bde	0.02532762
56	0x3ce8f6c7	0.028437985
57	0x3cfc1ff3	0.030776953
58	0x3c949300	0.018136501
59	0x3cf4c6fd	0.029880041
60	0xbc30fb8f	-0.010802164
61	0x3cdfc5cb	0.027315995
62	0xbcd229c8	-0.025654688
63	0xbcf32614	-0.029681243
64	0x3cc76bca	0.02434339
65	0x3ce0b34d	0.027429247
66	0xbcc4070b	-0.02392914
67	0xbcc14999	-0.023594664
68	0x3ce2b673	0.02767489
69	0x3caed213	0.021340406
70	0x3a9d175c	0.0011985111
71	0x3cfea1aa	0.031082947
72	0x3c2aba2c	0.010420363
73	0xbce0facb	-0.027463337
74	0x3cf27c76	0.029600363
75	0xbcb6acc0	-0.02229917
76	0x3b9f756c	0.0048662927
77	0xbcb87bec	-0.022520028
78	0x3c198d5a	0.00937208
79	0xbca3e849	-0.020008223
80	0x3cd3354c	0.02578225
81	0x3c965708	0.018352047
82	0x3ccab5fe	0.024744984
83	0xbcecca89	-0.02890517
84	0x3c8ea36d	0.017411912
85	0x3cf2d16e	0.02964088
86	0xbc1d376f	-0.009595736
87	0x3cb8049a	0.022463132
88	0xbb693043	-0.0035581745
89	0x3d0cdf29	0.03439251
90	0x3cf20a36	0.029545885
91	0xba46f8d9	-0.0007590182
92	0x3ce12262	0.027482215
93	0x3ceecc0c	0.029150032
94	0x3cf6dc6b	0.0301344
95	0x3b68fc31	0.0035550708
96	0x3c037585	0.008023624
97	0x3cf9ef38	0.030509576
98	0x3cdbc132	0.026825521
99	0xbba857d7	-0.0051374245
100	0xbcf50856	-0.029911201
101	0x3ce44053	0.027862703
102	0x3cd5e334	0.026109315
103	0x3d0217e7	0.031761076
104	0x3cf2abb6	0.029622894
105	0x3cafd523	0.021463936
106	0x3cda4e3a	0.02664863
107	0x3ce6639b	0.028123667
108	0x3cc87882	0.024471525
109	0xbcd66e87	-0.02617575
110	0xbc9c68fd	-0.019093031
111	0x3d04ee91	0.032454077
112	0x3cc8099c	0.024418645
113	0x3cae6960	0.021290481
114	0x3cd77555	0.026301065
115	0xbcadafcb	-0.021201989
116	0x3cf8925c	0.030343227
117	0xbce589c3	-0.028019791
118	0xbcc9e2ae	-0.024644222
119	0x3c90a9c3	0.017659074
120	0xbcd6b3cc	-0.02620878
121	0x3cc44495	0.023958484
122	0x3cad0378	0.021119818
123	0xbcd5dd21	-0.026106419
124	0xbc73e326	-0.014885699
125	0x3cf9db4f	0.030500082
126	0xbcc1879d	-0.023624236
127	0xbc640280	-0.013916612
128	0x3cd1aace	0.025594141
129	0x3cf007e7	0.029300643
130	0x3d0c9e55	0.034330685
131	0x3cda20ab	0.026626905
132	0x3cd8bddd	0.026457721
133	0x3ce32b23	0.02773053
134	0xbc9f0973	-0.019413685
135	0x3c18161b	0.009282614
136	0xbcbb14b7	-0.022837026
137	0x3cca693d	0.024708385
138	0xbcadc451	-0.021211775
139	0x3c792179	0.015205734
140	0x3cd43a33	0.025906658
141	0xbccacb88	-0.024755254
142	0x3cb8bf18	0.022552058
143	0xbcda2a69	-0.02663155
144	0x3cb80667	0.02246399
145	0xbbf7007c	-0.0075378995
146	0x3cbc60b8	0.022995338
147	0x3cde1e2d	0.027113998
148	0x3cd8fd94	0.026488103
149	0x3cc3d4fa	0.023905266
150	0xbcde9b2c	-0.027173601
151	0x3c23a3e2	0.009987803
152	0x3c4417eb	0.011968593
153	0x3b993b24	0.0046762396
154	0x3c8e3295	0.017358104
155	0x3cdb4369	0.026765542
156	0x3c611f87	0.013740427
157	0xbce886b0	-0.028384537
158	0x3ccf4732	0.025302503
159	0x3cf59162	0.02997655
160	0x3c3f3c21	0.011672051
161	0x3cc06ff0	0.023490876
162	0x3ce14b4e	0.027501728
163	0x3ccf0425	0.025270531
164	0x3ceeadf2	0.029135678
165	0x3d0523b2	0.032504745
166	0x3c26b2f8	0.010174505
167	0x3ce847a6	0.028354477
168	0xbcc13b04	-0.023587711
169	0x3cd0cb23	0.025487488
170	0x3cb54fb1	0.022132726
171	0x3cdf21f7	0.027237875
172	0xbca8805a	-0.020569015
173	0xbc83d4f3	-0.016092753
174	0x3ce64b5f	0.028112112
175	0x3cccaf30	0.02498588
176	0x3d027818	0.03185281
177	0xbcde5313	-0.027139222
178	0xbc8bd685	-0.017070064
179	0x3cf7d9b9	0.030255185
180	0x3ce272db	0.027642658
181	0xbc160636	-0.009156754
182	0x3ced7096	0.02898435
183	0x3d0ccf79	0.03437755
184	0x3c1e3db0	0.009658262
185	0x3cfc1876	0.030773383
186	0x3cdc1374	0.026864745
187	0x3ca95149	0.020668643
188	0x3ce1027f	0.02746701
189	0x3cffc232	0.03122053
190	0x3d07b378	0.03313014
191	0xbd0c9ddb	-0.03433023
192	0x3cea51d3	0.02860347
193	0xbc5bacc3	-0.013407889
194	0x3cef1613	0.02918533
195	0xbc2d2f74	-0.010570396
196	0xbc7027c3	-0.014657917
197	0x3cf3e882	0.029773954
198	0x3ca6221b	0.020279935
199	0x3c716c1d	0.014735249
200	0x3cc1a3e7	0.023637725
201	0x3ceaa85f	0.028644739
202	0x3ce635e6	0.028101873
203	0x3cdab74b	0.026698729
204	0x3ce25700	0.027629375
205	0x3cdc8c4c	0.026922368
206	0x3ccdbd16	0.025114577
207	0x39443eed	0.00018715458
208	0x3c8695f5	0.016428927
209	0x3d124e75	0.035719354
210	0x3ccf8502	0.025331978
211	0x3d03be08	0.03216365
212	0x3cd21e26	0.025649142
213	0x3bc3706d	0.00596433
214	0x3ca9cb38	0.020726785
215	0x3c53e221	0.012932331
216	0x3cab1607	0.020884527
217	0x3b829bf7	0.0039858776
218	0x3ce996b5	0.028514246
219	0x3d0f84de	0.03503882
220	0x3ce144d7	0.027498646
221	0x3cc45139	0.023964511
222	0x3cd6fe41	0.026244285
223	0x3c991cfb	0.018690577
224	0x3ce195ad	0.027537191
225	0x3c8f5c08	0.017499939
226	0xbca95743	-0.020671492
227	0x3cddce0b	0.027075788
228	0x3cd58f20	0.026069224
229	0xbc8077f5	-0.0156822
230	0x3cf875d6	0.030329626
231	0x3cd85cbc	0.026411407
232	0xbcb74344	-0.022370942
233	0xbcf08f75	-0.02936528
234	0x3ce5290e	0.027973678
235	0x3ce8f38d	0.028436447
236	0xbcdd5a6a	-0.027020652
237	0x3cf1cf87	0.029517902
238	0x3cc359fc	0.023846619
239	0x3cf9d2d2	0.030496035
240	0xbcab4fcf	-0.02091208
241	0x3cda91b0	0.026680797
242	0x3c92d999	0.017926024
243	0x3cadfac8	0.021237746
244	0x3cc84194	0.024445333
245	0x3ccdb57a	0.025110949
246	0x3ceb9d62	0.02876157
247	0x3ce92c67	0.028463555
248	0x3cb81b32	0.022473905
249	0x3ce0e2a5	0.027451823
250	0x3d10b59b	0.035329442
251	0x3cc62858	0.02418916
252	0x3cff74bc	0.031183593
253	0x3cf8e60d	0.030383134
254	0x3cbdc834	0.023166753
255	0x3d0df059	0.03465304

network_body._body_endoder.seq_layers.0.weight f4 [256, 345]
0	0x3dc6a809	0.09700019
1	0x3ca4b866	0.02010746
2	0xbca09706	-0.019603264
3	0xbd917a84	-0.07103446
4	0x3ce84f45	0.028358111
5	0xbd75207d	-0.059845436
6	0xbd633dad	-0.05547874
7	0x3bb44c90	0.005502291
8	0xbc36ce0a	-0.011157522
9	0xbd48c4d7	-0.049015846
10	0x3cbe0f45	0.02320064
11	0x3d454c5d	0.04816853
12	0x3d2bca4f	0.041940983
13	0xbcb65f72	-0.022262309
14	0x3aebcfb0	0.0017990973
15	0x3d18bedb	0.03729139
16	0x3c7bf94c	0.015379261
17	0x3db96e05	0.09054188
18	0xbc85d59c	-0.016337208
19	0xbd6bcbc9	-0.05756739
20	0x3c0a63ca	0.008446643
21	0x3ad4694b	0.0016205696
22	0x3b82867e	0.003983318
23	0xbce8395b	-0.028347662
24	0xbd849b16	-0.06474893
25	0xbcd11d21	-0.025526585
26	0x3d1a9d50	0.03774768
27	0x3d09c4c4	0.033634916
28	0xbb3bbfad	-0.0028648183
29	0x3e04c3be	0.12965295
30	0x3af881fa	0.0018959634
31	0xbd7b6c82	-0.061382778
32	0x3cf3bb7a	0.029752482
33	0x3d8ba85b	0.06819221
34	0xbcd8e7c4	-0.026477702
35	0x3d1e3e30	0.038633525
36	0x3bc3f1cd	0.0059797526
37	0xbdb7b4b8	-0.08970016
38	0xbc6daf5a	-0.014507139
39	0xbd11754e	-0.03551226
40	0xbd602f61	-0.054732684
41	0x3ccfcab0	0.025365204
42	0xbc0520e7	-0.00812552
43	0xbdae1226	-0.08499555
44	0xbcf11a18	-0.029431388
45	0x3bbdce49	0.0057924134
46	0xbbf2f30b	-0.007414227
47	0xbde194b5	-0.11014692
48	0x3cc07717	0.023494286
49	0x3d2b2d52	0.041791268
50	0x3abb66d1	0.001429761
51	0x3d4bb85e	0.049736373
52	0x3dc241a9	0.0948518
53	0x3ce377aa	0.027767021
54	0xbc102820	-0.008798629
55	0x3d84e0d3	0.06488194
56	0x3d10cfa0	0.035354257
57	0x3da55c15	0.08074204
58	0x3d6f19ee	0.058374338
59	0x3d5630c5	0.052292604
60	0x3d94cded	0.0726584
61	0x3bbd5b25	0.0057786875
62	0x3d9493db	0.07254764
63	0x3daa7a0f	0.08324062
64	0xbd3c2bb5	-0.04594012
65	0x3d64340c	0.0557137
66	0xbd5306f0	-0.051520288
67	0xbc25794d	-0.010099721
68	0x3d5f486d	0.05451243
69	0xbd3f8a89	-0.046762977
70	0x3d41d79d	0.047324765
71	0x3cb484d6	0.022035997
72	0x3d9e3976	0.077258036
73	0xbd8ab369	-0.06772501
74	0xbde4b873	-0.111679934
75	0x3cc1ea9a	0.023671437
76	0xbc912f9f	-0.017722903
77	0xbd9c66cb	-0.07636794
78	0xbd60d4e8	-0.054890543
79	0x3c13d168	0.009022094
80	0x3c0d6f57	0.0086325025
81	0x3d34c67c	0.044134602
82	0x3d12f106	0.03587439
83	0x3d37fca0	0.044918656
84	0xbcb6d7b8	-0.02231966
85	0x3c4e80a6	0.012603914
86	0xbd944027	-0.072387986
87	0xbd80c2e3	-0.06287172
88	0xbd31ba75	-0.04339071
89	0xbe130de8	-0.14360774
90	0x3c2a307d	0.010387537
91	0xbcf41062	-0.029792968
92	0xbd31be75	-0.043394525
93	0xbd4edc60	-0.050503135
94	0xbdc79651	-0.097454675
95	0x3d84f1c5	0.064914264
96	0x3c9e8f8c	0.019355558
97	0xbb7b9eaf	-0.0038394143
98	0x3d8d074f	0.0688616
99	0xba9c464a	-0.0011922803
100	0x3dae94a2	0.08524443
101	0x3d276181	0.04086447
102	0x3c29136d	0.010319573
103	0xbccce0ab	-0.025009474
104	0xbc2cf53f	-0.010556518
105	0x3c4d7f4c	0.012542557
106	0xbd251f33	-0.040312957
107	0x3d9aecec	0.075647205
108	0x3cb67b66	0.022275638
109	0x3c1532df	0.009106367
110	0x3dd5cbae	0.104392394
111	0x3c8ee23d	0.017441863
112	0x3bf65dc2	0.007518501
113	0xbe082ef6	-0.13299164
114	0xbcda81ee	-0.026673283
115	0x3d4f3de9	0.05059615
116	0x3d14c4a4	0.036320344
117	0x3c34de4d	0.011039329
118	0x3b612938	0.0034356844
119	0xbd016a41	-0.031595472
120	0x3d039b3b	0.03213046
121	0xbd8f76aa	-0.07005055
122	0x3db850d4	0.08999792
123	0xbdedd49d	-0.116128184
124	0xbc7738e9	-0.015089252
125	0x3d6abacd	0.057307053
126	0x3da26b87	0.079306655
127	0x3d9f7e43	0.077877544
128	0xbcefdc79	-0.029279934
129	0x3d3b367a	0.04570625
130	0x3cebeeb1	0.02880034
131	0x3d3769a1	0.04477847
132	0x3bc6ce05	0.00606704
133	0xbc54e2a4	-0.012993488
134	0xbda7fa47	-0.082020335
135	0xbcb7a494	-0.022417344
136	0x3d9369a5	0.071978845
137	0xbdea6a37	-0.1144604
138	0x3d0b2db4	0.033979133
139	0xbd0447f0	-0.032295167
140	0x3df204a4	0.118172914
141	0x3d289e45	0.041166563
142	0xbd6bc832	-0.057563968
143	0x3d75e9ea	0.06003753
144	0x3d039455	0.032123882
145	0x3bcc4505	0.0062338137
146	0xbd0226bb	-0.031775218
147	0x3d15bef5	0.036559064
148	0xbcf1c1c9	-0.02951135
149	0xbcb4d993	-0.022076404
150	0x3c29a11d	0.010353354
151	0xbc560877	-0.013063542
152	0xbdbba979	-0.09163184
153	0xb9b40d0b	-0.00034341993
154	0xb91503e7	-0.00014211201
155	0xbd2d7e96	-0.04235705
156	0x3d4417c4	0.047874227
157	0x3df5b82b	0.11998018
158	0x3d5ffed0	0.054686368
159	0x3ce592e4	0.028024144
160	0x3d0f0843	0.03491999
161	0xbcaf3009	-0.02138521
162	0xbbbc37f4	-0.005743975
163	0xbce6b3af	-0.028161852
164	0x3d959443	0.07303669
165	0xbd9a2ae4	-0.07527712
166	0x3de72a08	0.11287314
167	0xbc60c8b0	-0.013719723
168	0xbd994cf7	-0.07485383
169	0xbbcd52f0	-0.0062659904
170	0xbdaa7e5f	-0.083248846
171	0x3d8245b2	0.063609496
172	0x3dae2465	0.085030355
173	0xbd93165f	-0.07182001
174	0x3d25993e	0.040429346
175	0xbc248696	-0.010041853
176	0xbd8ddd0f	-0.06926929
177	0x3d91e149	0.07123048
178	0x3c0c5e56	0.008567413
179	0x3d554301	0.052065853
180	0xbc16fe05	-0.009215836
181	0x3a6519f3	0.00087395235
182	0x3c6e0457	0.014527402
183	0xbc3fab6e	-0.011698587
184	0x3d3327e1	0.043739203
185	0x3dc51506	0.096231505
186	0x3be803d0	0.0070805326
187	0xbbebaf91	-0.00719256
188	0x3b49ccaa	0.0030792155
189	0x3da4f909	0.08055312
190	0x3d5609f8	0.0522556
191	0xbd3d2dd6	-0.04618629
192	0x3caba216	0.020951312
193	0x3d7f510b	0.062333148
194	0xbc0ceb3f	-0.008601009
195	0x3d2c7b11	0.042109553
196	0xbbff27b3	-0.007786715
197	0x3d6f2335	0.058383185
198	0xbd4b14ba	-0.049580313
199	0x3b394b3d	0.0028273605
200	0x3c464e29	0.012103596
201	0xbd69bb52	-0.05706341
202	0x3df01e7d	0.11724565
203	0x3ce7380c	0.028224967
204	0xbd449cf5	-0.04800125
205	0xbb613354	-0.003436287
206	0x3d0e774b	0.034781735
207	0x3c8ef142	0.017449025
208	0xbca09709	-0.01960327
209	0xbd215d81	-0.039395813
210	0x3dbf7f36	0.093504354
211	0x3d0e3eb7	0.03472778
212	0x3c99f008	0.018791214
213	0x3d770fc0	0.060317755
214	0x3dcc1fac	0.099669784
215	0x3d893248	0.066990435
216	0xbe0f1f78	-0.13976848
217	0xbdb3bda9	-0.08776409
218	0xbc7fdf5a	-0.015617216
219	0x3d1cb65d	0.038259853
220	0xbd2c10dc	-0.042008266
221	0xbceed6fb	-0.029155245
222	0x3cf2a133	0.029617881
223	0x3d382878	0.04496047
224	0x3dc8bbc4	0.098014385
225	0xbc571aae	-0.0131289195
226	0xbd851153	-0.06497445
227	0xbd771b5b	-0.060328823
228	0xbc988d84	-0.018622167
229	0x3d2b6807	0.041847255
230	0xbcd12c25	-0.025533745
231	0x3cff9556	0.031199139
232	0xbc407af6	-0.011748066
233	0x3c91dd14	0.017805614
234	0x3c86d3e0	0.016458452
235	0x3d63b7cd	0.055595208
236	0x3cccd334	0.025003053
237	0x3b14586a	0.0022635707
238	0xbccb06d0	-0.024783522
239	0x3d4f6f42	0.050643213
240	0x3d1a569f	0.037680265
241	0x3cbd2bfb	0.02309226
242	0x3da178d5	0.07884375
243	0x3d742033	0.05960102
244	0xbd862f78	-0.06552023
245	0x3b49a250	0.0030766912
246	0xbdbac7e9	-0.09120161
247	0x3ce22759	0.027606653
248	0x3bcf3f3f	0.006324678
249	0x3ca09033	0.01960001
250	0xbd07482a	-0.033027805
251	0xbc094901	-0.008379222
252	0x3d371213	0.04469497
253	0xbc51956e	-0.0127919745
254	0xbbc0fb90	-0.0058893636
255	0x3c9a786b	0.018856248

network_body._body_endoder.seq_layers.2.bias f4 [256]
0	0x3cbfdcb6	0.023420673
1	0xbc96b45f	-0.018396555
2	0x3cdebe8f	0.027190475
3	0x3cbc3ef8	0.022979245
4	0xbc4923f3	-0.012276637
5	0x3cbf049c	0.023317628
6	0x3cc0880d	0.023502374
7	0x3cc3cb7f	0.023900745
8	0xbc852c98	-0.016256616
9	0x3cbe306e	0.023216452
10	0x3cc21e12	0.02369598
11	0x3cd9e0a1	0.02659637
12	0x3c94d32e	0.018167105
13	0xbc50a98f	-0.012735738
14	0x3cb9ac9a	0.02266531
15	0x3cc586a5	0.024112055
16	0xbc7feb47	-0.015620059
17	0x3cb4ad59	0.022055315
18	0x3c19ba33	0.009382772
19	0xbc92153f	-0.017832397
20	0xbc9af4a1	-0.018915476
21	0x3ccbf2f8	0.02489613
22	0x3cbe108f	0.023201255
23	0x3cd900c0	0.026489615
24	0x3ccc7f91	0.024963172
25	0x3cb6d552	0.022318516
26	0x3ce854dd	0.028360778
27	0x3ccef5ad	0.025263632
28	0xbc997f62	-0.018737499
29	0x3cd63e2a	0.026152689
30	0x3b9e55c2	0.0048320005
31	0x3cdc8988	0.026921049
32	0x3ccf84f6	0.025331955
33	0xbca0fba2	-0.019651238
34	0x3c95e758	0.01829879
35	0xbc848772	-0.016177867
36	0xbca42781	-0.020038368
37	0x3ca90b63	0.020635312
38	0x3cbf1146	0.023323666
39	0xbb6d5e37	-0.0036219487
40	0xbc94ebd1	-0.018178852
41	0x3cbfc30c	0.023408435
42	0x3ccc1aaf	0.024915067
43	0xbca0af40	-0.019614816
44	0xbca7c25b	-0.020478418
45	0xbb06bfb4	-0.0020561041
46	0x3cca0b7c	0.02466368
47	0xbc9e579f	-0.01932889
48	0x3c79fa1f	0.015257387
49	0x3ccda399	0.025102424
50	0xbcc4e8fb	-0.024036875
51	0xbc93edfe	-0.01805782
52	0x3cbda58e	0.023150232
53	0x3ccbd779	0.024883019
54	0xbcb93376	-0.022607546
55	0x3cb24289	0.021760242
56	0xbcaf1e1a	-0.021376658
57	0xbc00b0ed	-0.007854682
58	0x3cc9004c	0.024536274
59	0xbc4f99de	-0.012670962
60	0x3cba1f1f	0.022719918
61	0x3cba13dd	0.02271455
62	0xbc97c288	-0.018525377
63	0xbc8ed6b5	-0.017436365
64	0x3cbfd1f5	0.023415545
65	0xbc9c17e4	-0.01905436
66	0x3b05674d	0.0020355762
67	0x3bf990c2	0.0076161334
68	0x3cf635b6	0.030054908
69	0x3cb47c81	0.022032024
70	0xbc96713e	-0.018364545
71	0x3cbbcbb1	0.022924276
72	0xbcd9242a	-0.026506502
73	0xbb18e971	-0.0023332501
74	0x3cd08ff3	0.025459265
75	0x3ca52299	0.020158099
76	0x3ca91364	0.020639129
77	0x3cb77c83	0.022398239
78	0x3ccb42ea	0.02481218
79	0x3cc0ef80	0.023551702
80	0x3cdb9a92	0.026807103
81	0xbca47377	-0.02007459
82	0xbca09967	-0.019604398
83	0x3cc696e0	0.024241865
84	0xbc9e7326	-0.019342016
85	0xbcac6cbd	-0.021047944
86	0x3ccd0ac4	0.025029548
87	0x3cd15dbd	0.025557393
88	0x3cd70d18	0.02625136
89	0xbcb0ba05	-0.021573076
90	0xbcb96a2d	-0.022633636
91	0x3cb3d58a	0.02195241
92	0xbc880b52	-0.01660696
93	0xbc2e58f2	-0.010641323
94	0x3cb623bc	0.022233836
95	0x3cd4c80e	0.0259743
96	0xbc95456e	-0.018221583
97	0xbc8f634c	-0.017503403
98	0xbc8256d8	-0.015910551
99	0x3d017b63	0.03161181
100	0xbca4633f	-0.020066855
101	0xbca7f0c5	-0.02050055
102	0xbca5eb0e	-0.020253684
103	0xbcb19487	-0.021677269
104	0x3cc22edb	0.023703983
105	0xbcb7c3f2	-0.022432301
106	0x3caa91f6	0.020821553
107	0x3c982ea6	0.018576931
108	0x3ccbe7af	0.024890749
109	0xbc5c4a3e	-0.013445435
110	0xbc925bbb	-0.017866006
111	0x3cca41c6	0.024689566
112	0xbca7fbd5	-0.020505825
113	0xbca07900	-0.019588947
114	0xbc9c6b49	-0.019094126
115	0x3cba9f2b	0.022780975
116	0xbc92f430	-0.017938703
117	0x3cdca0e8	0.026932195
118	0x3cd25ff6	0.025680523
119	0xbcb4b7cb	-0.022060296
120	0xbca1679e	-0.019702729
121	0xbc4fa975	-0.012674679
122	0xbc99b446	-0.018762719
123	0x3cc978fc	0.024593823
124	0xbc99b6c9	-0.018763917
125	0xbc9f3cca	-0.019438166
126	0xbcc9ab7c	-0.024617903
127	0x3cd11a73	0.025525307
128	0x3cb1913a	0.021675695
129	0x3cd62786	0.026141893
130	0xbc86ea6f	-0.016469209
131	0x3ccb97f9	0.02485274
132	0xbc52318d	-0.012829197
133	0xbbba768e	-0.0056904024
134	0x3cdbc9c3	0.026829606
135	0x3cd22749	0.025653498
136	0x3b9fea05	0.004880192
137	0x3cf2d2b5	0.029641489
138	0x3cdc4c1e	0.026891764
139	0xbc9be7d3	-0.01903144
140	0x3cbd2f67	0.023093892
141	0x3c0c1a80	0.00855124
142	0xbc9ca3c4	-0.019121058
143	0x3cb79497	0.02240972
144	0xbc8e3287	-0.017358078
145	0x3cc53346	0.0240723
146	0xbc975aac	-0.018475853
147	0x3ccffa68	0.025387958
148	0xbcba453a	-0.022738088
149	0x3cbdb09d	0.023155505
150	0xbc920697	-0.017825408
151	0xbcb17dc8	-0.021666422
152	0x3ca2a5e3	0.019854492
153	0x3cc992d7	0.024606152
154	0x3cc62b5b	0.024190595
155	0x3cd7a02f	0.026321499
156	0x3cec3419	0.028833436
157	0xbc87232b	-0.016496262
158	0xbc9036a6	-0.017604183
159	0xbc833f22	-0.016021315
160	0x3ca02804	0.019550331
161	0xbc9f19b4	-0.019421436
162	0x3c229974	0.009924281
163	0x3cbd7fa2	0.02313215
164	0xbc90a05c	-0.01765459
165	0xbcb504da	-0.02209704
166	0x3cdb290a	0.026752967
167	0x3cb2939c	0.021798901
168	0x3ce84689	0.028353946
169	0x3cd02ec7	0.02541293
170	0x3cec9460	0.028879344
171	0x3cd91d24	0.026503153
172	0xbcb39dc0	-0.021925807
173	0xbc1c23d1	-0.009530024
174	0x3cc28a1c	0.023747496
175	0x3c0f7a3b	0.008757169
176	0xbcab59f1	-0.02091691
177	0xbca5e169	-0.020249086
178	0xbc911cfe	-0.01771402
179	0x3cecdeab	0.02891477
180	0x3cb1376c	0.021632873
181	0xbcb406a9	-0.021975832
182	0x3cbdbb68	0.023160651
183	0x3cd43ece	0.025908854
184	0xbcb0efaf	-0.021598665
185	0x3cd72fc3	0.026267892
186	0xbc8e9a43	-0.017407542
187	0xbcc226d9	-0.023700165
188	0x3cac4c72	0.021032546
189	0xbc90e742	-0.017688397
190	0x3ca5f787	0.020259632
191	0xbb3e91aa	-0.0029078522
192	0x3cb2d533	0.021830177
193	0x3cc15cf2	0.02360389
194	0xbc8ab830	-0.01693353
195	0x3cbf5e91	0.023360522
196	0xbca62e6b	-0.020285806
197	0x3cbeb7a2	0.023280922
198	0x3ca7d529	0.020487385
199	0xbc886532	-0.016649816
200	0xbc9fef9d	-0.019523436
201	0x3ccf38d9	0.025295662
202	0xbca06163	-0.019577688
203	0xbc848058	-0.01617448
204	0xbb6ed7b6	-0.0036444492
205	0xbcc4b42c	-0.024011694
206	0x3b9d1f1b	0.004794968
207	0xbcb8023b	-0.022462001
208	0x3cdeeb71	0.027211877
209	0xbcae70dc	-0.02129405
210	0xbc9dca1b	-0.01926141
211	0xbc9cee13	-0.019156491
212	0xbc798b74	-0.015231002
213	0x3ca72ff3	0.020408606
214	0x3cc9d599	0.024637984
215	0xbc6cdf0f	-0.014457478
216	0x3cce5cc6	0.025190722
217	0xbc950c5d	-0.018194372
218	0x3cd2520c	0.025673889
219	0xbc9cd70c	-0.019145511
220	0x3ce01692	0.027354512
221	0x3cc5d5f6	0.024149876
222	0x3cc3bfcf	0.023895172
223	0xbc9b1650	-0.018931538
224	0x3cd4dd09	0.025984304
225	0xbc6da00d	-0.014503491
226	0x3cd76c42	0.026296739
227	0x3cd3fe67	0.025878144
228	0x3cc2d35a	0.02378242
229	0x3d00fd87	0.031491783
230	0x3cb0005b	0.021484545
231	0xbc7a55e2	-0.015279265
232	0xbc9f2fdf	-0.019432006
233	0x3cc62b60	0.024190605
234	0x3cc31e10	0.023818046
235	0x3c869c4f	0.016431956
236	0xbccbc04c	-0.024871968
237	0xbcad6eab	-0.021170935
238	0x3cc0c1a0	0.023529828
239	0x3ce035f7	0.027369482
240	0xbca4c6c6	-0.020114314
241	0x3c863791	0.016383918
242	0x3cd4bfc5	0.02597035
243	0x3c7da45f	0.015481084
244	0xbca438b2	-0.020046566
245	0x3ccad35b	0.024758985
246	0x3c92ae03	0.01790524
247	0x3cd570ea	0.026054818
248	0x3cb9c7a7	0.02267821
249	0xbca34061	-0.01992816
250	0xbc93ce78	-0.018042788
251	0x3cc6d273	0.024270272
252	0x3cdbfc54	0.026853718
253	0x3cd81b7a	0.02638029
254	0x3cd93808	0.026515976
255	0xbc9a72c0	-0.018853545

network_body._body_endoder.seq_layers.2.weight f4 [256, 256]
0	0xbe02a684	-0.12758833
1	0x3da2a739	0.079420514
2	0xbd587613	-0.05284698
3	0xbd1f04c5	-0.038822908
4	0xbc1ac118	-0.009445451
5	0x3d2932e4	0.0413083
6	0x3d6b286e	0.057411604
7	0x3de55ecd	0.111997224
8	0xbd7e2fcd	-0.062057305
9	0x3c73e254	0.014885504
10	0x3d2f4d00	0.042798042
11	0xbce438b4	-0.02785907
12	0xbbf98204	-0.007614376
13	0x3dbf1885	0.093308486
14	0x3d041031	0.032242004
15	0xbcbb8c24	-0.022893973
16	0x3d99754a	0.07493074
17	0xbc101ef7	-0.008796445
18	0xb9174a6e	-0.0001442821
19	0x3d60ba02	0.05486489
20	0x3d0c6ec4	0.03428532
21	0xbcf798e9	-0.03022428
22	0xbd88b650	-0.06675398
23	0xbd8c5f1f	-0.068540804
24	0x3cbb9a3e	0.022900697
25	0x3d617178	0.055039853
26	0x3de7a62f	0.11310994
27	0x3d8f04d0	0.0698334
28	0x3d820695	0.06348912
29	0x3bce2e00	0.0062921047
30	0xbce6fa20	-0.02819544
31	0xbde7e8cb	-0.113236986
32	0xbcb532b1	-0.022118898
33	0x3d82489d	0.06361506
34	0xbcfee094	-0.031112947
35	0x3de3ee7f	0.11129474
36	0x3da89509	0.08231551
37	0xbcc4dc08	-0.0240307
38	0xbba934cf	-0.005163766
39	0xbdabaf44	-0.08383039
40	0x3d225288	0.03962949
41	0x3da78b6f	0.08180892
42	0x3d15e471	0.03659481
43	0x3cb14aa1	0.021642031
44	0x3cb3fdb8	0.021971568
45	0x3d14843c	0.03625892
46	0x3cae971a	0.021312285
47	0xbc8fc684	-0.017550714
48	0x3dc86643	0.0978513
49	0x3bee9bba	0.0072817476
50	0xbe35085f	-0.17678975
51	0xbcf87f64	-0.030334182
52	0xbe2021b6	-0.1563786
53	0x3df0ccf1	0.117578395
54	0xbd841f64	-0.064513
55	0xbcd60d8c	-0.026129507
56	0x3cd38a28	0.025822714
57	0xbcc91349	-0.024545329
58	0x3de28138	0.11059803
59	0x3b5fb24c	0.0034133373
60	0xbdb65229	-0.089023896
61	0x3db4b15e	0.088228926
62	0x3dfc7576	0.123270914
63	0xbd213a2a	-0.03936211
64	0x3c8e260c	0.017352127
65	0xbdb03c95	-0.08605305
66	0xbbedab67	-0.007253099
67	0x3da27ce3	0.079339765
68	0xbcdd8ad2	-0.027043734
69	0xbdb8191b	-0.089891635
70	0xbbb2e9d6	-0.0054600043
71	0x3d9bce72	0.07607736
72	0xbcb6d725	-0.022319386
73	0xbcd0a673	-0.025469994
74	0x3d1da96d	0.038491655
75	0x3d709931	0.058739845
76	0x3da04af0	0.07826793
77	0xbe148292	-0.14502934
78	0xbd531860	-0.051536918
79	0x3b30d1d2	0.0026980531
80	0x3d21779d	0.039420713
81	0x3d97e8c3	0.07417443
82	0x3c095803	0.0083828
83	0xbb80b64b	-0.003927981
84	0x3d86fe76	0.06591503
85	0x3dcecf41	0.10098124
86	0x3d381a96	0.04494723
87	0x3d5281cf	0.051393326
88	0xbb0acecf	-0.0021180396
89	0xbde6b157	-0.11264294
90	0x3cb75b2d	0.022382343
91	0xbdc4a861	-0.09602428
92	0x3d4f5026	0.050613545
93	0xbddc4f0d	-0.10757265
94	0x3d8f89f7	0.070087366
95	0xbdbc5f30	-0.09197843
96	0xbc6ce9d1	-0.014460043
97	0x3cdf3629	0.027247505
98	0xbcf0cae2	-0.029393617
99	0x3c3ffa82	0.011717441
100	0x3dced891	0.100999005
101	0x3c191df9	0.009345525
102	0x3ded2f91	0.11581338
103	0x3d1cf50b	0.03831963
104	0xbd1d887a	-0.038460232
105	0x3d4d6bc8	0.050151616
106	0xbd83932e	-0.06424557
107	0x3d1ba690	0.038000643
108	0x3ce2556d	0.027628625
109	0xbdcf341c	-0.10117361
110	0x3ca665da	0.020312238
111	0xbd1d7e0d	-0.03845029
112	0x3db144ed	0.08655725
113	0xbc511aa1	-0.0127626965
114	0x3d4ccc6d	0.049999643
115	0x3c9b7363	0.01897592
116	0x3cccec00	0.025014877
117	0x3c6c5c12	0.014426248
118	0x3c2c13e9	0.010502794
119	0x3c9ffb6f	0.019529073
120	0x3db7c9ac	0.08974013
121	0x3d0367ad	0.032081295
122	0xbcef3c60	-0.029203594
123	0x3bf06524	0.0073362757
124	0x3da411ee	0.08011232
125	0xbcd2e852	-0.025745545
126	0xbd6411ac	-0.055680916
127	0xbc3a3182	-0.011364343
128	0xbd23c09f	-0.03997862
129	0x3d64c201	0.05584908
130	0x3dd17bd4	0.102286965
131	0x3d55bfc6	0.052184843
132	0x3d5ef30f	0.054431017
133	0xbcc31652	-0.023814354
134	0x3c1a557d	0.009419796
135	0xbcbc9666	-0.023020934
136	0x3d90b8d4	0.07066503
137	0xbd3473d6	-0.044055782
138	0x3d5ab6fe	0.05339717
139	0xbd9846ec	-0.07435402
140	0xbcc54ac8	-0.02408351
141	0xbe0117b3	-0.12606697
142	0x3a252258	0.0006299368
143	0x3c0722c1	0.008248032
144	0xbd3fcf46	-0.04682853
145	0x3cf4f330	0.029901117
146	0xbd5b9720	-0.05361092
147	0x3e36b6e5	0.17843206
148	0x3e1621c6	0.14661321
149	0x3dae2cfc	0.08504674
150	0xbda11e5b	-0.07867118
151	0x3ddfaa81	0.10921193
152	0x3d6c2ac2	0.057657965
153	0x3ce10935	0.02747021
154	0x3c934b34	0.017980196
155	0xbd6cd275	-0.057817895
156	0x3d1caeaa	0.03825251
157	0x3c6de013	0.0145187555
158	0x3c63e5bf	0.013909756
159	0x3d86d486	0.065835044
160	0x3d942924	0.072344095
161	0x3cf595b0	0.029978603
162	0xbd33e5d1	-0.043920342
163	0xbbb2643e	-0.0054440787
164	0xbd1f9f5d	-0.03897034
165	0x3dcaa4cc	0.09894714
166	0x3d531cc6	0.051541112
167	0x3dedf503	0.11618998
168	0xbb92acff	-0.004476189
169	0xbd9e5ed7	-0.07732933
170	0xbd517347	-0.051135328
171	0xbd24377a	-0.04009197
172	0x3d091919	0.0334712
173	0xbd972a81	-0.07381154
174	0x3d1fa52d	0.038975883
175	0x3da17f39	0.07885594
176	0x3cbe65d9	0.023241924
177	0xbd73cc5b	-0.05952106
178	0xbd4cb25b	-0.04997478
179	0x3c9a0653	0.018801844
180	0x3c6b51b9	0.014362746
181	0xbd7dfb43	-0.0620072
182	0x3d990490	0.07471573
183	0xbda1bf10	-0.078977704
184	0x3d80d5e2	0.06290795
185	0xbccc999b	-0.024975589
186	0x3bb7f663	0.0056140884
187	0xbcebd9bf	-0.028790353
188	0x3d9456d1	0.072431214
189	0xbdcd154d	-0.100138284
190	0x3cb46996	0.022023004
191	0x3cab8dc3	0.02094162
192	0x3d2ec996	0.042672716
193	0xbc9b25db	-0.01893895
194	0x3d425a2d	0.04744928
195	0x3d6e61e2	0.058198817
196	0xbdaa86f4	-0.083265215
197	0x3c56dc50	0.01311405
198	0x3d2befb8	0.04197666
199	0xbd10714c	-0.0352643
200	0x3d2de730	0.042456806
201	0xbcc253c6	-0.023721587
202	0xbd069bf0	-0.032863557
203	0x3d13bc84	0.036068454
204	0xbd342280	-0.043978214
205	0xbc39ab73	-0.011332381
206	0x3dd59a38	0.104298055
207	0xbd379e36	-0.044828616
208	0x3d7b6090	0.061371386
209	0x3cd512c6	0.026009928
210	0x3d91bf2e	0.07116543
211	0x3cb2a00c	0.021804832
212	0x3c90916c	0.017647468
213	0x3db23b44	0.0870271
214	0xbce003e3	-0.027345603
215	0x3c73a6c2	0.014871301
216	0x3d83adc0	0.064296246
217	0xbd378200	-0.044801712
218	0xbdc5bfb3	-0.09655704
219	0x3d5fb117	0.054612245
220	0xbcd9da5b	-0.026593378
221	0xbd4deed3	-0.05027659
222	0x3ca4f885	0.020138035
223	0x3d8b9d0b	0.06817063
224	0xbc8902b7	-0.016724927
225	0xbd8680d0	-0.06567538
226	0xbb9a4900	-0.0047084093
227	0x3b8c6e68	0.0042856224
228	0x3b984284	0.004646601
229	0xbd43233e	-0.04764103
230	0xbd515113	-0.05110271
231	0x3c824e96	0.015906613
232	0x3d24f6ce	0.040274434
233	0xbd941d4d	-0.07232151
234	0x3ddc8492	0.10767473
235	0x3d0725c0	0.032994986
236	0xbcf0eb53	-0.029409086
237	0x3d696375	0.056979615
238	0x3e14216f	0.14465879
239	0x3da1268e	0.07868682
240	0xbda6ace3	-0.08138444
241	0x3cd2a98b	0.02571561
242	0x3db4d052	0.088287964
243	0xbcf87ab5	-0.030331949
244	0x3dc275e4	0.09495142
245	0x3db7512c	0.08951029
246	0x3d2544c0	0.04034877
247	0xbca4337d	-0.020044083
248	0xbcc56cd0	-0.024099737
249	0x3d984c7a	0.07436462
250	0xbe1305f2	-0.14357737
251	0x3d8bc00f	0.06823742
252	0x3d8727fd	0.06599424
253	0xbd1fa6ed	-0.038977552
254	0xbc5bac6c	-0.013407808
255	0xbd6a8729	-0.057257805
