Assets/NN/CharacterBehav 6.onnx (onnx, 631889 bytes, 11 tensors)

72 f4 [341]
0	0x3997591c	0.00028867356
1	0x3e6778ab	0.22604625
2	0x3cb9a4f4	0.022661664
3	0x3c0fc2dd	0.008774486
4	0x3db19bb5	0.08672277
5	0x3997591c	0.00028867356
6	0x3de2258d	0.110423185
7	0x3eb29cdc	0.348853
8	0x3997591c	0.00028867356
9	0x3efc9b7d	0.49337378
10	0x3ef3edad	0.4764227
11	0x3997591c	0.00028867356
12	0x3e0aca31	0.13553692
13	0x3cb9a4f4	0.022661664
14	0x3bc128a2	0.0058947364
15	0x3da04a3c	0.07826659
16	0x3997591c	0.00028867356
17	0x3deb6c30	0.114952445
18	0x3ef10efd	0.47081748
19	0x3cac906c	0.02106496
20	0x3efadca5	0.48996463
21	0x3ef29334	0.47377932
22	0x3997591c	0.00028867356
23	0x3e4331e9	0.19062008
24	0x3cb9a4f4	0.022661664
25	0x3bd886a5	0.0066078478
26	0x3da1801a	0.078857616
27	0x3997591c	0.00028867356
28	0x3dcc1d76	0.09966557
29	0x3eeb7d53	0.45994052
30	0x3bfab797	0.00765128
31	0x3efe2917	0.49640724
32	0x3ef3ce81	0.47618487
33	0x3997591c	0.00028867356
34	0x3dbfcf96	0.09365766
35	0x3cb9a4f4	0.022661664
36	0x3c0a7388	0.008450396
37	0x3d8de4c1	0.06928397
38	0x3997591c	0.00028867356
39	0x3dea384b	0.11436518
40	0x3efcb7fb	0.49359116
41	0x3cf3f70d	0.029780889
42	0x3eef6032	0.4675308
43	0x3ee8870b	0.4541553
44	0x3997591c	0.00028867356
45	0x3dce0eb3	0.100613974
46	0x3cb9a4f4	0.022661664
47	0x3b8817ec	0.0041532423
48	0x3d8e0c63	0.06935956
49	0x3997591c	0.00028867356
50	0x3db997ff	0.09062194
51	0x3efd5a03	0.49482736
52	0x3d054ce1	0.03254402
53	0x3ef375c0	0.47550774
54	0x3ee94457	0.45559952
55	0x3997591c	0.00028867356
56	0x3dd09778	0.1018514
57	0x3cb9a4f4	0.022661664
58	0x3c11c4ed	0.008897048
59	0x3d7f3aac	0.062311813
60	0x3997591c	0.00028867356
61	0x3de6f983	0.11278059
62	0x3eeafbba	0.45895177
63	0x3d5ef578	0.054433316
64	0x3e3cf09e	0.18451163
65	0x3e3ba848	0.18325913
66	0x3997591c	0.00028867356
67	0x3d2c1e11	0.04202086
68	0x3cb9a4f4	0.022661664
69	0x3b7535a2	0.0037416
70	0x3d73faa2	0.059565194
71	0x3997591c	0.00028867356
72	0x3d8d395e	0.068957075
73	0x3efd7792	0.49505287
74	0x3edc2696	0.4299819
75	0x3e487ef2	0.19579676
76	0x3e42e557	0.19032799
77	0x3997591c	0.00028867356
78	0x3db461c9	0.088077135
79	0x3cb9a4f4	0.022661664
80	0x3be814c1	0.007082552
81	0x3d73ee85	0.05955364
82	0x3997591c	0.00028867356
83	0x3deae4f2	0.11469449
84	0x3ee71de7	0.4514
85	0x3d5ef578	0.054433316
86	0x3e04374d	0.1291172
87	0x3e066f6f	0.13128446
88	0x3997591c	0.00028867356
89	0x3cfcdffe	0.030868527
90	0x3cb9a4f4	0.022661664
91	0x3b24ed52	0.0025165868
92	0x3d6faf32	0.05851669
93	0x3997591c	0.00028867356
94	0x3d8e6132	0.06952132
95	0x3ef7d7b8	0.48406768
96	0x3edc2696	0.4299819
97	0x3e076a79	0.1322421
98	0x3e074a1c	0.13211864
99	0x3997591c	0.00028867356
100	0x3d9cd613	0.07658019
101	0x3cb9a4f4	0.022661664
102	0x3b8311e2	0.0039999345
103	0x3d648231	0.055788223
104	0x3997591c	0.00028867356
105	0x3df75ee3	0.12078645
106	0x3ee984dd	0.4560918
107	0x3d5ef578	0.054433316
108	0x3dd8afae	0.10580383
109	0x3de216ad	0.11039481
110	0x3997591c	0.00028867356
111	0x3c9b0164	0.018921562
112	0x3cb9a4f4	0.022661664
113	0x3997591c	0.00028867356
114	0x3d778b81	0.060435776
115	0x3997591c	0.00028867356
116	0x3da5ef9f	0.08102345
117	0x3ef7ef42	0.48424727
118	0x3edc2696	0.4299819
119	0x3ddd2f73	0.10800066
120	0x3de30f90	0.11086953
121	0x3997591c	0.00028867356
122	0x3d8c0edc	0.06838772
123	0x3cb9a4f4	0.022661664
124	0x3b1e4865	0.0024152037
125	0x3d635e0e	0.05550962
126	0x3997591c	0.00028867356
127	0x3df2138b	0.11820134
128	0x3eebff1b	0.46093068
129	0x3d5ef578	0.054433316
130	0x3dbf0799	0.09327621
131	0x3dcfa557	0.10138958
132	0x3997591c	0.00028867356
133	0x3c709155	0.014683087
134	0x3cb9a4f4	0.022661664
135	0x3997591c	0.00028867356
136	0x3d654976	0.05597826
137	0x3997591c	0.00028867356
138	0x3dbcc21b	0.0921671
139	0x3ef53b3f	0.47896764
140	0x3edc2696	0.4299819
141	0x3dc0bd4f	0.09411108
142	0x3dcd47da	0.1002347
143	0x3997591c	0.00028867356
144	0x3d7eff00	0.062254906
145	0x3cb9a4f4	0.022661664
146	0x3cd5a8d6	0.026081484
147	0x3d6313e7	0.055438902
148	0x3997591c	0.00028867356
149	0x3e202ab1	0.15641285
150	0x3eee85be	0.46586412
151	0x3d5ef578	0.054433316
152	0x3de22dc8	0.11043888
153	0x3e068805	0.13137825
154	0x3997591c	0.00028867356
155	0x3c6bbbba	0.014388019
156	0x3cb9a4f4	0.022661664
157	0x3ba2771a	0.0049580457
158	0x3d5c2721	0.053748254
159	0x3997591c	0.00028867356
160	0x3ddcfb2e	0.10790096
161	0x3ef38a22	0.47566324
162	0x3edc2696	0.4299819
163	0x3dc7205c	0.09722969
164	0x3dd6b320	0.10483384
165	0x3d140b84	0.036143795
166	0x3d57df7b	0.052703362
167	0x3e81607f	0.25268933
168	0x3d772119	0.0603343
169	0x3d6313e6	0.0554389
170	0x3997591c	0.00028867356
171	0x3de1a118	0.11017054
172	0x3ef80ea6	0.48448676
173	0x3d5c1a24	0.053735867
174	0x3dbc8a4c	0.092060655
175	0x3dc07b74	0.09398547
176	0x3d379a02	0.044824608
177	0x3c5ad023	0.013355288
178	0x3e95c2d3	0.29250202
179	0x3e02ec90	0.12785554
180	0x3d5c2721	0.053748254
181	0x3997591c	0.00028867356
182	0x3d8ed206	0.069736525
183	0x3efe330c	0.4964832
184	0x3edc009d	0.42969218
185	0x3dbc61dc	0.09198353
186	0x3dbd8c0a	0.09255226
187	0x3d7c8086	0.061646007
188	0x3d1f0527	0.038823273
189	0x3ea79f3e	0.3273868
190	0x3de6662f	0.11249959
191	0x3d6313e6	0.0554389
192	0x3997591c	0.00028867356
193	0x3ded54d6	0.11588447
194	0x3efd0942	0.49421126
195	0x3d573c58	0.052547783
196	0x3dbc0e30	0.091823936
197	0x3dbfbe02	0.09362413
198	0x3d8423de	0.064521536
199	0x3c0e6d51	0.008693055
200	0x3eab4cba	0.33456975
201	0x3e18bb4b	0.14915197
202	0x3d5c2721	0.053748254
203	0x3997591c	0.00028867356
204	0x3d93b73b	0.07212683
205	0x3efe8301	0.49709323
206	0x3edbef4a	0.42956
207	0x3dbc0e30	0.091823936
208	0x3dc014a9	0.093789406
209	0x3d86fea1	0.06591535
210	0x3d10d74f	0.035361584
211	0x3eacddaa	0.33762866
212	0x3dff8918	0.124773204
213	0x3d6313e6	0.0554389
214	0x3997591c	0.00028867356
215	0x3df44de8	0.11928922
216	0x3efe7fc4	0.49706852
217	0x3d5547a2	0.052070267
218	0x3dbc0e30	0.091823936
219	0x3dbf0638	0.09327358
220	0x3d89bf6e	0.067259654
221	0x3c18a935	0.009317686
222	0x3eaef874	0.3417393
223	0x3e1b72ca	0.15180507
224	0x3d5c2721	0.053748254
225	0x3997591c	0.00028867356
226	0x3d9b1aed	0.07573495
227	0x3efce4d2	0.49393326
228	0x3edbdb8a	0.42940933
229	0x3dbc0e30	0.091823936
230	0x3dc0873a	0.094007924
231	0x3d8f9907	0.070116095
232	0x3d042afc	0.032267556
233	0x3eb01958	0.34394336
234	0x3e0e3eed	0.13891192
235	0x3d630383	0.05542327
236	0x3997591c	0.00028867356
237	0x3dfb8f56	0.122831985
238	0x3effbe23	0.4994975
239	0x3d5325f1	0.051549856
240	0x3dbc0e30	0.091823936
241	0x3dbeb3cd	0.09311638
242	0x3d8c9f61	0.068663366
243	0x3ca03da3	0.01956064
244	0x3eb0ae23	0.34507856
245	0x3e1ef175	0.15521796
246	0x3d5c2721	0.053748254
247	0x3997591c	0.00028867356
248	0x3da2a906	0.07942395
249	0x3ef5bd34	0.47995913
250	0x3edb96cd	0.4288849
251	0x3dbc0e30	0.091823936
252	0x3dc1fcce	0.09472047
253	0x3d91e534	0.07123795
254	0x3cec6f8c	0.028861783
255	0x3eb3342b	0.35000739

75 f4 [8]
0	0x4296fa27	75.48858
1	0x40ab1455	5.346232
2	0x3997591c	0.00028867356
3	0x40456a06	3.0845962
4	0x429a06e4	77.01346
5	0x409c4ef1	4.8846364
6	0x3997591c	0.00028867356
7	0x404e2a72	3.2213407

action_model._continuous_distribution.mu.weight f4 [1, 256]
0	0xbd2371b5	-0.03990336
1	0xbc6a7e82	-0.014312388
2	0x3d63a11a	0.05557356
3	0xbd176e2d	-0.036970306
4	0x3d1e5cb4	0.038662627
5	0x3d546101	0.051850323
6	0x3d3e64a0	0.046482682
7	0x3cea9c57	0.028639002
8	0x3d0f9fd1	0.035064522
9	0x3cbc31fb	0.022973051
10	0xbce582ed	-0.028016532
11	0xbcfcd5af	-0.030863611
12	0x3cad1554	0.021128334
13	0x3cf8ae8d	0.03035667
14	0x3ccb4ddd	0.024817402
15	0x3d128f14	0.03578098
16	0xbd475f8d	-0.04867511
17	0x3c9e6f08	0.019340053
18	0x3c57ba68	0.013167001
19	0x3d140247	0.036134984
20	0xbd14e4b2	-0.036350913
21	0xbcf17d15	-0.02947859
22	0xbd2533f7	-0.04033276
23	0xbcc60f6f	-0.024177281
24	0xbaeeaf7a	-0.0018210255
25	0xbd23b2dd	-0.0399655
26	0x3d114d3a	0.03547404
27	0x3cefff4d	0.029296542
28	0x3d01cab7	0.031687465
29	0x3d2848be	0.041084997
30	0x3d1134cf	0.035450753
31	0x3d18f89e	0.037346475
32	0x3d6ae253	0.057344746
33	0x3d1be1ed	0.038057256
34	0xbd24ae52	-0.040205307
35	0xbd1694f1	-0.036763135
36	0x3cdc56dd	0.026896888
37	0x3d30fbb0	0.043208778
38	0x3bb2a607	0.005451921
39	0x3c8a78b7	0.016903264
40	0x3d39064d	0.045172025
41	0xbd15d96a	-0.036584295
42	0x3d385aba	0.0450084
43	0x3d1e0887	0.03858235
44	0xbd4e6ca8	-0.05039659
45	0xbd3f3b97	-0.04668769
46	0x3d2a3363	0.041552912
47	0xbd42db16	-0.047572218
48	0x3cf3441c	0.029695563
49	0x3d10ddab	0.03536765
50	0xbd2db315	-0.042407114
51	0x3d19b41f	0.037525292
52	0x3ccc7e9d	0.024962718
53	0xbcf01d15	-0.029310742
54	0x3d28ca04	0.041208282
55	0xbd00f3ca	-0.031482495
56	0xbd970ff8	-0.07376093
57	0x3d0cb03e	0.034347765
58	0xbd6cb9b3	-0.057794284
59	0xb956cdc8	-0.0002048529
60	0x3d0b7341	0.03404546
61	0x3d0b4b5e	0.034007423
62	0xbd0e764b	-0.03478078
63	0xbd1f2ae1	-0.038859252
64	0x3c35ae46	0.011088913
65	0xbd123aaf	-0.035700496
66	0xbd0b6182	-0.034028538
67	0xbd866f8e	-0.06564246
68	0xbcf8be01	-0.030364038
69	0xbd24e376	-0.040255986
70	0x3ce6bf97	0.028167529
71	0x3d1b3595	0.037892897
72	0x3d845814	0.06462112
73	0xbcc47939	-0.023983585
74	0x3d011fae	0.031524353
75	0x3d353219	0.04423723
76	0xbd0a1dc5	-0.033719797
77	0xbd02a117	-0.03189191
78	0x3cdebd69	0.027189927
79	0xbd0474a9	-0.03233782
80	0xbd52c337	-0.051455703
81	0x3cef2263	0.029191202
82	0xbd443676	-0.0479035
83	0x3cd52aa4	0.02602131
84	0x3d647092	0.055771418
85	0x3cc3cbba	0.023900855
86	0x3cfa9895	0.030590335
87	0x3d06bcb5	0.03289481
88	0xbd3c0e63	-0.045912158
89	0x3d2c1d0b	0.042019885
90	0xbd09117e	-0.033463947
91	0x3c7c22d3	0.015389162
92	0x3d0df9cf	0.034662064
93	0x3d55fbb8	0.05224201
94	0xbd66f31a	-0.056384183
95	0xbd15a7de	-0.036537044
96	0x3d1a5c5a	0.03768573
97	0xbd21a56d	-0.039464403
98	0xbd449c19	-0.04800043
99	0xbd7ad62c	-0.061239406
100	0xbd089958	-0.033349365
101	0x3cb5cc2a	0.02219208
102	0xbd4536ff	-0.04814815
103	0x3c44642d	0.011986774
104	0xbd472d50	-0.048627198
105	0x3c8cbc13	0.017179525
106	0xbd40776e	-0.046988897
107	0xbc6eefda	-0.014583552
108	0x3d05c121	0.032654885
109	0x3d137a12	0.036005087
110	0x3d56d312	0.052447386
111	0xbd0e067b	-0.03467415
112	0x3d0eb5fd	0.034841526
113	0x3d3cf320	0.0461303
114	0xbd2f2997	-0.042764273
115	0x3ce3a402	0.027788166
116	0x3cc7ce9e	0.024390515
117	0xbd278432	-0.040897556
118	0xbd3a9355	-0.045550663
119	0xbd379314	-0.044818
120	0xbcfa35e0	-0.030543268
121	0xbd0d17e4	-0.034446612
122	0x3cf942e7	0.03042741
123	0x3c68d48e	0.014210833
124	0x3d3d7871	0.04625744
125	0x3c5ea7b8	0.013589792
126	0xbc84740c	-0.016168617
127	0x3d0734ea	0.033009447
128	0xbba249bc	-0.0049526375
129	0x3c804201	0.015656473
130	0xbd48ab34	-0.048991397
131	0x3cb232d9	0.021752762
132	0x3ca5639a	0.020189095
133	0x3d2713d8	0.04079041
134	0x3d28fe3f	0.041258093
135	0x3cbd7f1d	0.023131901
136	0xbcd1f31a	-0.025628615
137	0x3c9923ab	0.018693766
138	0x3d1be6d3	0.038061928
139	0x3cda3292	0.026635442
140	0xbd4de0cb	-0.050263207
141	0x3d44357f	0.04790258
142	0xbd113ffe	-0.03546142
143	0x3d469543	0.04848219
144	0xbd3c6303	-0.045992862
145	0x3d21db78	0.039515942
146	0x3cd7756f	0.026301114
147	0xbd112456	-0.035435043
148	0x3d090aa6	0.03345742
149	0xbd4a203b	-0.049347144
150	0xbc8f17af	-0.017467348
151	0x3c7c104d	0.015384746
152	0xbcefa084	-0.029251345
153	0xbb43cf57	-0.0029878223
154	0x3cea2439	0.028581725
155	0x3c2e7301	0.010647536
156	0x3d83d238	0.064365804
157	0x3cf98ec5	0.030463586
158	0xbd458188	-0.048219234
159	0x3d3d51e9	0.046220694
160	0x3d20e4cb	0.039280694
161	0xbce9d482	-0.028543714
162	0xbd4719d1	-0.048608605
163	0xbd18f672	-0.037344404
164	0x3d29c358	0.04144606
165	0xbd255785	-0.04036667
166	0x3d044752	0.03229458
167	0x3d2b6ea1	0.04185355
168	0xbd096355	-0.033541996
169	0x3d159830	0.03652209
170	0x3d309793	0.043113302
171	0x3d49196a	0.049096502
172	0x3d05f60a	0.032705344
173	0xbcac77ce	-0.021053221
174	0xbcc3e047	-0.023910655
175	0x3cd84ab0	0.026402801
176	0x3d46d0ef	0.0485391
177	0x3cd0bbe6	0.025480222
178	0x3d100653	0.03516228
179	0x3caba9f5	0.020955065
180	0x3d6058ba	0.054772116
181	0x3c67d711	0.014150397
182	0xbd073084	-0.033005252
183	0x3d09e6fe	0.033667557
184	0x3cd940ee	0.026520219
185	0x3d286fb9	0.041122172
186	0x3cfd9ea6	0.030959439
187	0x3d0dceff	0.034621235
188	0xbd1e3f54	-0.038634613
189	0xbd1f7d46	-0.03893783
190	0x3d05159d	0.032491315
191	0xbd476dd8	-0.04868874
192	0x3d2f0454	0.042728737
193	0x3d33e9cd	0.04392414
194	0x3d4f723d	0.050646055
195	0x3c8d7b3b	0.017270675
196	0x3cd27589	0.02569081
197	0x3c5c224c	0.013435911
198	0xbd1b5c2f	-0.03792971
199	0x3cc1e192	0.02366713
200	0x3d1ad927	0.03780475
201	0xbd02dc87	-0.031948593
202	0xbcb94a4d	-0.022618437
203	0xbd863d1c	-0.065546244
204	0xbd06fc48	-0.032955438
205	0xbcdd3ad6	-0.027005594
206	0x3c5343c1	0.012894572
207	0xbd0459d9	-0.032312248
208	0xbc71e07b	-0.014762993
209	0x3d099f4c	0.033599183
210	0x3d426678	0.047461003
211	0x3cc45c26	0.023969721
212	0x3cf16935	0.029469112
213	0xbd440dd3	-0.047864746
214	0xbd057513	-0.032582354
215	0x3ce67ce0	0.028135717
216	0x3ced9ac9	0.029004471
217	0x3cf4b19e	0.02986985
218	0xbd48f892	-0.04906518
219	0xbcefca0f	-0.029271154
220	0x3cc1986d	0.023632253
221	0x3c9b4071	0.018951626
222	0xbd0810b6	-0.03321906
223	0xbd1d639f	-0.038425084
224	0x3b825ed7	0.003978591
225	0x3d0e8aa0	0.03480017
226	0xbd269dc4	-0.0406778
227	0xbd017e3d	-0.03161453
228	0xbd06f967	-0.032952692
229	0xbcf6a40b	-0.030107519
230	0x3ceec844	0.029148228
231	0xbb83e548	-0.004025135
232	0xbd2a5a65	-0.041590113
233	0xbcaf14fd	-0.021372313
234	0xbd3f26c1	-0.046667818
235	0xbd3fab61	-0.0467943
236	0x3cfa8d34	0.030584909
237	0x3ccd32ae	0.02504858
238	0x3d1d4eed	0.038405348
239	0x3d3440b4	0.04400702
240	0x3d2a195f	0.041528102
241	0xbd395599	-0.045247648
242	0xbd156467	-0.036472704
243	0xbd268e7b	-0.040663224
244	0x3ce45143	0.02787078
245	0xbd41e1ac	-0.047334358
246	0xbd0c2c39	-0.03422186
247	0xbb431040	-0.0029764324
248	0xbc18d032	-0.009326981
249	0xbd044bb0	-0.032298744
250	0x3d03dbb9	0.032191966
251	0xbd1dbab9	-0.03850815
252	0x3d582c73	0.052776765
253	0xbd30222f	-0.04300135
254	0xbd086650	-0.033300698
255	0x3cd6fe94	0.02624444

action_model._discrete_distribution.branches.0.bias f4 [3]
0	0xbad9989b	-0.0016601266
1	0x3981bcdb	0.00024745506
2	0x3b9ff5c5	0.004881593

action_model._discrete_distribution.branches.0.weight f4 [3, 256]
0	0xbbe65b30	-0.0070299134
1	0xbdf5f952	-0.12010445
2	0xbc226752	-0.009912329
3	0x3b10266b	0.0021995555
4	0xbd1d437f	-0.038394447
5	0x3d08b416	0.03337487
6	0xbbb861c6	-0.00562689
7	0xbc51f221	-0.012814076
8	0x3c0398ad	0.008032006
9	0xbd40a4f3	-0.047032308
10	0xbc2240d0	-0.009903148
11	0x3c418e35	0.01181369
12	0xbd2e0c5a	-0.042492248
13	0xbd001d2e	-0.031277828
14	0xbd3ac645	-0.04559924
15	0x3b266097	0.0025387162
16	0xbb9d244c	-0.0047955867
17	0x3d93929e	0.072056994
18	0xbb7536b5	-0.003741664
19	0x3cd2cc6e	0.025732245
20	0xbbfca228	-0.00770976
21	0x3b255118	0.0025225338
22	0xbba79a34	-0.005114818
23	0xbac17f88	-0.0014762739
24	0x3d928966	0.07155113
25	0xbc9b65e8	-0.018969491
26	0xbc19489a	-0.0093556885
27	0x39837054	0.00025069958
28	0x3c8930ee	0.016746964
29	0x3c342e75	0.010997404
30	0x3b8a2f4f	0.0042170654
31	0xbc783030	-0.015148208
32	0x3aeaea8c	0.0017922684
33	0x3d10d9bd	0.0353639
34	0x3c0cf957	0.008604369
35	0x3bd367ba	0.006451574
36	0x3cf9b389	0.030481117
37	0xbd090864	-0.033455268
38	0x3d8c56f1	0.0685252
39	0xbcaac0bf	-0.020843862
40	0xba80a1ab	-0.0009813806
41	0xbc43e971	-0.011957512
42	0x3c5323f5	0.012886991
43	0x3b42cb9e	0.0029723416
44	0xbc093016	-0.008373281
45	0xbb9131b3	-0.0044309734
46	0xbcc01d88	-0.023451582
47	0xbc32ee35	-0.010921051
48	0xbbc95415	-0.0061440566
49	0xbc467287	-0.012112266
50	0x3b200353	0.0024416044
51	0xbc53cc77	-0.012927166
52	0xbbf11dc9	-0.007358287
53	0xbd11d45a	-0.035602905
54	0xbc0054ed	-0.007832748
55	0x3a79f4bc	0.00095350645
56	0xbb3cc9b3	-0.0028806746
57	0x3cd9a10d	0.026566053
58	0x3bc88d7e	0.006120383
59	0x3d7a243c	0.061069712
60	0x3c8f4e47	0.01749338
61	0x3ce28b6c	0.027654372
62	0xbaa87a53	-0.0012853838
63	0xbb262cc0	-0.0025356263
64	0x3da7c8f2	0.08192624
65	0xbad46cee	-0.001620678
66	0x3dc60d94	0.096705586
67	0x3b5214e5	0.003205591
68	0x3c09b3c5	0.008404677
69	0x3b6227e1	0.0034508633
70	0xbc86f7eb	-0.016475638
71	0xba9aa848	-0.0011799419
72	0x3c7a01d8	0.015259229
73	0xbc087ff5	-0.008331289
74	0xbd034df6	-0.03205677
75	0x3c8abaf4	0.01693485
76	0x3a2213f5	0.00061827834
77	0xbb975bd2	-0.0046191
78	0xbcf4a1bd	-0.02986228
79	0x3c61b085	0.013774996
80	0x3bb36612	0.005474814
81	0xbcc45c02	-0.023969654
82	0x3ac0beea	0.0014705334
83	0xbb97b7ab	-0.004630049
84	0x3d4062cd	0.046969224
85	0xbcc0c158	-0.023529693
86	0xbc806d66	-0.015677165
87	0xbccfd63a	-0.025370706
88	0xbbaeacc6	-0.005330655
89	0xbd5d0f17	-0.05396947
90	0xbc48328d	-0.0122190835
91	0xbd16ebe3	-0.036846053
92	0xbc84ec22	-0.016225878
93	0x3cc7539e	0.024331864
94	0x3bc96059	0.0061455187
95	0xbc23b451	-0.009991721
96	0xbcf9a54d	-0.03047433
97	0x3c145cc2	0.009055318
98	0x3c31ea97	0.010859153
99	0x3b104c73	0.0022018224
100	0xbba7e39b	-0.0051235682
101	0xbd3b90a9	-0.045792256
102	0xbc5feb51	-0.013666944
103	0xbd7c124d	-0.06154089
104	0xbc116e37	-0.008876375
105	0xbd25a686	-0.040442012
106	0x3ac5d1d2	0.0015092439
107	0xbc8ccab1	-0.017186495
108	0x3c279c23	0.010230097
109	0x3d33e8eb	0.0439233
110	0xbcabeede	-0.020987924
111	0xbc96489a	-0.018345166
112	0x3d3be81e	0.04587566
113	0xbc6047e8	-0.013689019
114	0xbb80cbe0	-0.003930554
115	0x3cf298b8	0.029613838
116	0xbcab821f	-0.02093607
117	0xbc63849f	-0.0138866
118	0x3b81d456	0.00396208
119	0xbceb1ddd	-0.028700763
120	0x3c7af92e	0.015318198
121	0xbb6f0c3d	-0.00364758
122	0xbc521223	-0.012821707
123	0x3da2a9ac	0.079425186
124	0xba8ba996	-0.0010655399
125	0x3dc55c68	0.09636766
126	0xbdc2807c	-0.09497163
127	0x3cc14138	0.023590669
128	0xbc9b95c9	-0.018992322
129	0xbcdb307c	-0.026756518
130	0x3b828dd9	0.0039841947
131	0xbd0b1ff8	-0.033966035
132	0xbd2ddc0d	-0.042446185
133	0x3a1d7f25	0.0006008021
134	0xbc924951	-0.017857226
135	0xbb779502	-0.0037778025
136	0xbbe41ad5	-0.0069612064
137	0xbd0c1605	-0.034200687
138	0x3a994057	0.0011692148
139	0x3cc83340	0.0244385
140	0xbb8ce3a4	-0.004299598
141	0x3d08be10	0.033384383
142	0xbcf3a9eb	-0.02974411
143	0x3d747062	0.05967749
144	0xbc2fbd05	-0.010726218
145	0xbb34fd03	-0.0027616627
146	0xbc2134c6	-0.009839242
147	0x3b41bd8b	0.002956244
148	0xbc4b20c0	-0.012397945
149	0xbba94037	-0.0051651257
150	0x3c115802	0.00887108
151	0xbdb171d9	-0.08664293
152	0xbc6bab86	-0.014384156
153	0x3d86368c	0.06553373
154	0x3a4a9424	0.0007727763
155	0x3d932432	0.07184638
156	0xbc7db902	-0.015486004
157	0xbc4e7054	-0.012600023
158	0xbc15a109	-0.009132632
159	0x3c4aecbf	0.012385546
160	0xbbff4352	-0.0077900076
161	0xbc1c78a8	-0.009550251
162	0x3bd076ca	0.006361817
163	0x3c848818	0.016178176
164	0x3ca6c21a	0.020356227
165	0x3beaaffc	0.0071620923
166	0x3ade23ba	0.0016947903
167	0x3a4bc5ec	0.0007773328
168	0x3aa60fc3	0.0012669492
169	0x3c7ea1be	0.015541492
170	0xbcb7f752	-0.022456799
171	0x3bf1ba26	0.007376927
172	0xbceb98ae	-0.028759327
173	0xbcc6ebd5	-0.024282375
174	0xbcfaad72	-0.030600283
175	0xbcfc1518	-0.030771777
176	0x3c0b9eb8	0.008521728
177	0xbc4606ad	-0.012086553
178	0x3c264070	0.010147199
179	0x3d90dec7	0.070737414
180	0x3c0d849d	0.0086375745
181	0xbd8005b2	-0.06251086
182	0xbbfff99e	-0.007811739
183	0x3b525f69	0.0032100326
184	0xbd37e810	-0.044899046
185	0xbbd7c617	-0.0065848934
186	0x3bc253ac	0.0059303846
187	0x3c0cbf1e	0.008590488
188	0xbbb27fa5	-0.0054473453
189	0xbb12abc7	-0.002238022
190	0x3c334995	0.010942836
191	0xbbcc9078	-0.006242808
192	0xbc46b32d	-0.01212768
193	0x3cdc8261	0.026917638
194	0xbc09fd70	-0.008422241
195	0xbd364c6c	-0.044506475
196	0xbc7cc82a	-0.015428582
197	0x3d8b326b	0.06796726
198	0x3a58688b	0.0008255324
199	0x3c91cf23	0.017798966
200	0x3d073f68	0.033019453
201	0xbde9591a	-0.11393948
202	0xbd52c636	-0.05145856
203	0xbbb2af0e	-0.005452997
204	0xbc189247	-0.009312219
205	0xbc7f423f	-0.015579759
206	0x3b8a6634	0.0042236093
207	0x3c6e3c54	0.0145407505
208	0xbca60d8b	-0.02027013
209	0xbbdc602e	-0.0067253327
210	0x3c9ca6db	0.019122532
211	0xbd9c33cb	-0.07627066
212	0x3d65b2a6	0.056078576
213	0xbbf392a5	-0.007433253
214	0x3c98a438	0.018632993
215	0x3c23c5cb	0.009995888
216	0x3ce42110	0.027847797
217	0xbcf671c5	-0.030083546
218	0xbb365ac5	-0.00278251
219	0xbb46ab9d	-0.0030314692
220	0xbd06e457	-0.032932606
221	0xbd21261a	-0.039342977
222	0xbbfacd7c	-0.00765389
223	0xbb8344a8	-0.004005987
224	0xbdca5c2c	-0.09880862
225	0xbcb4cf33	-0.022071457
226	0x3c5a6008	0.01332856
227	0xbbeef883	-0.0072928085
228	0x3c1b50e6	0.009479737
229	0x397c95d9	0.00024088415
230	0xbd1024f5	-0.035191495
231	0xbdcb3359	-0.09921903
232	0x3c453f87	0.012039072
233	0xbd041428	-0.032245785
234	0xbbd6b732	-0.0065526003
235	0xbbbad5e5	-0.0057017677
236	0xbb0cb5b2	-0.0021470604
237	0xbbc3f72a	-0.005980392
238	0xbbacd27e	-0.005274116
239	0xbb98d71d	-0.0046643154
240	0xbd0a9675	-0.033834893
241	0x3be39781	0.006945551
242	0xba2b42c5	-0.0006533082
243	0x3bb60c80	0.0055556893
244	0xbc415432	-0.011799859
245	0x3af4cd11	0.0018676837
246	0xbc909f73	-0.017654156
247	0x3de4d267	0.111729436
248	0x3de580bd	0.112061955
249	0x3937548a	0.00017483733
250	0xbce44891	-0.027866634
251	0x3bd52265	0.0065043443
252	0xbc27986c	-0.010229211
253	0xba493a8f	-0.00076762674
254	0xbaecadf2	-0.0018057211
255	0xbd4fbd65	-0.05071773

network_body._body_endoder.seq_layers.0.bias f4 [256]
0	0x3cd57fde	0.026061948
1	0x3d34eca2	0.044170983
2	0x3d1959ad	0.037439037
3	0x3d2772cb	0.04088096
4	0x3d09df19	0.033660028
5	0x3d11c863	0.035591494
6	0x3d306fe4	0.043075457
7	0x3cd81e62	0.026381675
8	0x3d2dc1ad	0.04242103
9	0x3d291a20	0.04128468
10	0xbd51ba1b	-0.051202875
11	0x3d0663c0	0.032809973
12	0x3d03366a	0.032034315
13	0xbcaef253	-0.021355784
14	0x3c399fcb	0.0113296015
15	0xbcd9c23c	-0.026581876
16	0x3cde13e2	0.02710909
17	0x3cec2619	0.02882676
18	0xbcc1fa92	-0.023679052
19	0x3d1d9dcf	0.038480576
20	0x3c4d557c	0.012532588
21	0x3d1779b9	0.03698132
22	0xbd0a5b27	-0.033778336
23	0x3c3e70b0	0.0116235465
24	0x3d0ffe93	0.03515489
25	0xbd1ef7e9	-0.038810644
26	0x3d156705	0.0364752
27	0x3ce3ccb9	0.02780758
28	0x3d0215a8	0.031758934
29	0x3cf250e9	0.029579597
30	0x3cf5a868	0.029987529
31	0xbcec3c6e	-0.028837409
32	0x3d037b0f	0.03209978
33	0x3d217a41	0.03942323
34	0x3cf624dd	0.030046875
35	0x3d0fa420	0.03506863
36	0x3cf677b5	0.030086378
37	0x3d26a887	0.040688064
38	0x3d0d3f84	0.0344844
39	0x3d302915	0.04300793
40	0xbc57431b	-0.013138558
41	0x3d160281	0.03662348
42	0x3d0fb761	0.035086993
43	0x3d1c3f22	0.038146146
44	0x3d1b6eee	0.037947588
45	0x3d11ed89	0.03562692
46	0x3cc4cd38	0.024023637
47	0x3cabdd89	0.02097966
48	0x3d1ac58f	0.037786063
49	0x3d2186d8	0.039435238
50	0x3d145608	0.03621486
51	0x3d4c45c0	0.049871206
52	0xbc48053a	-0.012208277
53	0xbcdc5e4b	-0.026900431
54	0xbbdeeb28	-0.006802935
55	0x3d042cec	0.032269403
56	0x3d03cab9	0.032175753
57	0x3c970633	0.018435573
58	0x3d0bd946	0.034142755
59	0x3d0ee0fb	0.034882527
60	0x3cfb9367	0.030709935
61	0x3d42aef2	0.047530122
62	0xbc5623e8	-0.013070084
63	0x3d0bb263	0.03410567
64	0x3d3329d9	0.04374108
65	0xbb85c42d	-0.004082224
66	0xbc741b59	-0.014899098
67	0xbd1d6097	-0.038422193
68	0x3ca18dd1	0.019720944
69	0x3a2048e5	0.0006114378
70	0xbcda260d	-0.026629472
71	0x3cec0d9d	0.028815085
72	0x3d0b8c3d	0.03406929
73	0x3d28eed0	0.041243374
74	0xbd1f6997	-0.038919058
75	0x3d051bce	0.03249722
76	0x3d2e81af	0.042604145
77	0x3d11c5f0	0.03558916
78	0xbd3311d3	-0.04371817
79	0x3cfc719b	0.03081589
80	0x3d162ed8	0.036665767
81	0x3d20000d	0.03906255
82	0x3d1fb0d1	0.038986985
83	0x3d1f34a2	0.038868554
84	0xbcd4823f	-0.025941012
85	0x3d0a0b0a	0.033701934
86	0x3d3d3671	0.046194497
87	0x3cef58bc	0.029217117
88	0x3d2b12ed	0.041766096
89	0xbceed5c2	-0.029154662
90	0x3d0531ad	0.032518078
91	0x3d2d86da	0.042364933
92	0x3d238952	0.03992588
93	0x3d179106	0.03700354
94	0x3d2e44e1	0.042546157
95	0x3cdc2378	0.026872382
96	0x3d0c3bc2	0.034236677
97	0x3d21fbd6	0.03954681
98	0x3d04dbec	0.032436296
99	0x3ccecdc6	0.025244605
100	0xbc62cc21	-0.013842613
101	0x3d1609f1	0.036630575
102	0x3d0334b5	0.032032687
103	0x3d1531b7	0.036424365
104	0x3d0d37d1	0.03447706
105	0x3cd41193	0.025887286
106	0x3d03ea65	0.032205958
107	0x3d1b354c	0.037892625
108	0x3d05ebaf	0.03269547
109	0x3ce16494	0.02751378
110	0x3c8c530f	0.01712945
111	0xbc0fe58b	-0.008782755
112	0x3d6968eb	0.056984823
113	0x3d10ca63	0.03534926
114	0x3d1d599f	0.038415547
115	0x3c8c09c9	0.01709451
116	0x3d150551	0.036382023
117	0x3d0b9d01	0.034085277
118	0x3d34197e	0.043969624
119	0x3d32d09d	0.04365598
120	0xbd36f4da	-0.044667102
121	0xb95b1950	-0.00020894897
122	0x3d0d7a91	0.034540717
123	0x3cab0134	0.020874597
124	0xbd10ddc3	-0.03536774
125	0x3cebc2a8	0.028779343
126	0x3d02830c	0.031863257
127	0x3d3c3236	0.045946322
128	0x3d1d5274	0.03840871
129	0x3cdab87f	0.026699303
130	0x3d0e3a9b	0.03472386
131	0x3d15d96f	0.036584314
132	0xbd13aa13	-0.036050867
133	0x3d42afa5	0.04753079
134	0x3cff5efb	0.03117322
135	0x3d34e4f2	0.04416365
136	0x3d289686	0.041159175
137	0x3d258f39	0.04041979
138	0x3d086928	0.03330341
139	0x3d0fbd6b	0.035092752
140	0x3d0fd16b	0.035111826
141	0x3d00cb9c	0.031444177
142	0x3cbf6b3a	0.02336656
143	0x3d0e68ad	0.034767795
144	0x3cf5d751	0.030009897
145	0x3d1896da	0.03725324
146	0x3d18ecfb	0.037335377
147	0x3d1c40c9	0.03814772
148	0xbb9a13f3	-0.004702085
149	0xbb37ba5b	-0.002803466
150	0x3cf5a41e	0.029985484
151	0x3ccac750	0.024753243
152	0x3d2a8ebf	0.04164004
153	0xbd1f51e1	-0.038896445
154	0xbc8bcb8e	-0.017064836
155	0x3cd2a1e1	0.025711956
156	0x3d110dab	0.035413425
157	0xbb0e831a	-0.0021745623
158	0x3d239956	0.039941154
159	0x3d1072f4	0.035265878
160	0x3d286424	0.041111127
161	0xbd18385e	-0.03716313
162	0xbd198b35	-0.037486274
163	0x3d1f2a35	0.03885861
164	0xbb5295ad	-0.003213267
165	0x3ce50175	0.027954796
166	0x3d1d7c35	0.03844853
167	0xbc43dacf	-0.0119540235
168	0x3d1bd375	0.038043458
169	0x3d071ab5	0.032984454
170	0xbd1a0af5	-0.037608106
171	0x3cf3ccff	0.029760836
172	0x3d0e88df	0.0347985
173	0x3cf2bce9	0.029631095
174	0x3d22978a	0.0396953
175	0x3cd19434	0.025583364
176	0x3d14c192	0.036317416
177	0x3d29aed3	0.04142649
178	0x3ce7d4f8	0.028299794
179	0x3bc38cb7	0.0059677023
180	0x3d207428	0.039173275
181	0x3d332fc5	0.04374673
182	0x3d2a3f49	0.04156426
183	0x3d050276	0.03247305
184	0x3d2db69a	0.04241047
185	0xbce6684b	-0.028125903
186	0x3d0fb127	0.035081055
187	0xbd087191	-0.03331143
188	0x3d0d5e12	0.03451354
189	0x3d27ffd7	0.041015472
190	0x3d07e9ce	0.033181958
191	0x3cb68f82	0.022285227
192	0x3d12ff81	0.0358882
193	0x3cfcc480	0.030855417
194	0x3d386a0a	0.045023
195	0x3d37c943	0.044869673
196	0x3d13b219	0.03605852
197	0x3d0f029d	0.0349146
198	0x3cf712a0	0.030160248
199	0xbcb5a93c	-0.022175424
200	0x3d1f9bc6	0.038966917
201	0xbd1e2ba9	-0.038615856
202	0x3d1cafba	0.038253523
203	0xbcdb1498	-0.026743218
204	0xbd0279de	-0.031854503
205	0x3d127a77	0.035761323
206	0x3d154638	0.03644392
207	0x3d29776e	0.041373663
208	0x3d3ddcfe	0.046353333
209	0xbd17e664	-0.037084952
210	0x3cca0781	0.024661781
211	0x3d02cf0f	0.031935748
212	0xbccfebb9	-0.025380956
213	0xbca72f78	-0.020408377
214	0x3cf638be	0.030056354
215	0xbc876e72	-0.016532157
216	0x3d13e383	0.036105644
217	0x3d06a34e	0.032870583
218	0x3cad8148	0.02117981
219	0xbc92588f	-0.017864494
220	0x3d0874b4	0.03331442
221	0x3d085e38	0.03329298
222	0x3d0d3d8d	0.034482528
223	0xbcc54cbf	-0.024084447
224	0x3d23690a	0.039895095
225	0x3b95d93c	0.0045730155
226	0x3ce75510	0.028238803
227	0x3d02b428	0.03191009
228	0x3d0bb205	0.03410532
229	0x3d1fa3aa	0.03897444
230	0xbc3e1150	-0.011600807
231	0x3d1b70d5	0.037949402
232	0x3d0aef07	0.03391936
233	0x3d09c2fb	0.033633213
234	0x3d3fa01b	0.046783548
235	0x3d1aaf25	0.037764687
236	0x3ce25747	0.027629508
237	0x3d2c0fb3	0.04200716
238	0x3d0ff060	0.03514135
239	0x3d1919cd	0.03737812
240	0xbd0f884a	-0.035042085
241	0x3d1ae834	0.037819102
242	0xbd16058c	-0.036626384
243	0x3cfee1b4	0.031113483
244	0xbb92cd15	-0.004480014
245	0x3d15fdd3	0.03661902
246	0x3cfac38b	0.03061082
247	0xbd26ee36	-0.04075452
248	0x3d1b0475	0.037846047
249	0x3d24b5fc	0.040212616
250	0x3d012d58	0.031537384
251	0x3c777525	0.015103613
252	0x3d205dec	0.03915207
253	0xbd40b0bb	-0.047043543
254	0xbb1a8b6b	-0.0023581635
255	0x3d1ee1fb	0.03878973

network_body._body_endoder.seq_layers.0.weight f4 [256, 349]
0	0x3c5078e2	0.012724133
1	0xbd10350f	-0.03520685
2	0xbd77a63d	-0.06046127
3	0xbcf58b93	-0.02997378
4	0x3ce60c56	0.028082054
5	0x3d76bc2d	0.060238052
6	0x3d1712db	0.036883216
7	0xbd1c28ec	-0.038124964
8	0xbd3a6003	-0.04550172
9	0x3d8476f4	0.06468001
10	0x3d16ca15	0.036813814
11	0x3d736aac	0.059427902
12	0x3ca2d109	0.019875066
13	0xbd9122a3	-0.070866846
14	0x3d4cfb4d	0.050044347
15	0xbc80204d	-0.015640402
16	0xbd56f102	-0.052475937
17	0xbc128891	-0.008943693
18	0x3c976508	0.018480793
19	0x3cccd73b	0.025004974
20	0xbcdbd893	-0.02683667
21	0x3d85deae	0.065366134
22	0x3dc37b24	0.095449716
23	0xbd9a0d74	-0.07522097
24	0xbd39349d	-0.04521619
25	0x3d102d75	0.0351996
26	0xbd1621e5	-0.036653418
27	0xbc94f361	-0.018182458
28	0x3c232281	0.009956957
29	0x3b9a0f79	0.0047015515
30	0xbd3a30a6	-0.04545655
31	0xbc873f6f	-0.01650974
32	0xbc53390c	-0.012892019
33	0x3bf925c7	0.0076033804
34	0x3c1d5bf1	0.00960444
35	0xbc40fd8f	-0.011779203
36	0xbcbebc00	-0.023283005
37	0x39eddc44	0.00045368273
38	0xbe092d87	-0.13396274
39	0x3d42d70f	0.047568377
40	0x3cfc81d5	0.030823627
41	0xbdc7ccc0	-0.0975585
42	0xbd8bfd0c	-0.06835374
43	0x3d115de2	0.035489924
44	0x3dedab26	0.116049096
45	0x3c277859	0.010221564
46	0xbd724d0d	-0.059155513
47	0xbce8946d	-0.028391087
48	0xbdc41ebc	-0.095761746
49	0x3df77be0	0.12084174
50	0xbdaa2363	-0.08307531
51	0xbd87a855	-0.06623904
52	0xbdf2caf3	-0.11855116
53	0xbd2d1eda	-0.04226575
54	0xbac129a4	-0.0014737141
55	0xbd23f02b	-0.040023964
56	0x3d9b8df0	0.07595432
57	0x3d8174af	0.06321084
58	0xbda6013a	-0.08105703
59	0x3d10dad9	0.03536496
60	0xbd70c560	-0.05878198
61	0x3d025065	0.03181495
62	0xbc67bcee	-0.014144165
63	0xbda97b7f	-0.08275508
64	0x3d4e1c17	0.050319757
65	0xbdc46b29	-0.09590752
66	0xbd6b08b6	-0.057381354
67	0x3cd82414	0.02638439
68	0xbd6d16e8	-0.057883173
69	0x3d811d07	0.06304365
70	0xbdee2115	-0.11627404
71	0x3dd10fca	0.1020809
72	0xbcb4b374	-0.022058226
73	0x3b9d4651	0.004799642
74	0x3caffcfe	0.02148294
75	0xbc59d901	-0.013296367
76	0xbcd2b6ad	-0.025721872
77	0x3d883b99	0.06651992
78	0x3cf5a0b4	0.029983856
79	0x3cbc89d7	0.023014946
80	0xbd8751e7	-0.066074185
81	0x3bdf4b45	0.0068143927
82	0xbdcf7f22	-0.101316705
83	0x3bf4f6d9	0.0074757156
84	0xbd2bc4f5	-0.04193588
85	0xbdd0de8e	-0.10198699
86	0xbd01513b	-0.031571608
87	0x3b90c775	0.0044183084
88	0xbd5adf93	-0.053435873
89	0xbd04a041	-0.032379393
90	0x3d0e3d72	0.034726568
91	0xbd000cb6	-0.031262122
92	0x3cc376c7	0.023860348
93	0xbd303931	-0.043023292
94	0xbd28a0f9	-0.04116914
95	0xbdabb406	-0.08383946
96	0x3cee9f00	0.029128551
97	0x3dc88704	0.09791377
98	0x3cbdcbe0	0.023168504
99	0x3d6e0014	0.058105543
100	0x3bc59ce8	0.0060306676
101	0x3be92df9	0.007116076
102	0x3d0daa75	0.03458639
103	0x3dba729b	0.091038905
104	0xbc1270ff	-0.008938073
105	0xbca2a5c4	-0.019854434
106	0xbc6f5a34	-0.014608908
107	0x3b5fd63e	0.0034154798
108	0xbd0502f2	-0.032473512
109	0x3d2e1ec9	0.042509828
110	0x3d4249dd	0.047433723
111	0xbcaa06ac	-0.020755135
112	0x3d294f4c	0.04133539
113	0x3d8918a5	0.06694154
114	0xbb7df3ee	-0.003875013
115	0x3d97900e	0.07400523
116	0x3d9f616d	0.07782254
117	0xbd4bae6f	-0.0497269
118	0x3d8e8377	0.06958669
119	0x3b4bcc83	0.003109724
120	0xbc8c514a	-0.017128605
121	0x3d810101	0.062990196
122	0x3ca8e0d4	0.020615019
123	0x3d6083bd	0.054813135
124	0xbbbe673e	-0.0058106473
125	0xbce84e10	-0.028357536
126	0xbd08496c	-0.033273146
127	0xbdae1860	-0.08500743
128	0xbd3b1e40	-0.045683146
129	0xbe1be00f	-0.1522219
130	0xbd9a6ec7	-0.0754066
131	0x3d088ab0	0.033335388
132	0x3d6fa07c	0.05850266
133	0x3d0521de	0.032503
134	0x3d12ab9a	0.035808183
135	0x3c93960b	0.018015882
136	0x3da335c9	0.07969243
137	0x3cf7bf71	0.030242654
138	0xbd589558	-0.0528768
139	0xbd71d720	-0.05904305
140	0xbb8ae1ce	-0.004238344
141	0xbcaac693	-0.02084664
142	0xbcda39aa	-0.026638824
143	0xbbd5c8d0	-0.006524183
144	0xbd90aedd	-0.070646025
145	0xbd45899d	-0.04822694
146	0xbd04a4b6	-0.032383643
147	0x3dcb69b7	0.09932273
148	0x3c04be03	0.008101943
149	0xbdfd6982	-0.1237364
150	0x3be277ef	0.00691127
151	0xbd898747	-0.06715255
152	0xbda8e0ad	-0.082459785
153	0x3daeb6bd	0.08530948
154	0xbc93e16e	-0.01805183
155	0x39e0ca7d	0.00042875475
156	0xbc4c3344	-0.012463395
157	0xbd0342c9	-0.032046113
158	0xbd909407	-0.07059484
159	0xbbb7432b	-0.005592724
160	0xbcebdb77	-0.028791172
161	0x3d3b772b	0.045767944
162	0x3d24f9c2	0.04027725
163	0xbc23886c	-0.009981256
164	0xbc97b2ff	-0.01851797
165	0x3d8e6ad7	0.06953972
166	0xbd0972ac	-0.033556625
167	0xbda4e363	-0.08051183
168	0x3d976127	0.07391577
169	0x3c9bf221	0.019036354
170	0xbcaaf7fc	-0.020870201
171	0xbd254d69	-0.040357027
172	0x3d897bb4	0.067130476
173	0xbdea0aa4	-0.11427811
174	0x3d3acba3	0.04560436
175	0x3d2cdb70	0.04220146
176	0xbd850b37	-0.0649628
177	0x398df2e8	0.00027074595
178	0x3b918898	0.004441332
179	0xbd3f6e21	-0.046735886
180	0x3c2ec8e5	0.010668014
181	0xbdbd3e34	-0.0924038
182	0xbb88779e	-0.00416465
183	0x3ccfde95	0.02537469
184	0x3c861856	0.016369026
185	0xbdcfdeff	-0.10149955
186	0xbbd09d0d	-0.006366378
187	0x3be8e6b7	0.0071075815
188	0x3d7952c6	0.060869955
189	0xbd65b094	-0.0560766
190	0xbd0eb289	-0.034838233
191	0x3d92e322	0.071722284
192	0xbc546873	-0.012964356
193	0xbb117914	-0.0022197412
194	0xbc984505	-0.018587599
195	0x3ccfdd77	0.025374157
196	0x3cdfc236	0.027314287
197	0xbcb49e5e	-0.022048172
198	0x3dfcf7a2	0.1235192
199	0x3d6e9ef2	0.05825705
200	0xbdbafe8c	-0.09130582
201	0x3c272c4d	0.010203433
202	0xbd1ef9ef	-0.038812574
203	0x3cfa8907	0.030582918
204	0xbdf1db3d	-0.118093945
205	0xbcb3b566	-0.021937083
206	0x3db8286e	0.08992086
207	0x3d11d56c	0.035603926
208	0xbd6cbb07	-0.05779555
209	0xbdaea9d1	-0.08528484
210	0xbd9cbdc1	-0.0765338
211	0xbd2d371c	-0.042288885
212	0xbd0efe00	-0.034910202
213	0x3d91dd95	0.071223415
214	0x3d109e6d	0.035307337
215	0xbc88be3f	-0.016692279
216	0x3d106f3b	0.035262328
217	0xbd506ab0	-0.050882995
218	0x3cb47f6a	0.022033412
219	0xbd184dd0	-0.037183583
220	0xbd50b87b	-0.050957184
221	0x3a5518c5	0.0008128996
222	0xbcba40d6	-0.022735994
223	0xbcb9fe63	-0.022704309
224	0x3ccefc91	0.025266917
225	0x3d88707c	0.0666208
226	0xbd40c0f7	-0.047059026
227	0x3d1fa4eb	0.038975637
228	0x3c7e3d17	0.015517495
229	0xbd01ba9b	-0.0316721
230	0x3cba8c0c	0.022771858
231	0xbcdccb4b	-0.026952406
232	0x3de8a8fd	0.11360357
233	0xbd0a657e	-0.033788197
234	0x3d6a8159	0.05725226
235	0x3c3ba804	0.011453632
236	0xbc4d555c	-0.012532558
237	0xbd92af23	-0.07162311
238	0x3ccb620e	0.02482703
239	0x3d3bf484	0.045887485
240	0xbd483c95	-0.0488859
241	0x3bc08e6b	0.0058763525
242	0xbc938fc7	-0.018012894
243	0xbda55222	-0.08072306
244	0xbc14c552	-0.009080248
245	0x3d942961	0.07234455
246	0x3c437e14	0.011931915
247	0xbcd17233	-0.02556715
248	0x3d2ff008	0.04295352
249	0x3d82f665	0.06394652
250	0x3da6f654	0.08152452
251	0xbe051db5	-0.12999614
252	0x3da1456b	0.078745686
253	0xbc84b5bd	-0.01619994
254	0xbd8e9e9c	-0.06963846
255	0xbc1c255c	-0.009530392

network_body._body_endoder.seq_layers.2.bias f4 [256]
0	0xbd016abc	-0.03159593
1	0x3b670df3	0.0035256117
2	0x3d03cfbc	0.032180533
3	0xbd0afc6e	-0.033932142
4	0x3d0a8e85	0.033827323
5	0x3d1e1a22	0.03859914
6	0x3d1103ac	0.035403892
7	0x3d1647cc	0.036689565
8	0x3d06a150	0.032868683
9	0x3ce9ce99	0.028540896
10	0xbcefed56	-0.029287975
11	0xbd0c6f59	-0.034285877
12	0x3d03829a	0.032106973
13	0x3d021d3b	0.031766158
14	0x3d2787d3	0.040901016
15	0x3d141e2f	0.036161598
16	0xbd17c3c9	-0.03705195
17	0x3c9c86fc	0.019107334
18	0x3cd73d17	0.026274247
19	0x3d1d1e82	0.038359173
20	0xbd2dc6b7	-0.042425837
21	0xbd072382	-0.032992847
22	0xbd2317d0	-0.03981763
23	0xbd1d5b27	-0.038417008
24	0xbc3b420f	-0.011429324
25	0xbcc817db	-0.024425438
26	0x3cf5defd	0.030013556
27	0x3d00aac3	0.03141285
28	0x3d1b05e2	0.037847407
29	0x3d1e63c9	0.03866938
30	0x3d1da4df	0.03848731
31	0x3d157788	0.036490947
32	0x3d0caa58	0.03434214
33	0x3d15a68a	0.036535777
34	0xbcd708ab	-0.02624925
35	0xbd341324	-0.043963566
36	0x3d080885	0.03321125
37	0x3cfb9357	0.030709906
38	0x3cbf82dd	0.02337783
39	0x3d163a4f	0.0366767
40	0x3d0e49ad	0.03473823
41	0xbcd89748	-0.026439324
42	0x3d250dc0	0.040296316
43	0x3d15602b	0.036468666
44	0xbd0754c3	-0.03303982
45	0xbd1b4eb4	-0.037916854
46	0x3d0c4ec7	0.034254815
47	0xbd05e1d4	-0.03268607
48	0x3d0df220	0.034654737
49	0x3d01d346	0.031695627
50	0xbcdb0d7b	-0.026739826
51	0x3d1b698d	0.037942458
52	0x3d0a9127	0.033829834
53	0xbc9c8559	-0.019106554
54	0x3d083d82	0.033261783
55	0xbd0ccfde	-0.034377925
56	0xbce51786	-0.027965318
57	0x3d21e19e	0.039521806
58	0xbd1598ca	-0.036522664
59	0x3b2a666f	0.0026000997
60	0x3d163579	0.03667209
61	0x3ce436e5	0.027858207
62	0xbd14f669	-0.036367808
63	0xbd04bf17	-0.0324088
64	0x3cdbf9bc	0.026852481
65	0xbd3a8474	-0.045536473
66	0xbccfdd1a	-0.025373984
67	0xbcf3a9f3	-0.029744124
68	0xbd13a90e	-0.036049895
69	0xbd1ba8e9	-0.038002882
70	0x3d1466f2	0.03623099
71	0x3d071cfa	0.03298662
72	0x3d04ef2e	0.032454662
73	0xbd08f176	-0.0334334
74	0x3d12037b	0.03564785
75	0x3d1b4f35	0.037917335
76	0xbd096aaf	-0.033549007
77	0xbd0f40f7	-0.034974065
78	0x3d01b5b9	0.031667445
79	0xbd1da482	-0.038486965
80	0xbd05f7fc	-0.0327072
81	0x3d08b6e7	0.033377554
82	0xbd19cc1f	-0.03754818
83	0x3d1aec4d	0.03782301
84	0x3d1636b8	0.036673278
85	0x3d0f68c2	0.035012014
86	0x3ce8fc56	0.028440636
87	0x3d0cbc7f	0.03435945
88	0xbd0776b8	-0.033072203
89	0x3d1286c7	0.035773065
90	0xbcf1a158	-0.02949588
91	0x3c94cf37	0.018165214
92	0x3d044d3d	0.032300223
93	0x3d0e2e5f	0.03471219
94	0xbd18b263	-0.037279498
95	0xbcbf7660	-0.023371875
96	0x3cfb58ca	0.030681986
97	0xbd16f978	-0.036859006
98	0xbccf8aea	-0.025334794
99	0xbd0a97b7	-0.033836093
100	0xbd21659c	-0.039403543
101	0x3cecaabd	0.028890008
102	0xbcf61906	-0.030041229
103	0x3d0c2fda	0.034225322
104	0xbd01c59a	-0.03168259
105	0x3d047e6f	0.03234714
106	0xbd10647d	-0.035252083
107	0xbcb7b632	-0.022425745
108	0x3d126b60	0.035746932
109	0x3d29b494	0.04143198
110	0x3d146496	0.03622874
111	0xbcef6d41	-0.029226901
112	0x3d0b57c6	0.034019254
113	0x3d07d107	0.03315833
114	0xbd015d36	-0.031583034
115	0x3d0871bf	0.0333116
116	0x3d0824b4	0.033238128
117	0xbcf01252	-0.02930561
118	0xbcd3688b	-0.025806686
119	0xbca1910f	-0.01972249
120	0xbd08ca43	-0.033396017
121	0xbd18cf86	-0.037307285
122	0x3d123645	0.035696287
123	0x3ce7444b	0.028230807
124	0x3d0e00ad	0.034668613
125	0x3d0c339a	0.0342289
126	0xbbfa1725	-0.0076321536
127	0x3d0108ed	0.031502653
128	0xbc18f137	-0.009334854
129	0x3c86bae1	0.016446533
130	0xbd318cf4	-0.043347314
131	0x3d1370a7	0.035996106
132	0x3d05e99d	0.032693494
133	0x3d0cb425	0.034351487
134	0x3d02240a	0.03177265
135	0x3d0f40d5	0.034973938
136	0xbd26de70	-0.040739477
137	0x3ce9ec67	0.028555108
138	0x3d1a0f1b	0.037612062
139	0x3cacfbb6	0.021116119
140	0xbd1a3a08	-0.037653
141	0x3d1fba19	0.038995836
142	0xbcb48d5b	-0.02204006
143	0x3d430869	0.047615442
144	0xbd222f59	-0.039595935
145	0x3cfb61ae	0.030686226
146	0x3d0a2c6f	0.03373378
147	0xbd377ddf	-0.044797774
148	0x3d1d3b8c	0.038386866
149	0xbcf2c247	-0.029633654
150	0xbd1bf97d	-0.038079727
151	0x3ca8ecc3	0.02062071
152	0xbce26143	-0.027634269
153	0xbc184fbd	-0.009296355
154	0x3d0f0502	0.034916885
155	0x3c0ec84f	0.0087147495
156	0x3d151247	0.036394384
157	0x3d1853a5	0.037189145
158	0xbd01448e	-0.03155952
159	0x3d0f2b47	0.034953382
160	0x3d031dcc	0.03201084
161	0xbcae4d6f	-0.021277158
162	0xbd0c3552	-0.034230538
163	0xbd0c0998	-0.034188837
164	0x3d11a4e5	0.035557646
165	0xbd1065b6	-0.03525325
166	0x3d0c3c6e	0.034237318
167	0x3cfa6e02	0.030570034
168	0xbd150e89	-0.036390815
169	0x3d0c6d50	0.034283936
170	0x3cd84068	0.026397899
171	0x3d1068f4	0.03525634
172	0x3d0b78bd	0.034050692
173	0xbc60b3e2	-0.013714762
174	0xbcc27c6b	-0.023740968
175	0x3cf74214	0.030182876
176	0x3d1555b0	0.03645867
177	0x3d0c6bfe	0.034282677
178	0x3d1159da	0.03548608
179	0x3c8e3bfa	0.017362583
180	0x3d0e7494	0.034779146
181	0x3cc22b4b	0.023702284
182	0xbcfd193a	-0.030895818
183	0x3d01dc85	0.031704444
184	0x3d1468ac	0.036232635
185	0x3d0d6337	0.034518447
186	0x3cf94e2d	0.030432785
187	0x3d0cc947	0.03437164
188	0xbcd67836	-0.026180368
189	0xbd2f0436	-0.042728625
190	0x3d155d92	0.03646619
191	0xbd0c63c6	-0.03427484
192	0x3d0f938f	0.035052832
193	0x3d1b266e	0.037878446
194	0x3d115c79	0.03548858
195	0x3d010285	0.031496543
196	0x3cf385b6	0.029726844
197	0x3cb13520	0.021631777
198	0xbceda40c	-0.029008888
199	0x3d0a0e19	0.03370485
200	0x3d2049ec	0.039132997
201	0xbb9b8afd	-0.0047467933
202	0xbc3bf255	-0.011471351
203	0xbd25c2e2	-0.040469058
204	0xbd168c56	-0.03675493
205	0xbcb75d3f	-0.02238333
206	0x3c029656	0.007970413
207	0xbd19066b	-0.037359636
208	0xbcfc4069	-0.030792432
209	0x3cfe815d	0.031067545
210	0x3d1244c3	0.035710108
211	0x3d0e432d	0.034732033
212	0x3cfff646	0.031245362
213	0xbd0067a3	-0.031348836
214	0xbd2a0e47	-0.041517522
215	0x3d1ad64e	0.037802033
216	0x3d16b836	0.03679677
217	0x3d15c5da	0.03656564
218	0xbd2a9336	-0.041644298
219	0xbd213103	-0.03935338
220	0x3d102cb8	0.035198897
221	0x3cee2dbb	0.02907454
222	0xbd089902	-0.033349045
223	0xbd28af12	-0.041182585
224	0x3c3d8b8d	0.011568916
225	0x3d0d3873	0.034477662
226	0xbd1402a9	-0.03613535
227	0xbd16a903	-0.036782276
228	0xbd4368c8	-0.04770735
229	0xbd0fb4d4	-0.03508456
230	0x3d0bea3e	0.034158938
231	0x3b842ba9	0.004033525
232	0xbcf4d853	-0.029888308
233	0xbc99dde7	-0.01878257
234	0xbd0ac534	-0.033879474
235	0xbd0150bb	-0.03157113
236	0x3d010c3c	0.03150581
237	0x3d06eb48	0.032939225
238	0x3d14ec59	0.03635821
239	0x3d031bb2	0.032008834
240	0x3d0505ff	0.03247642
241	0xbd091797	-0.033469763
242	0xbce436b9	-0.027858125
243	0xbd08eb56	-0.03342756
244	0x3d0e5a30	0.03475398
245	0xbd07af91	-0.033126418
246	0xbcc0a1a0	-0.023514569
247	0xb990980b	-0.000275791
248	0xbba30ffc	-0.0049762707
249	0xbd13ac42	-0.03605295
250	0x3d097b72	0.033564992
251	0xbd2a8a0d	-0.04163556
252	0x3cf754de	0.030191835
253	0xbcc3a6ce	-0.02388325
254	0xbd1adab7	-0.03780624
255	0x3cfbcc1d	0.030736977

network_body._body_endoder.seq_layers.2.weight f4 [256, 256]
0	0xbceae4f6	-0.02867363
1	0xbc9cc81a	-0.019138385
2	0xbcc586f5	-0.024112204
3	0x3e06cbaa	0.13163629
4	0xbd9e5d65	-0.07732657
5	0xbc62d8a5	-0.013845597
6	0xbd4d8a1c	-0.05018054
7	0xbc8004c0	-0.015627265
8	0x3d822ec5	0.06356577
9	0x3cc2230d	0.023698354
10	0xbd48ff44	-0.049071565
11	0x3cffb95b	0.031216314
12	0x3c85e475	0.016344288
13	0x3e0c3a37	0.13694082
14	0x3d148f55	0.036269505
15	0x3d5f8f7b	0.054580193
16	0xbbb7fef0	-0.0056151077
17	0x3d20524d	0.03914099
18	0x3d7eb1d2	0.0621813
19	0xbcd34931	-0.025791736
20	0x3c976be9	0.018484073
21	0xbe11db08	-0.1424371
22	0x3c2e1b2b	0.010626595
23	0xbcf14256	-0.029450577
24	0x3db7e3ca	0.08978994
25	0xbdffa208	-0.12482077
26	0x3da5f45e	0.0810325
27	0xbd6bba60	-0.057550788
28	0x3b45a511	0.0030158202
29	0xbd8fd6a1	-0.07023359
30	0xbdad7f20	-0.08471513
31	0x3d82c38c	0.06384954
32	0xbc88cf33	-0.016700363
33	0xba8bfb9a	-0.0010679842
34	0xbd0548ae	-0.032540016
35	0xbc2a7d15	-0.010405798
36	0x3d2b0cac	0.04176013
37	0xbc9e2219	-0.019303368
38	0xbcb14587	-0.021639599
39	0x3e189e5f	0.14904164
40	0x3dddf61f	0.108379595
41	0x3dd1ad98	0.102381885
42	0x3baee7ee	0.0053377068
43	0x3dc46767	0.09590035
44	0xbd30e46c	-0.04318659
45	0x3abbe557	0.0014335316
46	0x3d2b3c38	0.041805476
47	0x3c90ed7b	0.017691365
48	0xbda5f056	-0.08102481
49	0x3ba848e3	0.005135642
50	0xbd2556ea	-0.04036609
51	0x3d07b25d	0.033129085
52	0x3d146e33	0.036237907
53	0xbdb07783	-0.08616545
54	0x3d9e54e1	0.07731033
55	0xbaade7af	-0.00132679
56	0x3d92481f	0.07142662
57	0x3bc41b48	0.0059846975
58	0xbd51b225	-0.051195282
59	0xbc191e18	-0.009345554
60	0xbc3d069e	-0.011537222
61	0x3c248caa	0.010043303
62	0xbdd750d2	-0.10513462
63	0xbc969c70	-0.018385142
64	0xbe034638	-0.12819755
65	0x3cc0e5e1	0.023547115
66	0xbc483676	-0.012220016
67	0xbc2f1e8f	-0.010688438
68	0xbd51bbe9	-0.051204596
69	0xbd9e9aa1	-0.07744337
70	0xbdb5aee9	-0.08871252
71	0xbceb6e1c	-0.028739028
72	0x3df5bd62	0.119990125
73	0xbc37790b	-0.0111982925
74	0x3d8bff5c	0.06835815
75	0xbdbe60a5	-0.09295777
76	0xbdb52312	-0.0884458
77	0xbe2beed2	-0.16790321
78	0x3def4925	0.11683873
79	0x3d8df94f	0.069323175
80	0x3defeda5	0.11715249
81	0xbb16b755	-0.0022997458
82	0xbdb677bb	-0.089095555
83	0xbdfdd39c	-0.12393877
84	0x3d3d1f3d	0.04617237
85	0xbd1dae86	-0.038496517
86	0x3dc5cdd5	0.096584
87	0xbd1a55ef	-0.03767961
88	0xbd920005	-0.0712891
89	0xbd2d32d6	-0.04228481
90	0x3de30fd4	0.11087003
91	0xbd05e211	-0.032686297
92	0x3cfb827c	0.030701868
93	0xbdf01cb3	-0.11724224
94	0xbd0fe8c2	-0.035134085
95	0xbc224d9e	-0.009906201
96	0xbd6d3ced	-0.05791943
97	0xbdfd2c2e	-0.12361942
98	0x3d414485	0.047184486
99	0x3ba0fdf9	0.0049130884
100	0x3bed96b9	0.0072506336
101	0xbd09dc26	-0.033657216
102	0xbd630121	-0.055421
103	0x3b242208	0.0025044698
104	0xbdbebc27	-0.09313231
105	0x3d3389c9	0.043832574
106	0x3e100d2e	0.14067528
107	0xbe08ca4d	-0.13358422
108	0x3ce39596	0.02778129
109	0xbc155f4e	-0.009116961
110	0x3d35545b	0.0442699
111	0xbcb7f972	-0.022457812
112	0x3dbe3db9	0.092891164
113	0xbe2eb0a1	-0.17059566
114	0xbd22de62	-0.039762862
115	0xbdd37f38	-0.103269994
116	0x3c4cbc77	0.012496105
117	0xbcb41f81	-0.021987678
118	0x3c25fb82	0.010130765
119	0xbd5f9fd3	-0.05459578
120	0x3a8e0c5b	0.0010837422
121	0xbccfd2c3	-0.025369054
122	0xbd226759	-0.03964934
123	0xbcf6a489	-0.030107753
124	0xbc1bb1ff	-0.009502887
125	0x3c0b1a78	0.008490197
126	0xbe26d8b4	-0.16293603
127	0xb9c16402	-0.0003688634
128	0xbdb293bf	-0.087195866
129	0xbce69e1e	-0.028151568
130	0x3c0ab836	0.008466771
131	0x3cae6e8b	0.021292945
132	0xbbf57d2e	-0.007491729
133	0xbdb2d5cd	-0.087321855
134	0x3cfdf469	0.031000333
135	0xbbfecbfd	-0.007775782
136	0xbe057506	-0.13032922
137	0xbdb19e9a	-0.08672829
138	0x3c58c877	0.013231388
139	0xbd80a5a3	-0.06281593
140	0x3d7cb485	0.061695594
141	0xbdaf0d35	-0.08547441
142	0x3d4fa464	0.050693884
143	0xbd604a1e	-0.054758184
144	0x3b95a809	0.0045671505
145	0x3b8e8448	0.0043492652
146	0xbd9c8da2	-0.07644202
147	0xbdbd6e0f	-0.09249508
148	0xbd1db0d1	-0.038498703
149	0xbd9ee378	-0.0775823
150	0xbd95962c	-0.07304034
151	0xbde86906	-0.11348157
152	0x3dc03c0b	0.09386452
153	0x3c797355	0.015225251
154	0x3da7227c	0.08160874
155	0xbd849871	-0.064743884
156	0xbce39e38	-0.027785406
157	0x3cd17759	0.025569605
158	0xbdc123a6	-0.094306275
159	0xbe135858	-0.14389169
160	0xbd231142	-0.03981138
161	0x3cf3e431	0.029771896
162	0xbd516e5c	-0.051130638
163	0x3d92a8b4	0.07161084
164	0x3e0bd5bb	0.1365575
165	0xbd7b704e	-0.0613864
166	0xbce9ee5a	-0.028556038
167	0x3c3d9278	0.011570565
168	0xbc574e79	-0.013141268
169	0xbd8a62f2	-0.067571536
170	0x3b83a479	0.0040174094
171	0xbdac1a57	-0.084034614
172	0xbdb6eb1f	-0.089315645
173	0xbe23a9b4	-0.15982705
174	0xbc33d9d8	-0.010977231
175	0xbcfcf57e	-0.030878779
176	0x3ccf6da0	0.025320828
177	0x3bfc097d	0.007691561
178	0xbd44de15	-0.048063356
179	0xbc60fb2a	-0.013731757
180	0xbd75750d	-0.05992608
181	0xbdcd03a6	-0.100104615
182	0xbdbfaa81	-0.09358693
183	0xbd87dabf	-0.066335194
184	0x3d19736e	0.037463598
185	0x3c3bd7c0	0.011465013
186	0xbd8ac6fe	-0.06776236
187	0xbc832635	-0.01600943
188	0x3de866d7	0.1134774
189	0xba63e931	-0.0008694111
190	0xbcc7becc	-0.024382971
191	0xbcfc44ab	-0.030794462
192	0xbd1e1e78	-0.038603276
193	0xbcb71212	-0.022347484
194	0xbe00fb82	-0.12595943
195	0xbc921704	-0.01783324
196	0xbd7a787a	-0.06115005
197	0x3d5250e1	0.051346663
198	0xbc672b6b	-0.014109473
199	0xbcfe3d1b	-0.031034997
200	0xbe128e25	-0.14312036
201	0xbc6bc585	-0.014390354
202	0xbb9ca61a	-0.004780543
203	0xbc9c3748	-0.019069329
204	0xbd7ef38d	-0.062243987
205	0x3c84f7ee	0.016231503
206	0xbd44dae9	-0.04806033
207	0xbd350962	-0.0441984
208	0xbdc786b8	-0.097424924
209	0xbca19da3	-0.019728487
210	0xbb921e94	-0.0044592116
211	0x3d316c5a	0.043316223
212	0x3c362886	0.01111806
213	0xbd507e87	-0.050901916
214	0xbe20cc81	-0.15703012
215	0xbdba0079	-0.090821214
216	0xbe2da55a	-0.16957608
217	0x3d532ead	0.051558185
218	0x3d5f026a	0.05444566
219	0x3d2d15a6	0.042256974
220	0x3d8390cd	0.06424103
221	0xbd1fb247	-0.038988378
222	0xbca7e8da	-0.020496774
223	0x3ce3d59d	0.02781182
224	0xbd9fe6fc	-0.07807729
225	0xbcd4c925	-0.02597482
226	0x3dc82e25	0.09774426
227	0xbd45fc9f	-0.04833662
228	0xbd299f7f	-0.041411873
229	0x3dbe8f8a	0.09304722
230	0x3da92b80	0.0826025
231	0x3d510461	0.051029567
232	0x3c35b13c	0.011089619
233	0xbdc4cfcd	-0.09609947
234	0xbbbd23a1	-0.0057720696
235	0xbd8a6ebb	-0.067594014
236	0x3d1ca624	0.03824438
237	0xbd332371	-0.04373497
238	0x3db10256	0.08643024
239	0xbca9ac22	-0.020711962
240	0x3d9dc6b1	0.07703913
241	0xbce5e88f	-0.028064994
242	0x3cb68007	0.022277845
243	0x3dcdfd3a	0.10058065
244	0xbbb5c91f	-0.005547657
245	0xbca19816	-0.01972584
246	0xbd7d3304	-0.06181623
247	0x3c8725a1	0.016497435
248	0xbdde7d80	-0.10863781
249	0x3d527908	0.051384956
250	0x3da545e4	0.08069971
251	0x3c4e6425	0.0125971185
252	0xbd9d2fa7	-0.076751046
253	0x3dbad20e	0.09122096
254	0x3d3fdefa	0.046843506
255	0xbd22ad33	-0.039715957
